results/MinMaxScaler/TransformerModel_w50.pth (torch, 422298 bytes, 40 tensors)

input_projection.weight f4 [64, 6]
0	0xbf03ff28	-0.5156121
1	0xbe99b02b	-0.30017218
2	0xbe9c4253	-0.3051935
3	0xbeab94d6	-0.3351199
4	0x3c8dfd99	0.017332839
5	0x3ef378ab	0.47553
6	0x3dbde158	0.092714965
7	0xbe514721	-0.2043729
8	0x3e617a94	0.22019416
9	0x3e2de188	0.16980565
10	0xbd853256	-0.065037414
11	0xbefe1b11	-0.49630025
12	0x3ecb3d7b	0.39695343
13	0xbe1b80af	-0.15185808
14	0xbe6d60d1	-0.23181464
15	0x3eaea244	0.34108174
16	0x3c9723ab	0.018449625
17	0x3e2949ae	0.16532013
18	0x3da6eb54	0.08150354
19	0x3e395b31	0.18101193
20	0xbe298d51	-0.16557814
21	0xbe9d0667	-0.30668947
22	0xbed15209	-0.408829
23	0x3eac6e32	0.33677822
24	0x3e8bd13b	0.27308068
25	0xbe843917	-0.25824806
26	0x3e0e0c92	0.13871983
27	0xbd0f775f	-0.03502595
28	0x3dc66e91	0.096890576
29	0x3ed3aaef	0.4134135
30	0xbe4ff91e	-0.20309874
31	0xbe80e390	-0.25173616
32	0xbe643e4a	-0.22289386
33	0x3e4085cc	0.1880104
34	0x3c9ea84a	0.019367356
35	0x3e502b6c	0.20329064
36	0xbe6ff306	-0.2343255
37	0x3ec78bef	0.38973948
38	0xbad88787	-0.0016519882
39	0xbe359264	-0.17731625
40	0xbdddc62a	-0.108288124
41	0x3f12107d	0.5705641
42	0x3d1146b0	0.035467803
43	0xbf03aa34	-0.51431584
44	0x3ececb1e	0.4038934
45	0x3e99a245	0.30006614
46	0xbe6fe75d	-0.23428102
47	0xbe1e89b8	-0.15482223
48	0x3ed47063	0.41491994
49	0x3e5a540e	0.21321127
50	0x3d49a2a5	0.049227376
51	0xbef22060	-0.47290325
52	0xbdf8c293	-0.12146487
53	0x3ed2265d	0.41044894
54	0xbe39827a	-0.18116179
55	0xbd9f0521	-0.0776465
56	0x3eb953e1	0.36196807
57	0xbeb02d15	-0.34409395
58	0x3e02575e	0.1272864
59	0xbe271782	-0.16317561
60	0x3ecec927	0.40387842
61	0xbe010ac1	-0.12601759
62	0xbeb0ffe2	-0.34570223
63	0x3e38ce1d	0.18047376
64	0xbe97a4a6	-0.29617804
65	0xbe8b0fdf	-0.27160546
66	0x3ea8f553	0.32999668
67	0xbcb6c1c7	-0.022309197
68	0xbbae6518	-0.00532211
69	0xbe524a64	-0.2053619
70	0xbbebc68d	-0.0071953
71	0x3dc6bab4	0.097035795
72	0xbed073bb	-0.40713295
73	0xbe3dff1b	-0.18554346
74	0x3ea42e5c	0.3206662
75	0xbea2127b	-0.31654724
76	0x3ea4edcc	0.32212675
77	0xbe3c5b11	-0.18394114
78	0xbe34de31	-0.17662884
79	0x3e6be9fd	0.23038478
80	0x3e42d012	0.19024685
81	0x3e87c531	0.26517633
82	0xbea17b5c	-0.31539428
83	0xbec71b56	-0.38888043
84	0xbe911405	-0.28335586
85	0x3d159575	0.036519486
86	0x3e649aca	0.22324672
87	0xbdc8549a	-0.097817615
88	0xbe5c393f	-0.21506213
89	0x3ecb17db	0.39666638
90	0xbeac6df4	-0.33677638
91	0x3f0ea4fe	0.5572051
92	0x3eef7bbe	0.46774095
93	0xbe283dc3	-0.1642981
94	0xbea29e3f	-0.31761357
95	0x3de99a4c	0.11406383
96	0x3e2ac8de	0.16678187
97	0x3eb883b1	0.36037973
98	0xbec4a8c8	-0.3841002
99	0xbc9891a7	-0.01862414
100	0xbecd74ef	-0.40128276
101	0x3e652521	0.22377445
102	0x3e8e7832	0.27826077
103	0x3e4ebcf7	0.20189272
104	0xbe03a2a5	-0.12855013
105	0xbdf98a4d	-0.12184582
106	0x3d575924	0.052575245
107	0x3eb758d6	0.35809964
108	0x3eecf2a4	0.4627887
109	0xbedea49d	-0.43484965
110	0x3e24caca	0.16092983
111	0x3ea653d0	0.3248582
112	0x3d63cc87	0.055614974
113	0x3e0536c6	0.13009176
114	0x3e3674c9	0.17817988
115	0xbdaffd7b	-0.085932694
116	0xbe56cae7	-0.20975839
117	0x3e5bfc05	0.21482857
118	0x3dd5342b	0.10410341
119	0x3d989afa	0.074514344
120	0xbe5ad4bb	-0.21370213
121	0x3e0c9427	0.1372839
122	0x3e2f9e36	0.17150196
123	0x3e78d2c4	0.2429915
124	0xbe6e99f1	-0.23300911
125	0xbeeac330	-0.4585204
126	0xbea234cb	-0.31680903
127	0x3d37d836	0.04488393
128	0xbea60248	-0.32423615
129	0x3e8d6df0	0.27622938
130	0x3ef3a7ac	0.4758886
131	0xbec5c840	-0.3862934
132	0xbec9658e	-0.39335293
133	0x3e0a4a31	0.13504864
134	0xbeca114f	-0.3946633
135	0x3f095def	0.53658956
136	0x3e0aec44	0.1356669
137	0x3efa3c80	0.48874283
138	0x3ecbb244	0.39784443
139	0xbb3cbe4e	-0.0028799954
140	0xbe26d653	-0.16292696
141	0xbe93256c	-0.28739488
142	0x3ec1e847	0.37872526
143	0x3ec60ae1	0.38680175
144	0x3e18e552	0.14931229
145	0x3eb53ded	0.35398808
146	0xbeaa2798	-0.33233333
147	0xbda53fa3	-0.08068778
148	0xbd961033	-0.073273085
149	0xbd9a6108	-0.075380385
150	0xbef9d167	-0.48792574
151	0x3e9f9083	0.3116494
152	0xbea8d68d	-0.3297619
153	0xbead4bf1	-0.33847
154	0x3edcf9e5	0.43159404
155	0xbe8bb341	-0.27285197
156	0xbedd7fd2	-0.43261582
157	0x3ec22441	0.37918285
158	0x3e21b46f	0.15791486
159	0xbe66a3b7	-0.2252339
160	0xbef48468	-0.47757268
161	0xbde61be5	-0.11235789
162	0xbe6f93d4	-0.23396236
163	0xbee9289d	-0.45538798
164	0xbe38b905	-0.1803933
165	0x3e9ff3ee	0.3124079
166	0xbeba23e9	-0.36355522
167	0xbc53ab24	-0.012919221
168	0xbea9f578	-0.3319509
169	0xbdf836d6	-0.12119834
170	0x3edd6829	0.4324353
171	0x3d8a9d8a	0.067683294
172	0xbe530b59	-0.20609798
173	0x3e4a50dc	0.19757408
174	0x3f15db7b	0.58538026
175	0xbe34ef08	-0.17669308
176	0xbec1a7f0	-0.3782344
177	0x3d461d63	0.04836787
178	0xbe96a9cf	-0.2942643
179	0x3ee31e95	0.4435927
180	0x3ed7dcea	0.42160732
181	0xbd807d31	-0.06273878
182	0xbd1051be	-0.035234205
183	0xbe8f56c7	-0.27995893
184	0x3e859c88	0.26095986
185	0xbf1be379	-0.6089397
186	0xbee3591b	-0.4440392
187	0xbe01f408	-0.12690747
188	0xbe01b2ee	-0.12665913
189	0x3e6c397a	0.230688
190	0x3e290f01	0.1650963
191	0xbe5b590b	-0.21420686
192	0x3e46e168	0.19421923
193	0x3e278702	0.16360095
194	0xbbfdf34a	-0.0077499496
195	0xbd63bf5e	-0.055602424
196	0x3e8e3005	0.2777101
197	0xbebb0226	-0.36525077
198	0xbf0afe65	-0.54294425
199	0x3e75cb32	0.24003294
200	0x3e32a244	0.17444712
201	0x3d610211	0.05493361
202	0xbe3a0648	-0.18166459
203	0x3d8e2fd3	0.069427155
204	0xbe72c7e4	-0.23709065
205	0xbe7dda7f	-0.24790381
206	0x3e23c53d	0.15993209
207	0xbe851599	-0.2599304
208	0xbe7d4ed3	-0.247371
209	0x3f0bd4de	0.54621685
210	0x3dfc02ef	0.12305247
211	0x3ee01057	0.43762466
212	0x3ddd6d22	0.10811831
213	0xbdec8ce7	-0.115503125
214	0xbd993bd9	-0.07482118
215	0xbf11040d	-0.56646806
216	0xbeed4c6a	-0.46347362
217	0x3e86bfb6	0.2631814
218	0xbf011e55	-0.5043691
219	0xbde9159e	-0.11381076
220	0x3ea8e1ab	0.3298467
221	0x3e426f1e	0.189877
222	0xbe648b3a	-0.22318736
223	0x3dc3a4d4	0.09552923
224	0xbea86ca2	-0.3289538
225	0x3d25e9f1	0.040506307
226	0x3b3bbde6	0.0028647124
227	0xbebdce2d	-0.37071362
228	0x3eb306e9	0.3496621
229	0xbdf6013e	-0.12011956
230	0x3e9d60e6	0.3073799
231	0xbdf504e0	-0.119638205
232	0x3e23270b	0.15932862
233	0xbeadd3cc	-0.3395065
234	0x3e83d10b	0.25745425
235	0xbe2b29a4	-0.16715103
236	0x3eadd42f	0.33950946
237	0x3eaf10ff	0.34192654
238	0xbdbeb768	-0.09312326
239	0xbdb5f7a7	-0.088851266
240	0xbbcbc034	-0.0062179808
241	0xbeca7804	-0.3954469
242	0xbead978c	-0.33904684
243	0xbe21e359	-0.15809382
244	0x3ca55c29	0.020185547
245	0x3e847640	0.25871468
246	0x3e912196	0.28345937
247	0x3e535c92	0.20640782
248	0xbe7d1f7e	-0.24719045
249	0x3e1f8f8c	0.15582103
250	0xbe8d3d79	-0.27585962
251	0xbed60ccb	-0.41806635
252	0x3e000bb8	0.1250447
253	0xbe87a813	-0.26495418
254	0x3e6eb000	0.23309326
255	0xbe09d210	-0.13459039

input_projection.bias f4 [64]
0	0x3eb0c965	0.34528652
1	0x3e1011b8	0.14069259
2	0xbe31d04d	-0.17364617
3	0x3e56b9f7	0.20969377
4	0xbe8cbb4b	-0.27486643
5	0x3dc54490	0.09632218
6	0xbe880d3b	-0.26572594
7	0x3d44510f	0.047928866
8	0xbe099c2a	-0.13438478
9	0x3c022e6d	0.007945639
10	0x3ead02a9	0.33791092
11	0x3bcec95e	0.006310626
12	0x3dd7e81c	0.10542318
13	0x3d98aed5	0.074552216
14	0xbe108265	-0.14112242
15	0xbe802be5	-0.2503349
16	0x3dd35666	0.103192136
17	0xbe696be6	-0.22795066
18	0xbe87ea25	-0.26545826
19	0xbd81ae2d	-0.063320495
20	0x3e30db3f	0.17271136
21	0x3d2e3c41	0.04253793
22	0xbeaedf95	-0.34154955
23	0xbe851dea	-0.25999385
24	0x3da4132e	0.08011471
25	0x3e680552	0.2265828
26	0x3e96e8e0	0.29474545
27	0x3ecd6e6d	0.4012331
28	0xbe0571d5	-0.13031705
29	0x3b561f3d	0.0032672428
30	0x3e7c71cc	0.24652785
31	0x3e01b51c	0.12666744
32	0xbd2a6222	-0.041597493
33	0xbc1af07c	-0.00945675
34	0x3d3aab69	0.045573626
35	0x3d86cd26	0.06582098
36	0x3da9ba07	0.08287435
37	0x3eaa6750	0.33281946
38	0xbd461d4b	-0.04836778
39	0xbe538ff4	-0.20660383
40	0x3e73940f	0.23786949
41	0x3e8d85ce	0.27641147
42	0xbaef721b	-0.0018268259
43	0x3e84eaa6	0.25960273
44	0x3df43eb3	0.119260214
45	0xbc5f5ad9	-0.0136325
46	0x3be46b23	0.0069707795
47	0xbe6798fb	-0.22616951
48	0xbe56b2ff	-0.20966719
49	0x3d05176d	0.032493044
50	0x3ed7b0fe	0.42127222
51	0xbe55e6a5	-0.20888765
52	0xbe1ab3d1	-0.15107657
53	0xbe18211c	-0.1485638
54	0xbd018cda	-0.031628467
55	0xbe2d3219	-0.16913642
56	0x3ca8ff15	0.020629445
57	0x3e82e8c4	0.2556821
58	0x3c0d2611	0.008615033
59	0xbd9464a2	-0.07245757
60	0x3e05473b	0.13015454
61	0x3e0d4b7c	0.13798326
62	0x3eb80c0e	0.35946697
63	0xbd78bd47	-0.060727384

transformer.layers.0.self_attn.in_proj_weight f4 [192, 64]
0	0xbe8d7438	-0.2762773
1	0x3eaee05c	0.34155548
2	0xbe8c5d75	-0.27415052
3	0x3c1670ca	0.009182164
4	0xbdc0b25e	-0.09409021
5	0x3e69e5e4	0.22841603
6	0xbf050621	-0.51962477
7	0x3e918561	0.28422073
8	0x3e37ce0d	0.17949696
9	0xbe638505	-0.22218712
10	0xbe3b1df1	-0.1827314
11	0x3e967a28	0.29390073
12	0x3ebff5eb	0.37492308
13	0x3e139ba4	0.14414841
14	0xbe832711	-0.25615743
15	0xbf0b9cb2	-0.54535973
16	0xbd41e5fb	-0.047338467
17	0xbecbb19b	-0.3978394
18	0x3d9e1785	0.0771933
19	0xbca420da	-0.020035196
20	0x3e384fb3	0.17999153
21	0xbdbd9c59	-0.092583366
22	0xbecee175	-0.40406385
23	0x3e2e13e5	0.16999777
24	0xbea57927	-0.32318994
25	0xbd07fdee	-0.03320115
26	0x3cd097de	0.02546304
27	0xbe804f74	-0.25060618
28	0xbe9a542f	-0.30142352
29	0xbe933c42	-0.2875691
30	0x3ea9478e	0.33062404
31	0x3eb23408	0.34805322
32	0x3edd44f0	0.43216658
33	0xbe1d1aba	-0.15342227
34	0xbebc77de	-0.368102
35	0x3e412146	0.18860349
36	0x3d67ad5a	0.056561805
37	0x3cc3ebab	0.023916086
38	0x3e16b050	0.14715695
39	0x3e390601	0.18068697
40	0xbe81d606	-0.253586
41	0x3d58f342	0.052966364
42	0x3e9cc9cb	0.30622706
43	0x3e129bb6	0.14317212
44	0xbe55b96c	-0.20871514
45	0xbe1d75b9	-0.15376939
46	0x3e9dc2a5	0.30812564
47	0xbe1fd818	-0.15609777
48	0xbe0e3b84	-0.13889891
49	0x3d52c925	0.051461358
50	0xbe988459	-0.29788473
51	0xbed69289	-0.41908672
52	0xbddd9080	-0.10818577
53	0xbeaa850b	-0.3330463
54	0x3d228da9	0.03968588
55	0x3e1aca39	0.15116204
56	0x3c6cc117	0.014450333
57	0x3eee0c4c	0.46493757
58	0x3e0d3d2b	0.13792865
59	0x3d9204b1	0.07129801
60	0x3d2b2121	0.04177964
61	0x3e955758	0.291682
62	0xbd8937a9	-0.067000695
63	0x3db87063	0.09005811
64	0xbe81967a	-0.25310117
65	0x3e4b4b51	0.1985295
66	0xbe902495	-0.2815291
67	0x3e3b4920	0.18289614
68	0x3c4be9d4	0.012445886
69	0x3eae370e	0.34026378
70	0xbeacfbf8	-0.33785987
71	0x3e95573a	0.2916811
72	0xbcaaf271	-0.020867558
73	0xbe8968dd	-0.26837817
74	0xbda5b7fd	-0.080917336
75	0x3df565c8	0.11982304
76	0x3e09152a	0.1338698
77	0x3e2d94f3	0.16951351
78	0xbe52342f	-0.20527719
79	0xbede5a61	-0.4342833
80	0xbe815bd7	-0.2526538
81	0xbea870f8	-0.32898688
82	0x3d5230bb	0.051316004
83	0xbe67771c	-0.2260403
84	0x3ec4e07c	0.38452518
85	0xbdeb06dc	-0.11475918
86	0xbee40a10	-0.44538927
87	0x3e5d0e7e	0.2158756
88	0xbeb6db0d	-0.35713997
89	0xbb17057d	-0.0023044043
90	0xbcf45f57	-0.029830618
91	0xbe7c39cc	-0.24631423
92	0xbe0f684b	-0.14004628
93	0xbebfdfcb	-0.37475428
94	0x3ef73aaa	0.48286945
95	0x3e5cb58a	0.21553627
96	0x3ec54c56	0.38534802
97	0xbe5ea384	-0.21742064
98	0xbed000c9	-0.406256
99	0x3d545354	0.05183728
100	0x3d23f110	0.040024817
101	0xbcd57dbd	-0.026060933
102	0x3e83f9c1	0.25776485
103	0x3e9b3602	0.30314642
104	0xbef2a9a2	-0.47395045
105	0x3e911f76	0.28344315
106	0x3edc2204	0.42994702
107	0x3ec5dd0f	0.38645217
108	0xbe416400	-0.18885803
109	0xbd34dbc6	-0.044154905
110	0x3da7fd07	0.08202558
111	0xbd32104a	-0.043472566
112	0xbe3e773e	-0.18600175
113	0x3e7261a6	0.23670062
114	0xbe674ef9	-0.2258872
115	0xbed1544e	-0.40884632
116	0xbe25a712	-0.16177014
117	0xbeb06e0a	-0.34458953
118	0xbc356924	-0.011072431
119	0x3e14826c	0.14502877
120	0x3e253ccb	0.16136472
121	0x3ecb2450	0.39676142
122	0xbce57e7d	-0.028014416
123	0x3d3d4b63	0.046214473
124	0x3dc76562	0.09736134
125	0x3ea34caf	0.31894442
126	0x3dd72763	0.10505559
127	0x3e4ed8fa	0.20199957
128	0x3d6e5d92	0.058194704
129	0xbe9d639b	-0.30740055
130	0x3eafbf85	0.34325805
131	0x3d5243b4	0.051334098
132	0x3dcc0ec0	0.09963751
133	0xbebeed5e	-0.37290472
134	0x3ec3a70d	0.38213387
135	0xbe7333f5	-0.23750289
136	0x3daaeb18	0.08345622
137	0x3e610bde	0.21977183
138	0x3dfa00d2	0.12207188
139	0xbe9a3cfc	-0.30124652
140	0xbe719a93	-0.23594122
141	0xbe59caa5	-0.21268709
142	0x3ebf6415	0.37381044
143	0x3ecc25f4	0.39872706
144	0x3eae3196	0.34022206
145	0x3ed3e54b	0.41385874
146	0xbe01792e	-0.12643883
147	0x3dfc0e23	0.12307384
148	0xbe9674ca	-0.29385978
149	0x3e0084ed	0.12550707
150	0x3ee44248	0.4458182
151	0x3cbf248d	0.023332858
152	0x3ebc218b	0.3674434
153	0xbd57a475	-0.052647073
154	0xbe506755	-0.20351918
155	0x3e819f4f	0.25316855
156	0x3d62ee8b	0.055403274
157	0x3ecc8a78	0.39949393
158	0xbe96f93e	-0.29487032
159	0xbe893a3c	-0.26802242
160	0xbecdf75d	-0.40227786
161	0xbce6ce64	-0.028174587
162	0x3e9ac98d	0.30231896
163	0xbcf69ff7	-0.030105574
164	0xbcc89af1	-0.024487944
165	0xbdb14f37	-0.08657687
166	0xbe806523	-0.2507716
167	0xbe7b78fe	-0.24557874
168	0x3ed0424b	0.40675578
169	0xbe7cdbdd	-0.24693246
170	0xbedc561c	-0.43034446
171	0xbec2bacf	-0.3803315
172	0x3e723458	0.2365278
173	0xbd70e998	-0.058816522
174	0xbe7aab65	-0.24479444
175	0xbc18f648	-0.009336062
176	0xbda8cb55	-0.082419075
177	0xbe3c112b	-0.18365924
178	0x3e5c615b	0.21521513
179	0x3e5258b2	0.20541647
180	0x3e8ec519	0.2788475
181	0x3e8ce484	0.27518094
182	0x3dc7329d	0.097264506
183	0xbe1623cf	-0.14662097
184	0xbde634bb	-0.11240526
185	0xbead24c4	-0.33817112
186	0x3d8550a8	0.065095246
187	0xbd838fc2	-0.06423904
188	0xbde1fc84	-0.11034492
189	0xbebefc0a	-0.37301666
190	0xbd03559b	-0.03206406
191	0xbd2ff779	-0.042960618
192	0xbe25b553	-0.16182451
193	0x3eb2f081	0.34949115
194	0xbecda502	-0.40164953
195	0x3e090150	0.13379407
196	0xbde6f485	-0.11277107
197	0x3e01d68b	0.12679498
198	0xbf0ee588	-0.55818987
199	0x3e370202	0.1787186
200	0x3b61a432	0.0034430143
201	0xbe6395da	-0.22225133
202	0xbdb2129f	-0.08694958
203	0x3eab603d	0.3347186
204	0x3eca04a8	0.39456677
205	0x3df0ba6b	0.117543064
206	0xbe88879f	-0.2666597
207	0xbef2c0f3	-0.47412834
208	0xbe3e29b9	-0.18570603
209	0xbea50481	-0.3223
210	0xbd76b4b6	-0.060230933
211	0xbe3422db	-0.17591421
212	0x3e9c0b45	0.30477348
213	0xbcfe97e6	-0.03107829
214	0xbebd900f	-0.3702397
215	0x3e41fc3a	0.18943873
216	0xbf0a5126	-0.5403007
217	0x3e3f5b05	0.18687065
218	0x3e46a654	0.19399387
219	0xbe3f5456	-0.18684515
220	0xbe6ab690	-0.22921205
221	0xbe776c2a	-0.24162355
222	0x3ea65dd0	0.32493448
223	0x3e3a450c	0.18190402
224	0x3ed1d594	0.4098326
225	0xbbb61ad6	-0.0055573983
226	0xbe8bad00	-0.27280426
227	0x3cb2b1b5	0.021813253
228	0x3e18d1f2	0.14923838
229	0xbdeb0497	-0.11475485
230	0x3e06f65b	0.13179915
231	0x3e4ab612	0.19796017
232	0xbe4f7f19	-0.20263328
233	0x3e1240cf	0.14282535
234	0x3e94d90c	0.29071844
235	0x3eaedf77	0.34154865
236	0xbe971d7c	-0.29514682
237	0x3e022f64	0.1271339
238	0x3ec42dd0	0.38316202
239	0x3d15d9e0	0.036584735
240	0xbe125023	-0.14288382
241	0x3e7c71e0	0.24652815
242	0xbe90852d	-0.28226605
243	0xbee9152b	-0.45523962
244	0xbeb705f6	-0.35746735
245	0xbeefe4f3	-0.46854362
246	0xbd84f52a	-0.06492074
247	0x3da50641	0.080578335
248	0x3ea887e4	0.32916176
249	0x3e79166a	0.24324957
250	0x3e236e51	0.15960051
251	0xbad506c8	-0.0016252631
252	0x3e73a050	0.23791623
253	0x3ec86656	0.39140576
254	0x3dc398fe	0.09550665
255	0x3e1899f5	0.1490248

transformer.layers.0.self_attn.in_proj_bias f4 [192]
0	0x3e86c7d1	0.26324323
1	0x3e9a500d	0.301392
2	0xbe988ba6	-0.29794043
3	0x3eaeb3bc	0.341215
4	0x3e8e3016	0.27771062
5	0xbe98a5a5	-0.29813877
6	0x3e9d5721	0.30730537
7	0x3e9d6e91	0.30748418
8	0xbe9cf754	-0.30657446
9	0x3ea77d7e	0.3271293
10	0x3ea4c11c	0.3217858
11	0x3eb8bf39	0.3608339
12	0xbe92c16b	-0.2866319
13	0x3e92e92b	0.28693518
14	0x3ea53112	0.32264
15	0x3eb2f69c	0.34953773
16	0x3e8f13b0	0.27944708
17	0xbeb06064	-0.3444854
18	0x3e9f7e61	0.31151107
19	0xbebe7f0b	-0.372063
20	0x3ecc7dbb	0.39939675
21	0x3ea7037f	0.32619855
22	0xbea311e5	-0.3184959
23	0x3eaf9dc1	0.34300044
24	0x3eb1a500	0.34696198
25	0xbebb1293	-0.36537609
26	0xbe971fa1	-0.29516318
27	0x3e9f51d0	0.31117105
28	0x3eb9634b	0.36208567
29	0xbeb85882	-0.36005026
30	0xbeb19238	-0.3468187
31	0xbe9c1149	-0.30481938
32	0xbebc18db	-0.36737713
33	0x3ec5f07c	0.38660038
34	0x3ea36805	0.31915298
35	0x3ec76954	0.38947546
36	0xbea690b8	-0.32532287
37	0xbed0885c	-0.40729034
38	0x3e6a7a22	0.22898152
39	0xbebd2589	-0.369427
40	0x3e8bf53b	0.27335533
41	0x3eca4bc4	0.3951093
42	0xbeb3ed0d	-0.35141793
43	0x3eaa1b85	0.3322412
44	0x3e9dc08f	0.30810973
45	0x3e942764	0.28936303
46	0xbebf9e90	-0.3742566
47	0x3ebabfef	0.3647456
48	0xbea6c3eb	-0.3257135
49	0x3d1d2e83	0.038374435
50	0xbe446f6a	-0.19183126
51	0x3eed25ba	0.46317846
52	0xbe973362	-0.2953139
53	0xbea046a8	-0.31303906
54	0x3ea07a54	0.3134333
55	0xbec7ef92	-0.39049965
56	0xbed8543e	-0.42251772
57	0x3e9c850c	0.30570257
58	0x3ea4b771	0.32171205
59	0x3ecf5f55	0.4050242
60	0xbed9d113	-0.42542323
61	0x3ebdac07	0.3704531
62	0xbe986cf5	-0.29770628
63	0x3ee53818	0.4476936
64	0xbbc92b47	-0.0061391923
65	0xbb9a6c8d	-0.0047126473
66	0x3bb5494d	0.00553242
67	0xbbeb3cd7	-0.0071788835
68	0xbbee479a	-0.007271719
69	0x3bbc7f6e	0.0057524955
70	0xbb7982ca	-0.003807234
71	0xbbd52add	-0.006505354
72	0x3b51b019	0.0031995832
73	0xbbcbbc1f	-0.006217494
74	0xbbe7bc7d	-0.00707203
75	0xbbe4f60f	-0.0069873403
76	0x3b8da1cf	0.0043222676
77	0xbb8df3ec	-0.0043320563
78	0xbbecd94f	-0.0072280536
79	0xbb82595a	-0.0039779367
80	0xbb1e0a2e	-0.0024114954
81	0x3b783e37	0.003787888
82	0xbb8d94a3	-0.0043206974
83	0x3b8b1a98	0.0042451136
84	0xbbcf5c07	-0.006328109
85	0xbb46f094	-0.0030355798
86	0x3b1fe4f5	0.0024397944
87	0xbb5cca4f	-0.0033689921
88	0xbbb4de7e	-0.005519687
89	0x3b598893	0.0033192977
90	0x3aff4159	0.0019474431
91	0xbb8afde9	-0.004241694
92	0xbb61b953	-0.0034442737
93	0x3b860b8d	0.0040907324
94	0x3b5c487f	0.0033612547
95	0x3b107bf7	0.0022046545
96	0x3b506d41	0.0031803402
97	0x3b4bad0c	0.0031078486
98	0x3afbbcbc	0.0019206028
99	0x392ba11a	0.00016367846
100	0x39c2dfa2	0.00037169183
101	0xbaca4ace	-0.001543367
102	0xbb340311	-0.0027467648
103	0xbb8a2018	-0.0042152517
104	0xbb1c8359	-0.0023882
105	0x3b122812	0.0022301716
106	0x3b9dfe1e	0.004821553
107	0x3bcb2c84	0.006200375
108	0x3bb127c0	0.00540635
109	0x3b9a75ed	0.004713765
110	0xbb4a8cce	-0.003090668
111	0x3ae03aec	0.0017107404
112	0xbbb999a2	-0.0056640664
113	0x3abab4af	0.0014244522
114	0xbac95d79	-0.001536294
115	0x3bdf1fb1	0.006809198
116	0xb9817ae0	-0.00024696346
117	0xbb83795d	-0.0040122704
118	0x3b23d305	0.0024997604
119	0xbba90cec	-0.005159011
120	0xbb035053	-0.002003689
121	0x3b937273	0.0044997274
122	0x3be2720c	0.006910568
123	0x3bcbaed7	0.006215911
124	0xbc2c83d6	-0.010529479
125	0x3b571cd3	0.0032823577
126	0xbbec40c6	-0.00720987
127	0x3c27d08f	0.010242595
128	0xbbf50593	-0.007477471
129	0x3c811771	0.015758248
130	0xbc015307	-0.00789333
131	0xbd294e48	-0.04133442
132	0x3bd13393	0.006384322
133	0xbc9567ec	-0.01823803
134	0x3ab0db85	0.0013493156
135	0xbb955bc3	-0.004558058
136	0x3d25a760	0.040442824
137	0xbc903778	-0.017604575
138	0x399875ad	0.00029079375
139	0x3d29345a	0.041309692
140	0x3ce1f6c4	0.027583487
141	0x3c617c10	0.013762489
142	0x3a0b4903	0.0005313309
143	0xbc8181ac	-0.015808903
144	0xbb988b7c	-0.0046552997
145	0xbaa3b307	-0.0012489267
146	0xbc92568d	-0.017863536
147	0xbbae589f	-0.005320623
148	0xbbc35087	-0.0059605273
149	0x3cca523f	0.024697421
150	0xbb6da1bd	-0.0036259734
151	0x3c9998a7	0.018749548
152	0xbc543ab4	-0.012953449
153	0x3cd69edc	0.026198797
154	0x3d0be16c	0.034150526
155	0xbb87abd5	-0.004140357
156	0x3bf30d53	0.00741736
157	0x3bd32fcb	0.0064449064
158	0x3d160a94	0.03663118
159	0xbb1144cb	-0.0022166248
160	0x3bc80e09	0.0061051887
161	0x3bb1e8ec	0.005429378
162	0x3c146f0c	0.009059679
163	0x3b9a1774	0.004702503
164	0xbc3915cd	-0.011296702
165	0x39a0569b	0.00030582104
166	0x3c52326d	0.012829405
167	0x3c698488	0.014252789
168	0x39bcb498	0.00035992707
169	0xbba3d218	-0.0049994104
170	0xbbc83aad	-0.0061105103
171	0xbaf2a1e2	-0.001851138
172	0x3cb1d540	0.02170813
173	0xbcbb273e	-0.02284586
174	0x3cbc0dbb	0.022955766
175	0xbc20f0d9	-0.009823048
176	0xb94108bd	-0.0001840917
177	0xbb11f35f	-0.0022270305
178	0xbb43d623	-0.0029882274
179	0x3bd5bf8b	0.006523078
180	0xbc887eff	-0.016662119
181	0xbc291ebb	-0.010322268
182	0xbb36281e	-0.0027794908
183	0xbc85da26	-0.016339373
184	0x3ca912e0	0.020638883
185	0x3cb2ef2d	0.021842564
186	0x3c7053fb	0.01466846
187	0x3c31bee0	0.010848731
188	0x3b6c1e31	0.0036028738
189	0xbc800cbe	-0.015631076
190	0xbcd4500f	-0.025917081
191	0x3b94376d	0.004523209

transformer.layers.0.self_attn.out_proj.weight f4 [64, 64]
0	0x3cd442ee	0.02591082
1	0x3ba1a1e0	0.004932627
2	0xbc122d8d	-0.008921993
3	0x3caba386	0.020951997
4	0x3d34f630	0.044180095
5	0xbde361c1	-0.111026295
6	0xbcafc5f4	-0.021456696
7	0x3dfa4644	0.12220433
8	0x3dc39c9d	0.09551356
9	0x3d0b9977	0.034081902
10	0xbade6516	-0.0016967382
11	0xbce77363	-0.028253263
12	0xbc4d18a5	-0.012518083
13	0xbd177166	-0.03697338
14	0x3becd145	0.0072270953
15	0x3d4cd4fb	0.0500078
16	0x3d855b98	0.06511611
17	0x3d9fd6a5	0.07804612
18	0x3b5f55a1	0.0034078138
19	0x3d5ea244	0.054353967
20	0xbd2cb69e	-0.042166345
21	0x3cf6959d	0.030100638
22	0x3d4350ff	0.047684666
23	0x3da6a603	0.08137133
24	0xbda1c60a	-0.07899101
25	0x3b14e1c1	0.0022717568
26	0x3d0a7961	0.033807162
27	0x39c70aef	0.00037964384
28	0x3db9ff16	0.09081857
29	0xbc03d973	-0.008047449
30	0x3da148c5	0.07875208
31	0xbcc7221e	-0.02430826
32	0x3a4e6f50	0.0007874863
33	0x3bca727e	0.0061781993
34	0x3d49c706	0.04926207
35	0xbd6171b5	-0.05504008
36	0x3d83e437	0.06440013
37	0xbc95a272	-0.018265937
38	0x3a88d8a2	0.0010440538
39	0xbd214d0b	-0.039380115
40	0x3d851f0a	0.06500061
41	0xbd2d5462	-0.0423168
42	0xbd7cf91b	-0.061761003
43	0x3c37c143	0.011215511
44	0xbc941580	-0.018076658
45	0xbd8e79be	-0.06956814
46	0x3c1a1bc8	0.009406038
47	0xbda9e4cc	-0.08295593
48	0x3d9086f5	0.07056991
49	0x3cec981b	0.028881123
50	0x3ca299ec	0.019848786
51	0x3dc5a9d9	0.096515365
52	0x3d6773d1	0.056506936
53	0x3b742f94	0.0037259804
54	0xbe0e6753	-0.13906603
55	0xbc6c37c8	-0.014417596
56	0xbd339108	-0.043839484
57	0x3dafe199	0.08587951
58	0xbc77c342	-0.015122237
59	0x3bec1826	0.007205027
60	0x3c85c8e4	0.016331144
61	0x3b60a640	0.003427878
62	0xbcdc121e	-0.026864108
63	0xbb8415b6	-0.0040309085
64	0xbddb8d93	-0.107203625
65	0xbe0b1c7a	-0.13585082
66	0x3e0bd5a6	0.13655719
67	0xbe228ddd	-0.15874429
68	0x3e6442c8	0.222911
69	0x3b951ca3	0.004550533
70	0xbcc730a4	-0.024315186
71	0xbd2fa16c	-0.042878553
72	0xbd25a32b	-0.040438812
73	0x3de9f4e9	0.11423666
74	0xbc95fb6b	-0.018308362
75	0xbd74c056	-0.05975374
76	0x3ceae4b5	0.02867351
77	0x3b9b2f36	0.0047358526
78	0x3e04f614	0.12984496
79	0x3c473de0	0.012160748
80	0x3d5b92f6	0.05360695
81	0xbda9e0de	-0.08294843
82	0xbcf150ef	-0.029457537
83	0xbe0d0b51	-0.13773848
84	0xbd088c00	-0.03333664
85	0xbdad381f	-0.0845797
86	0xbd82bbee	-0.06383501
87	0xbbad8731	-0.005295657
88	0xbe0e26d4	-0.13881999
89	0x3ca07b5b	0.01959007
90	0x3be681af	0.0070345025
91	0x3d54e8af	0.051979717
92	0x3c8d714c	0.017265938
93	0xbcb99eff	-0.022658823
94	0x3c9e5223	0.019326275
95	0x3dab2c2b	0.08358034
96	0x3e0d5e2e	0.13805458
97	0x3dc3c492	0.09558977
98	0xbd03869c	-0.032110795
99	0x3e17f0f7	0.14838015
100	0x3d8e895d	0.06959794
101	0xbdee4bd0	-0.11635554
102	0xbe3f6845	-0.1869212
103	0x3e1ff842	0.15622047
104	0x3d69681d	0.056984056
105	0xbbbc0ff3	-0.005739206
106	0x3bbcfa4d	0.005767143
107	0x3c36e131	0.011162088
108	0x3cce21d9	0.025162624
109	0x3d12938c	0.035785243
110	0xbc3559ab	-0.011068742
111	0x3dfa611c	0.122255534
112	0xbccd3ccf	-0.02505341
113	0xbd779e0d	-0.060453463
114	0xbc05e685	-0.008172636
115	0x3d9c1135	0.076204695
116	0xbcb325d3	-0.021868622
117	0xbc7da176	-0.01548039
118	0xbe37ab9f	-0.17936562
119	0xbdba0ae9	-0.09084112
120	0x3db41bb4	0.087943465
121	0x3dc95868	0.09831315
122	0x3e572089	0.21008505
123	0x3e01b41b	0.12666361
124	0x3b4deadc	0.0031420505
125	0xbd1fb624	-0.038992062
126	0x3d5e168f	0.054220732
127	0xbbfc0342	-0.007690818
128	0x3caf0681	0.021365406
129	0xbdbcbbc1	-0.09215499
130	0xbd6821b0	-0.056672752
131	0xbdc9c908	-0.09852797
132	0xbd79f176	-0.06102129
133	0xbd616d11	-0.055035654
134	0xbe0fac98	-0.14030683
135	0x3db005c6	0.08594851
136	0xbde44e8a	-0.11147793
137	0x3a8db443	0.0010811168
138	0x3d42478d	0.047431517
139	0xba85afe7	-0.0010199518
140	0xbd866880	-0.065629005
141	0xbdb6758a	-0.089091375
142	0x3de27a83	0.110585235
143	0x3df50e37	0.11965602
144	0xbdf62a84	-0.12019828
145	0xbd4c3d63	-0.04986323
146	0x3d8a614d	0.0675684
147	0xba0a38e8	-0.0005272762
148	0x3d30a187	0.043122794
149	0xbd402470	-0.04690975
150	0x3d07ad58	0.033124298
151	0x3cc84911	0.024448903
152	0xbcf6c30f	-0.030122308
153	0x3d437522	0.04771913
154	0x3d6de13f	0.05807614
155	0xbe03b54a	-0.12862125
156	0xbdb555be	-0.08854245
157	0xbda20e1a	-0.07912846
158	0xbda02f21	-0.07821489
159	0x3da071b1	0.07834185
160	0x3c6f103d	0.014591274
161	0x3db6014e	0.088869676
162	0x3cc23c2e	0.023710337
163	0xbde723e5	-0.11286143
164	0xbd8145da	-0.06312151
165	0xbdc67540	-0.096903324
166	0x3e05550b	0.13020723
167	0xbd82a2fa	-0.063787416
168	0xbdf22f9a	-0.118254855
169	0x3c89a33f	0.016801475
170	0x3bff97c1	0.007800073
171	0xbd4c298f	-0.04984432
172	0x3e1a3864	0.15060574
173	0x3d2ad860	0.041710258
174	0xbceeccab	-0.029150328
175	0xbe0e7bdd	-0.13914438
176	0xbd95d9e3	-0.07316949
177	0x3c757589	0.014981636
178	0x3bb037a3	0.005377726
179	0x3ddb407c	0.10705659
180	0x3d35f493	0.044422697
181	0x3dd5d3b2	0.10440768
182	0xbb2f65ba	-0.0026763515
183	0xbe0904df	-0.13380764
184	0xbdb7a954	-0.08967844
185	0x3d840181	0.06445599
186	0xbd430216	-0.04760941
187	0x3d2a6a05	0.041605014
188	0xbb833edb	-0.0040052957
189	0xbd1ea078	-0.038727254
190	0x3da7c6d6	0.08192222
191	0xbda048f8	-0.07826418
192	0xbdc5abae	-0.09651886
193	0x3ce2f1e8	0.02770324
194	0x3d408503	0.04700185
195	0xbd369bf1	-0.04458231
196	0xbcc95983	-0.024578815
197	0xbd057244	-0.032579675
198	0x3d52c672	0.051458783
199	0x3db3c789	0.08778293
200	0x3d69c05c	0.057068214
201	0x3dcb2d87	0.09920793
202	0xbcf0f3ba	-0.029413093
203	0xbd2c6492	-0.0420881
204	0xbdafd42b	-0.0858539
205	0xbcc63eda	-0.024199892
206	0x3d3816ff	0.044943806
207	0xbdb2a154	-0.08722177
208	0xbc9958ad	-0.018719042
209	0x3d2cdeb9	0.042204592
210	0x3c80cdfa	0.015723217
211	0xbd04c8ca	-0.03241805
212	0xbd4fc6ef	-0.050726827
213	0x3c9177af	0.017757265
214	0xbdc2d3dc	-0.09513065
215	0xbe405db4	-0.18785745
216	0xbe290d2a	-0.16508928
217	0xbd97cf4c	-0.074125856
218	0xbd13f285	-0.036119957
219	0xbd1657db	-0.03670488
220	0xbda68a04	-0.08131793
221	0x3c1f6d65	0.0097306715
222	0xbce1c446	-0.02755941
223	0xbdc7b608	-0.097515166
224	0xbde18d64	-0.11013296
225	0x3a043ed4	0.00050447625
226	0xbdabd5c3	-0.08390381
227	0x3d0fc506	0.035100006
228	0xbd55e9de	-0.052224986
229	0x3d25b018	0.04045114
230	0x3dbf3064	0.09335402
231	0xbcd2c7ad	-0.025729978
232	0x3cc51f6a	0.024062831
233	0xbdf17519	-0.11789913
234	0xbd81240e	-0.06305705
235	0x3cf76f68	0.03020449
236	0x3d96d4de	0.0736482
237	0xbc24d92a	-0.010061542
238	0x3d22c2cc	0.039736554
239	0x3dd81a5c	0.10551903
240	0x3d73b849	0.05950192
241	0x3b157194	0.0022803294
242	0x3c0bc583	0.008530977
243	0xbd744323	-0.05963434
244	0x3dc95548	0.09830719
245	0x3dea91e9	0.114536114
246	0xbd7e3de4	-0.062070742
247	0x3cff14cc	0.031137846
248	0xbaf4deeb	-0.0018682157
249	0x3d96928d	0.07352171
250	0x3d4d1c1f	0.050075646
251	0xbc6c9b97	-0.014441392
252	0x3d784b94	0.060618952
253	0x3d25185d	0.040306438
254	0x3dc8650e	0.097849
255	0x3d801a47	0.06255012

transformer.layers.0.self_attn.out_proj.bias f4 [64]
0	0x3949cd47	0.00019245326
1	0x3c27d66c	0.010243993
2	0xbc174a6b	-0.009234051
3	0x3cfd3694	0.030909814
4	0xbbc648cf	-0.00605116
5	0x3d4fd997	0.05074462
6	0xbb1ebe8d	-0.0024222464
7	0xbb6761c8	-0.0035306085
8	0x3ab17c54	0.0013541081
9	0xbd52e48e	-0.051487498
10	0xbcab13f2	-0.020883534
11	0x3ce4fa22	0.027951304
12	0xbc96dfbb	-0.01841723
13	0x3d236b62	0.03989733
14	0xbd52c400	-0.05145645
15	0xbd24c5fc	-0.040227875
16	0x3a1ed5a3	0.0006059056
17	0xbccf802b	-0.02532967
18	0xbc9b8c50	-0.018987805
19	0xbccfe0b0	-0.025375694
20	0x3db3d83c	0.08781478
21	0xbc6630d9	-0.014049732
22	0xbbb7f1ba	-0.005613533
23	0x3b3e21f1	0.002901193
24	0xbb833b58	-0.004004877
25	0xbbcd698e	-0.0062686866
26	0x3d312134	0.043244556
27	0xbc34c7e4	-0.011033986
28	0xbcfa4a68	-0.030553058
29	0xbc34a82d	-0.011026424
30	0x3bec3745	0.007208737
31	0x3cd873ff	0.026422499
32	0x3d5ad53c	0.053426012
33	0x3c67eb96	0.014155289
34	0xbd00e0cb	-0.03146438
35	0xbcbbc2e0	-0.022920072
36	0x3c585709	0.013204345
37	0x3c529eee	0.012855275
38	0xbc328871	-0.010896788
39	0x3d47e5fe	0.048803322
40	0xbdbb432e	-0.09143673
41	0x3d9fc628	0.07801467
42	0x3d582d59	0.052777622
43	0x3d9e515b	0.07730361
44	0xbc9133a6	-0.017724823
45	0x3b091c1a	0.002092129
46	0xbb7c3ff5	-0.003849027
47	0xbca00654	-0.019534267
48	0x3b2aae24	0.0026043737
49	0x3ca55dff	0.020186422
50	0xbc783fa2	-0.01515189
51	0x3b898d0e	0.004197723
52	0xba766e7c	-0.0009400619
53	0xbd81adf3	-0.06332006
54	0x3c963a30	0.018338293
55	0xbc969c22	-0.018384997
56	0x3ca577c8	0.020198718
57	0x3d6b8a5c	0.057504997
58	0x3c0a7f28	0.008453168
59	0xbbaa96f7	-0.0052059847
60	0x3cf5bcb4	0.029997207
61	0x3da7816c	0.08178982
62	0x3d1b3bc3	0.03789879
63	0x3caf66ef	0.021411387

transformer.layers.0.linear1.weight f4 [128, 64]
0	0x3c708cae	0.014681978
1	0x3d943c5a	0.07238074
2	0x3e49b232	0.19696882
3	0xbdaa76b0	-0.08323419
4	0x3db76677	0.089550905
5	0xbc458904	-0.012056593
6	0xbda556f2	-0.08073224
7	0xbe27a652	-0.1637204
8	0xbd29a850	-0.04142028
9	0x3e3ee6e6	0.18642768
10	0x3d883c71	0.06652153
11	0xbe513ff4	-0.20434552
12	0x3dfd4dc5	0.12368349
13	0xbe455a6e	-0.19272777
14	0x3d8aa391	0.06769479
15	0xbd60ffae	-0.054931335
16	0xbdea9f1c	-0.11456129
17	0xbd2c822b	-0.042116325
18	0x3ea6964d	0.32536545
19	0x3d1f470e	0.038886122
20	0xbe20502e	-0.15655586
21	0x3e9d16a4	0.30681336
22	0x3e233e91	0.15941836
23	0xbcb2dd0e	-0.021833923
24	0x3d39778d	0.045280028
25	0x3c639a75	0.013891806
26	0xbee45ec8	-0.44603562
27	0x3e54a35c	0.20765442
28	0x3d29afb8	0.041427344
29	0x3d7219e8	0.059106737
30	0xbe5f2266	-0.21790466
31	0xbd9dc8dc	-0.077043265
32	0xbe8eb0ef	-0.27869365
33	0xbe08fb48	-0.13377106
34	0x3e3b1037	0.18267904
35	0xbe0e45e4	-0.13893849
36	0x3d833191	0.064059384
37	0xbe406479	-0.18788327
38	0xbe31770a	-0.17330566
39	0xbe0063fe	-0.12538144
40	0x3e28ede1	0.16496994
41	0xbd155560	-0.036458373
42	0x3d162ca4	0.036663666
43	0xbe78bdee	-0.24291202
44	0x3de47e22	0.111568704
45	0x3e1c8e2e	0.15288612
46	0xbe1d1f65	-0.15344007
47	0x3e14303e	0.14471528
48	0x3e0abe3c	0.13549131
49	0xbde3d8ab	-0.111253105
50	0xbbf774af	-0.0075517516
51	0xbdf13e85	-0.11779503
52	0xbe20e0b8	-0.15710723
53	0x3e983734	0.29729617
54	0xbe008a75	-0.12552817
55	0x3e6392e6	0.22224006
56	0xbe250440	-0.16114902
57	0x3d50186b	0.050804537
58	0x3d14d568	0.036336333
59	0xbc7f87da	-0.015596354
60	0xbc50c314	-0.012741823
61	0xbe5655af	-0.20931123
62	0xbdb2918b	-0.08719166
63	0xbe188fa0	-0.14898539
64	0x3e44a966	0.19205245
65	0xbdc7e286	-0.09760003
66	0x3e347c62	0.17625573
67	0x3d8ac6ed	0.06776223
68	0x3db88b6c	0.090109676
69	0xbd866a56	-0.06563251
70	0x3e3340ac	0.17505139
71	0x3e3075ad	0.1723239
72	0x3d12f7bf	0.0358808
73	0xbdbb09e3	-0.09132745
74	0x3e0c146e	0.13679668
75	0xbce85641	-0.028361442
76	0xbe8ddc70	-0.27707243
77	0xbdc4c4f2	-0.09607877
78	0x3de94410	0.11389935
79	0xbbe385e9	-0.0069434536
80	0xbdb3d36c	-0.0878056
81	0x3ea09b2d	0.3136839
82	0x3bb38183	0.0054780855
83	0x3d148443	0.036258947
84	0xbe0baae7	-0.13639413
85	0xbdcf4b5d	-0.10121796
86	0x3e6f3fe2	0.23364213
87	0xbe2f7a13	-0.17136411
88	0x3e0535c6	0.13008794
89	0xbe7ec740	-0.24880695
90	0xbde6a74b	-0.11262377
91	0x3e3e43a2	0.18580487
92	0x3e41ca67	0.18924867
93	0x3d8f071d	0.069837786
94	0xbdcd77ab	-0.100325905
95	0xbd91ec6a	-0.071251705
96	0xbe57005b	-0.2099623
97	0x3c6d559a	0.014485741
98	0x3dc16106	0.09442334
99	0x3c70127f	0.014652847
100	0xbd1a0137	-0.037598815
101	0x3d27658c	0.040868327
102	0x3ca74f95	0.02042369
103	0xbdae784b	-0.08519038
104	0x3e2db385	0.16963013
105	0xbda6cc6b	-0.081444584
106	0xbe0233e9	-0.12715115
107	0xbd22c09b	-0.039734464
108	0x3dedd74f	0.116133325
109	0xbe2c54ed	-0.16829272
110	0xbc86f29e	-0.01647311
111	0xbd554f3c	-0.052077517
112	0xbe2e28d8	-0.17007768
113	0xbe3fe798	-0.1874069
114	0xbdde3d05	-0.10851482
115	0xbd7a2645	-0.061071653
116	0x3e69f5c2	0.22847655
117	0x3b8e7373	0.0043472587
118	0xbd3ee052	-0.046600647
119	0xbdb9cef5	-0.09072677
120	0x3e0a69ac	0.13516873
121	0xbda7548a	-0.081704214
122	0x3d8f0f09	0.069852896
123	0x3debc34b	0.115118586
124	0xbe0984db	-0.13429587
125	0xbe5fd3e4	-0.21858174
126	0xbd8b09da	-0.067889884
127	0xbd2a0c88	-0.041515857
128	0xbe1ef871	-0.1552446
129	0x3dee686f	0.11641013
130	0x3d83b07f	0.06430148
131	0x3d089aee	0.033350877
132	0x3dc74061	0.09729076
133	0x3d77eb5a	0.060527183
134	0xbd8fb069	-0.070160694
135	0x3ddcce6f	0.107815616
136	0xbe3af7ab	-0.1825854
137	0x3e64deda	0.22350636
138	0xbc2e350d	-0.0106327655
139	0xbd99c5a8	-0.07508403
140	0x3e1dfa6c	0.1542756
141	0xbdb3ba70	-0.087757945
142	0x3dbe8293	0.09302249
143	0x3dcdae06	0.10042958
144	0xbd3610a4	-0.044449463
145	0x3db79aed	0.089650966
146	0x3e94dc95	0.2907454
147	0x3d085554	0.0332845
148	0xbdc942b7	-0.09827178
149	0x3e0d596b	0.13803641
150	0xbceb65b2	-0.028735016
151	0x3d1dbd82	0.038510807
152	0x3dde33d9	0.10849733
153	0x3d87ba70	0.06627357
154	0xbe77a060	-0.24182272
155	0x3d65cd80	0.056104183
156	0x3a72c248	0.00092605175
157	0xbd3971d9	-0.04527459
158	0xbc27de3d	-0.010245857
159	0x3daa1a76	0.08305828
160	0x3d479d93	0.04873426
161	0xbe07e584	-0.13271147
162	0x3d83985c	0.064255446
163	0x3db3b9b2	0.08775653
164	0x3cda1f31	0.026626201
165	0xbd5265d7	-0.051366653
166	0x3d8d0baa	0.0688699
167	0xbdaff6c8	-0.08591992
168	0x3e848aff	0.25887296
169	0x3dc33de8	0.09533292
170	0xbd84af25	-0.06478719
171	0xbe03ae70	-0.12859511
172	0xbd7a1402	-0.061054237
173	0x3ce9329b	0.028466513
174	0x3d9f475f	0.07777285
175	0x3cd6f131	0.026238056
176	0x3d543fe7	0.051818755
177	0xbd632b42	-0.055461176
178	0x3e1b8dc3	0.15190797
179	0xbd93d59e	-0.072184786
180	0x3d87f553	0.06638589
181	0x3dfb0919	0.122575946
182	0x3d95cd37	0.07314532
183	0x3e034f28	0.12823164
184	0xbd3f3bec	-0.046688005
185	0xbe33c6f0	-0.17556357
186	0x3e7a2628	0.24428618
187	0xbde161fd	-0.11005018
188	0xbce534f3	-0.02797935
189	0xbe60b5c9	-0.21944346
190	0xbe56dd9d	-0.20982976
191	0xbdded71b	-0.10880872
192	0x3e83e90b	0.25763735
193	0xbe14c723	-0.1452909
194	0x3d8c95de	0.068645224
195	0x3dc06942	0.09395076
196	0x3e799964	0.2437492
197	0xbdb884e0	-0.09009719
198	0x3ddb888b	0.10719403
199	0x3e02def5	0.12780364
200	0x3d5880ba	0.05285714
201	0xbe1e7487	-0.15474139
202	0xbcb3ec18	-0.021963164
203	0xbe745a9f	-0.23862694
204	0x3c90d84f	0.017681269
205	0x3c085f5f	0.0083235195
206	0x3de6e83b	0.11274763
207	0x3e54fcc9	0.20799555
208	0x3e306e91	0.17229678
209	0xbbcf35b4	-0.0063235406
210	0x3cb0f08a	0.021599073
211	0xbdd19dc6	-0.10235171
212	0xbe1929ba	-0.14957324
213	0xbda4e84d	-0.0805212
214	0x3e42fa27	0.19040738
215	0xbe6f0cde	-0.23344752
216	0xbd903a8f	-0.07042419
217	0xbd56692f	-0.052346405
218	0x3c3f22a6	0.011665976
219	0xbd90908a	-0.07058819
220	0x3e8b89e5	0.27253643
221	0xbc9c4c70	-0.019079417
222	0xbe80d69c	-0.25163734
223	0x3d7f84fe	0.06238269
224	0xbe40d673	-0.18831806
225	0x3e547b8b	0.20750253
226	0x3e877749	0.26458195
227	0x3da96853	0.082718514
228	0xbe911616	-0.28337163
229	0xbd5dca1b	-0.05414782
230	0xbd8a62b4	-0.067571074
231	0xbe23cf08	-0.15996945
232	0x3d02aba1	0.03190196
233	0xbde290e2	-0.110627905
234	0xbe4c6c9f	-0.1996331
235	0xbb113078	-0.0022154134
236	0x3e085ca9	0.13316597
237	0xbe896494	-0.26834548
238	0x3d845419	0.06461353
239	0xbe200ec6	-0.15630636
240	0xbe029735	-0.12752993
241	0xbe4d6d81	-0.20061304
242	0xbd983eeb	-0.07433876
243	0x3e08e217	0.13367496
244	0x3e341811	0.17587306
245	0x3d4add60	0.049527526
246	0xbdd05e99	-0.10174293
247	0x3bc08970	0.005875759
248	0x3d2de07f	0.042450424
249	0xbdb55d59	-0.08855695
250	0x3daf0e8a	0.08547695
251	0x3e8e0ae4	0.27742684
252	0xbc8defee	-0.017326321
253	0x3d6a60a6	0.057221077
254	0xbe306321	-0.17225315
255	0x3c6c59e0	0.014425725

transformer.layers.0.linear1.bias f4 [128]
0	0xbdfedf40	-0.12444925
1	0xbe110b0b	-0.14164369
2	0xbe218903	-0.15774922
3	0xbe1b59d6	-0.15170988
4	0xbca74446	-0.020418297
5	0xbdcacdbf	-0.09902524
6	0xb97e023f	-0.00024224164
7	0xbbde1b31	-0.006778144
8	0xbe4b1384	-0.19831663
9	0xbe0211e7	-0.12702142
10	0xbcad6b20	-0.021169245
11	0xbd8937b2	-0.06700076
12	0xbd33ec54	-0.043926552
13	0xbd158df0	-0.036512315
14	0xbd807288	-0.06271845
15	0xbe3194fe	-0.17341992
16	0xbda75de7	-0.08172207
17	0xbdad3b23	-0.08458545
18	0xbc2a1630	-0.0103812665
19	0xbd9fc0af	-0.07800423
20	0xbe075a96	-0.1321815
21	0xbded6395	-0.115912594
22	0xbdb1ab99	-0.08675308
23	0xbe33a0a9	-0.17541756
24	0xbe68945b	-0.22712843
25	0xbd326667	-0.04355469
26	0xbd4e5023	-0.050369393
27	0xbe31e19a	-0.17371216
28	0xbe32d1e9	-0.17462887
29	0xbdc84b53	-0.09779992
30	0xbcd4c056	-0.02597062
31	0xbd510eab	-0.05103938
32	0xbe2f0e5d	-0.17095323
33	0xbcf615f5	-0.030039767
34	0xbc203924	-0.009779248
35	0x3ccac263	0.024750894
36	0xbe1225a4	-0.14272171
37	0xbdca3962	-0.09874226
38	0xbdce4251	-0.100712426
39	0xbd152d44	-0.03642012
40	0xbe2ed80f	-0.17074607
41	0xbc0b0656	-0.008485397
42	0xbe03567a	-0.12825957
43	0xbe1350f0	-0.14386344
44	0xbe06301b	-0.13104288
45	0xbe86c47e	-0.26321787
46	0xbdb9c41a	-0.090706065
47	0xbe2e2842	-0.17007545
48	0xbe4c623d	-0.1995935
49	0xbd0b5670	-0.03401798
50	0x3c169d04	0.009192709
51	0xbe280523	-0.1640821
52	0xbd9c055e	-0.07618211
53	0xbc1ba0d7	-0.009498796
54	0xbbbbaf7f	-0.005727708
55	0xbdd33473	-0.10312738
56	0xbdcdf067	-0.10055619
57	0xbdacb65c	-0.0843322
58	0xbdfca5d0	-0.12336314
59	0xbdd073da	-0.10178347
60	0xbdfffcea	-0.124994114
61	0xbd86ae30	-0.065761924
62	0x3d635a70	0.05550617
63	0xbd3de76a	-0.04636327
64	0xbe4cd226	-0.2000204
65	0xbe40427a	-0.18775359
66	0xbb9d9706	-0.004809263
67	0x3d626cb9	0.055279467
68	0xbdccaf56	-0.0999438
69	0xbd8f1f38	-0.069883764
70	0xbd8321eb	-0.06402954
71	0xbe27f86c	-0.16403359
72	0xbdd4330a	-0.103612974
73	0xbc43626b	-0.01192532
74	0xbe1699cc	-0.14707106
75	0xbddf1d72	-0.10894288
76	0x3cb60151	0.022217425
77	0xbe1b0e4d	-0.15142174
78	0xbce21ce9	-0.027601676
79	0xbd5391a0	-0.05165255
80	0xbe6e7a40	-0.23288822
81	0xbc2163d1	-0.009850458
82	0xbe055d92	-0.13023975
83	0xbd55bd10	-0.052182257
84	0xbdef725c	-0.11691734
85	0xbdffde25	-0.124935426
86	0xbb556575	-0.0032561694
87	0xbe157595	-0.14595635
88	0xbcc2764c	-0.023738049
89	0x3c2d151b	0.010564114
90	0xbde80631	-0.11329306
91	0x3b5536fb	0.0032533992
92	0xbe5a4ae7	-0.21317635
93	0xbd5c60c9	-0.05380324
94	0xbde7ff26	-0.113279626
95	0xbd96bc47	-0.0736013
96	0xbe73accb	-0.23796384
97	0x3c362432	0.011117028
98	0x3cec3831	0.028835388
99	0xbe1c3458	-0.15254343
100	0x3cbce102	0.02305651
101	0xbe3165c2	-0.17323974
102	0xbcd80ce0	-0.026373327
103	0xbdf521a5	-0.11969308
104	0xbd85b852	-0.06529297
105	0xbe169188	-0.14703953
106	0xbdee8b69	-0.11647684
107	0xbe51da11	-0.20493342
108	0xbdc64472	-0.09681024
109	0x3d1449d7	0.03620323
110	0xbe4abde5	-0.19799002
111	0xbe24272d	-0.1603057
112	0xbd0aef71	-0.033919755
113	0x3c80ec86	0.015737783
114	0xbe303f2b	-0.17211597
115	0x3cbd8d95	0.0231388
116	0xbe23dbb1	-0.16001774
117	0xbe5954fa	-0.21223822
118	0xbd997654	-0.074932724
119	0x3d379e80	0.04482889
120	0x3cf6abac	0.030111156
121	0xbd30d416	-0.04317101
122	0xbe68809e	-0.22705314
123	0xbdcc2cab	-0.09969457
124	0xbdfd34a8	-0.12363559
125	0xbd3f52a1	-0.04670966
126	0xbdd53614	-0.10410705
127	0xbe0820f6	-0.13293824

transformer.layers.0.linear2.weight f4 [64, 128]
0	0xbc10a803	-0.00882912
1	0x3d9bf142	0.07614376
2	0x3dd88a13	0.105732106
3	0xbdbff447	-0.09372764
4	0xbdcaddac	-0.09905562
5	0xbd3cb9e6	-0.046075724
6	0x3d477d85	0.04870369
7	0xbd7d279d	-0.061805356
8	0xbc9a755e	-0.018854793
9	0xbd9425c5	-0.072337665
10	0xbdf8b344	-0.12143567
11	0xbd7a9da0	-0.06118548
12	0x3dd013d7	0.10160034
13	0xbdb58487	-0.08863168
14	0x3e7efda0	0.24901438
15	0xbd08ed9b	-0.033429723
16	0xbcc7a328	-0.024369791
17	0xbd1a8dcb	-0.03773288
18	0xbc1fcdad	-0.009753627
19	0xbd21ebc8	-0.0395315
20	0x3e05d404	0.13069159
21	0xbd67fff7	-0.05664059
22	0xbdae9175	-0.085238375
23	0x3d730dae	0.059339218
24	0xbe1afe03	-0.1513596
25	0x3ccb4d7f	0.024817226
26	0xbce7ce24	-0.028296538
27	0xbd28654e	-0.041112237
28	0xbd9b0d23	-0.07570865
29	0xbdec67cf	-0.115432374
30	0xbd0d4665	-0.03449096
31	0x3d785990	0.06063229
32	0x3cceabf8	0.025228485
33	0x3d6ce8e9	0.057839308
34	0xbdc5f488	-0.09665781
35	0xbdc66d52	-0.0968882
36	0x3e1e24e7	0.15443765
37	0xbd76f32c	-0.0602905
38	0x3ce1202e	0.027481165
39	0x3ccb40b4	0.024811126
40	0x3d6dbbe1	0.058040503
41	0x3c52a8c3	0.012857619
42	0x3dc31707	0.095258765
43	0xbdf326c5	-0.11872629
44	0x3d4b3176	0.049607717
45	0xbda5e316	-0.08099954
46	0x3e4708a5	0.19436891
47	0xbd0ad4c3	-0.03389431
48	0xbc6c7828	-0.014432944
49	0x3deb5741	0.11491252
50	0x3dd254da	0.102700904
51	0x3dbb9d46	0.09160857
52	0xbe1f1cc8	-0.15538323
53	0xbc580081	-0.013183714
54	0xbdf41772	-0.11918534
55	0x3d792071	0.060821954
56	0x3c6c6f93	0.014430898
57	0xbe4b80a1	-0.19873287
58	0x3d0aba39	0.033869002
59	0xbe48a25c	-0.19593185
60	0x3cdcaf7e	0.02693915
61	0x3dad0260	0.084477186
62	0xbd9b78e2	-0.07591416
63	0x3d91abb3	0.07112827
64	0x3e1ac3d8	0.15113771
65	0xbd8f2d6b	-0.06991085
66	0xbc88861e	-0.016665515
67	0xbcbbec8c	-0.022939943
68	0xbe08b20e	-0.13349172
69	0xbd7d0969	-0.061776552
70	0xbe497ccd	-0.19676514
71	0x3d2b2249	0.041780744
72	0xbdac0813	-0.083999775
73	0xbdb3183f	-0.08744859
74	0xbe54808e	-0.20752165
75	0xbbcb315e	-0.0062009534
76	0xbcdf7a7e	-0.027280089
77	0xbd335019	-0.04377756
78	0x3e7761bd	0.24158378
79	0xbc2c28d0	-0.010507777
80	0xbd8947d4	-0.06703153
81	0xbe36278a	-0.1778852
82	0xbd8558e8	-0.06511098
83	0xbd46a19f	-0.048493978
84	0xbcc7cdf5	-0.0243902
85	0x3c36365e	0.011121361
86	0x3d1b20b2	0.037872978
87	0xbd700069	-0.05859414
88	0xbd141fa8	-0.036163002
89	0xbc1dd008	-0.009632118
90	0xbc4c6ada	-0.012476647
91	0x3d83e198	0.06439513
92	0x3e488a39	0.19583978
93	0xbe181d00	-0.14854813
94	0xbd9c0f94	-0.07620159
95	0x3e1b7181	0.15180017
96	0x3d4c4901	0.04987431
97	0x3e0f4703	0.13991933
98	0xbbb94a59	-0.005654615
99	0x3dc098fc	0.094041795
100	0xbd92c52e	-0.07166515
101	0xbddb3899	-0.107041545
102	0x3e01b970	0.12668395
103	0x3cef446d	0.029207433
104	0xbd83d0ea	-0.064363316
105	0xbe0526b4	-0.13003045
106	0x3de7d46d	0.11319814
107	0xbc9e90a9	-0.019356089
108	0xbab5813f	-0.0013847722
109	0x3d60e827	0.054908898
110	0x3c2ee07b	0.0106736375
111	0x3c830d0e	0.015997436
112	0xbcb74821	-0.02237326
113	0xbd089153	-0.033341717
114	0xbd993e27	-0.07482558
115	0xbda9e5f3	-0.082958125
116	0xbdcfc200	-0.101444244
117	0xbb120a05	-0.0022283804
118	0x3d298806	0.041389488
119	0x3e46d890	0.1941855
120	0xbd02df03	-0.03195096
121	0xbcf8d781	-0.030376198
122	0xbdb5145b	-0.08841773
123	0x3deb896a	0.11500819
124	0x3d491bc2	0.049098738
125	0x3d37795e	0.04479348
126	0xbd77f800	-0.060539246
127	0x3da0f100	0.07858467
128	0x3e0778d9	0.13229693
129	0xbdc83f5b	-0.09777709
130	0xbd6f18d2	-0.05837328
131	0xbe0ebc75	-0.13939078
132	0x3c22af58	0.0099295005
133	0xbd75b26e	-0.059984617
134	0x3e346e39	0.17620172
135	0x3d8f377b	0.06993004
136	0x3d17aa23	0.03702749
137	0x3d805fbe	0.062682614
138	0x3ec87061	0.39148238
139	0xbe2052d8	-0.15656602
140	0x3e159fb9	0.1461171
141	0x3d95b744	0.07310346
142	0x3d08fb6e	0.033442907
143	0x3c922c79	0.017843472
144	0x3d8b9830	0.06816137
145	0x3da16367	0.078802876
146	0xbe7ae42b	-0.24501102
147	0xbd3b2a9f	-0.045694944
148	0xbd87e2a2	-0.06635024
149	0xbe159c0c	-0.14610308
150	0x3c41fc3d	0.011839923
151	0xbd8c04e4	-0.0683687
152	0x3d22a542	0.039708383
153	0xbe085387	-0.13313113
154	0x3e9016ab	0.28142294
155	0xbdfe5efb	-0.1242046
156	0xbdb2d5f9	-0.08732218
157	0x3c3a4e9e	0.011371283
158	0x3cfce58e	0.030871179
159	0xbd457cf7	-0.04821488
160	0x3e31ee19	0.17375983
161	0xbd9a1ca7	-0.07524996
162	0xbe00aaf0	-0.12565207
163	0xbe4c9b50	-0.19981122
164	0x3df5bdd0	0.119990945
165	0xbda29036	-0.07937662
166	0xbda5b057	-0.08090275
167	0xbe911c89	-0.28342083
168	0xbdd9e216	-0.106388256
169	0x3c9fd860	0.019512355
170	0xbd42e88f	-0.047585066
171	0x3e15ceb3	0.1462963
172	0xbe3ee4b4	-0.18641931
173	0x3d97d23f	0.07413148
174	0x3da11536	0.07865374
175	0x3dac9fe3	0.084289335
176	0x3d8c559d	0.06852267
177	0xbd083fe5	-0.03326406
178	0xbdd077a6	-0.10179071
179	0xbe6ee5a3	-0.23329787
180	0xbd5388f6	-0.051644288
181	0xbe4f1916	-0.20224413
182	0x3e354a87	0.17704211
183	0xbcb7dd15	-0.022444287
184	0xbc7e98db	-0.015539373
185	0xbd8b6bb7	-0.06807654
186	0x3c3d3afd	0.011549708
187	0xbdd521e6	-0.10406856
188	0x3e4951af	0.19660066
189	0xbd6f160a	-0.058370627
190	0xbd8108e1	-0.06300522
191	0x3d141ec9	0.03616217
192	0x3c9cf724	0.019160815
193	0x3cd685a2	0.026186768
194	0x3bc822e7	0.0061076763
195	0xbe3198c2	-0.17343429
196	0xbe5fe4fc	-0.21864694
197	0xbdbecb2a	-0.09316094
198	0x3d85885d	0.0652015
199	0xbd04aef9	-0.03239343
200	0xbdd83c89	-0.10558421
201	0xbda39c35	-0.079887785
202	0x3e477b85	0.19480713
203	0xbd1b5a11	-0.03792769
204	0x3e02d8a2	0.12777951
205	0xbd434aa4	-0.047678605
206	0xbdef14f6	-0.1167392
207	0x3e24d3f6	0.16096482
208	0x3d1fcaaf	0.039011654
209	0x3c8d1682	0.017222647
210	0xbda1ce76	-0.079007074
211	0x3d2c300e	0.042038016
212	0xbdbda9a1	-0.0926087
213	0x3d22de85	0.039762992
214	0x3e24e7ce	0.16104051
215	0x3e1de62f	0.1541984
216	0xbe067b49	-0.13132967
217	0xbdb9f6aa	-0.090802506
218	0x3d0e6729	0.03476635
219	0x3d229334	0.039691165
220	0xbd1cc2e3	-0.038271796
221	0x3e15a82d	0.14614935
222	0x3c84a716	0.016192954
223	0x3db3971e	0.08769058
224	0xbe70079d	-0.23440404
225	0xbe560138	-0.20898902
226	0x3debbf04	0.11511043
227	0x3d3cb400	0.0460701
228	0xbd8076b1	-0.062726386
229	0xbe80ad26	-0.25132102
230	0x3d0513c9	0.03248957
231	0xbc898a05	-0.016789446
232	0x3d3315ff	0.04372215
233	0xbd7eb99e	-0.062188737
234	0xbdeef81c	-0.11668417
235	0x3e0961d1	0.1341622
236	0x3d5ab3e9	0.053394232
237	0x3c985dfe	0.018599506
238	0xbd9d354a	-0.0767618
239	0xbded93bd	-0.116004445
240	0x3d85fafe	0.065420136
241	0x3e51f823	0.20504813
242	0xbd4bcbdc	-0.049754962
243	0x3e57afd2	0.21063164
244	0xbd094c6f	-0.03352016
245	0xbdccaced	-0.099939205
246	0x3c0ab74f	0.008466556
247	0x3da39dbc	0.0798907
248	0xbd05bc07	-0.03265002
249	0xbc91c6c9	-0.017794983
250	0xbdb3355f	-0.08750414
251	0x3d9aff37	0.075682096
252	0xbd879e40	-0.06621981
253	0x3dd0299f	0.101641886
254	0xbcca8a57	-0.024724169
255	0x3dbbbdd3	0.091670655

transformer.layers.0.linear2.bias f4 [64]
0	0x3db05fc2	0.08612014
1	0xbd4f7388	-0.05064729
2	0x3d9fe31e	0.07806991
3	0xbd5b1f5c	-0.053496704
4	0xbd36788c	-0.044548556
5	0xbc4f4e28	-0.012652911
6	0xbda8b708	-0.082380354
7	0x3baa81bd	0.0052034543
8	0x3bd64c9d	0.0065398947
9	0xbc0fe251	-0.008781985
10	0x3dd598e9	0.10429556
11	0x3ce16fd3	0.027519142
12	0xbd394829	-0.045234833
13	0xbd858dd4	-0.06521192
14	0xbdc258de	-0.09489606
15	0x3d28c23c	0.04120086
16	0xbc08580f	-0.008321776
17	0x3d907d2a	0.07055123
18	0x3a80795d	0.0009801794
19	0x3d9b1553	0.07572427
20	0x3cbe898d	0.023258949
21	0x3d62fb26	0.055415295
22	0x3d849cf7	0.06475251
23	0x3df85deb	0.121272884
24	0xbd93efcc	-0.07223472
25	0xbd0cd51c	-0.034382924
26	0xbdb77e26	-0.08959608
27	0xbd01ac25	-0.03165831
28	0x3d7c1bfa	0.061550118
29	0xbda185c2	-0.078868404
30	0xbbaa03ff	-0.0051884647
31	0x3ce3e340	0.027818322
32	0x3caaae50	0.020835072
33	0xbcb817e4	-0.02247233
34	0x3d62ed5c	0.055402145
35	0xbcbe3a95	-0.023221293
36	0x3ccb8c90	0.024847299
37	0x3a34f503	0.00069029647
38	0x3d52fdba	0.051511504
39	0xbd59771e	-0.053092115
40	0xbcac1488	-0.021005884
41	0xbbbbd8de	-0.0057326397
42	0xbca68cf1	-0.020330878
43	0xbe2f18e7	-0.17099343
44	0x3d96cf94	0.07363811
45	0x3d049e2f	0.032377418
46	0xbd184baf	-0.037181552
47	0x3d9aaa02	0.07551958
48	0xbd9aa8e9	-0.07551748
49	0x3cb8dba9	0.02256568
50	0x3c39a41e	0.0113306325
51	0x3d49c00a	0.04925541
52	0xbdb8b3ac	-0.09018645
53	0x3ad6bf0b	0.001638384
54	0xbc6eabd3	-0.014567333
55	0x3d01a8d4	0.031655148
56	0xbd7ee701	-0.06223202
57	0xbb804def	-0.0039155404
58	0xbc94c3d4	-0.018159784
59	0x3ccbda37	0.024884326
60	0xbdc6c93b	-0.097063504
61	0xbda62ad1	-0.08113635
62	0xbde94926	-0.11390905
63	0x3b4fa77b	0.003168552

transformer.layers.0.norm1.weight f4 [64]
0	0x3fa31423	1.274052
1	0x3f386eb9	0.7204395
2	0x3f7e9ea7	0.99460834
3	0x3f6a6cdb	0.9157235
4	0x3f72c2bf	0.9482841
5	0x3f50b5c3	0.81527346
6	0x3f8131a4	1.0093274
7	0x3fa4335a	1.2828171
8	0x3f924d47	1.1429833
9	0x3f7145a2	0.94246876
10	0x3f8d4d6e	1.1039255
11	0x3f40c1af	0.7529554
12	0x3f9983cb	1.1993345
13	0x3f74df84	0.9565356
14	0x3f606a01	0.8766175
15	0x3f84d584	1.037766
16	0x3f8ea4a7	1.1143998
17	0x3f652554	0.89510083
18	0x3f938497	1.1524838
19	0x3f278413	0.65435904
20	0x3f616b0b	0.8805396
21	0x3f9818e2	1.1882594
22	0x3fabe528	1.3429308
23	0x3f9ca36a	1.223737
24	0x3f647747	0.892445
25	0x3f9eb2bc	1.2398295
26	0x3f831679	1.0241233
27	0x3fa17b21	1.2615701
28	0x3f8b7851	1.0896093
29	0x3f95288f	1.1653003
30	0x3fa41e8a	1.282182
31	0x3f35c1f6	0.70999086
32	0x3f677ee8	0.9042802
33	0x3f796935	0.9742616
34	0x3f86bda0	1.0526619
35	0x3f920718	1.1408415
36	0x3f94d169	1.1626407
37	0x3f8610e4	1.0473905
38	0x3f9f8d48	1.2464991
39	0x3f732cdf	0.9499034
40	0x3f8107a8	1.0080462
41	0x3f726736	0.9468874
42	0x3f5d1a2e	0.8636807
43	0x3f5dab39	0.8658939
44	0x3f87fed2	1.062464
45	0x3f808736	1.0041263
46	0x3f8d2844	1.1027913
47	0x3f7e878c	0.9942558
48	0x3f748db8	0.95528746
49	0x3f865775	1.049544
50	0x3f85f800	1.0466309
51	0x3f83a573	1.0284866
52	0x3f99dccb	1.2020506
53	0x3f6a919a	0.9162842
54	0x3f5ac5d2	0.854581
55	0x3f891898	1.071063
56	0x3f5d2374	0.8638222
57	0x3f77a0cd	0.9672974
58	0x3f7501ae	0.9570569
59	0x3f85691d	1.0422703
60	0x3f3913e7	0.72295994
61	0x3f738a2c	0.9513271
62	0x3f8fa9de	1.1223714
63	0x3f743aa6	0.9540199
