results/MinMaxScaler/TransformerModel_w200.pth (torch, 422342 bytes, 40 tensors)

input_projection.weight f4 [64, 6]
-0.031036787 0.3562917 -0.35916558 0.2597498 -0.40311816 -0.04846457 0.30622026 0.34892398
0.09697278 -0.32175213 -0.41176137 -0.21587108 0.5072043 -0.1902298 -0.14807172 0.013553821
-0.31597698 0.47739068 0.16378282 0.13657501 0.109605506 0.2830239 -0.34955904 0.02378618
0.01887941 0.10029883 -0.25701448 -0.11234193 -0.50231624 0.4100997 0.38249344 -0.36648604
-0.12033677 -0.39509615 0.26420337 -0.4076562 -0.42180753 0.19806336 0.25610355 -0.07078848
0.31586826 -0.37705985 -0.40859073 0.38957104 0.22124846 -0.06465579 -0.2681417 0.32005504
0.012376742 0.2794603 -0.36645496 0.33387804 0.34661725 0.1655302 -0.3750078 0.08671315
0.048600707 0.17314711 -0.19033447 0.17608574 0.29308867 0.15706268 -0.34582925 -0.019078944
-0.1723767 0.291032 0.33548072 0.08206262 0.028518246 0.28158325 0.24242648 -0.30604675
-0.020323092 0.26221648 -0.46066293 0.1070995 -0.0623341 0.009264503 -0.26826993 -0.21328843
-0.2491738 0.007644156 0.17296854 0.4650453 -0.34209225 -0.176039 0.46047074 -0.37073147
0.31535587 0.25522304 -0.20244005 0.1276839 0.018531287 0.4194025 -0.22052436 -0.4769956
-0.10536411 -0.37658903 0.055595256 0.39592242 -0.17882547 -0.13109693 0.14324662 -0.19313969
-0.042276274 -0.14550853 -0.1735343 0.437254 0.2171586 0.41849265 -0.15277551 -0.2681707
0.08614976 0.28419188 -0.0793416 -0.31579557 0.17844717 0.28859186 0.16067448 -0.51047283
0.48430172 -0.16690844 -0.07603524 -0.18938147 -0.24575949 -0.2809953 0.21972947 -0.20660426
-0.26987144 0.35814884 -0.0046403003 -0.03419593 -0.2429618 -0.14569557 -0.14381413 -0.34110516
0.17592318 0.36465392 -0.08469084 -0.44585532 0.2962055 0.22794959 -0.48524144 0.20095314
0.41282144 -0.079005376 -0.2793387 0.10006198 -0.3240594 -0.06476127 -0.41929394 -0.15791187
-0.073716365 -0.014846625 0.10660627 -0.29148194 0.34759912 0.2535418 -0.18816026 0.073328055
0.23936665 0.2076438 0.08199297 -0.41764048 0.10656688 -0.2211057 0.06886007 -0.12720592
-0.41175905 -0.2890225 0.13232338 -0.06727379 0.14499412 -0.101388074 -0.30264908 0.07352431
-0.42590553 0.024255214 0.08236572 0.3806955 -0.25223014 -0.2661264 -0.2869819 0.44925848
0.16050778 0.28020546 0.44317245 -0.16161935 0.13152534 0.37248242 0.27628282 -0.1622249
0.38995406 0.24071585 -0.124620564 -0.040156547 0.051119536 -0.33574605 0.35755065 0.13546593
0.04445181 -0.33941156 -0.02018986 -0.42814836 0.26386055 -0.30838025 0.24310943 0.1956374
0.12177199 0.24624796 -0.2301667 0.12220234 0.0060813716 -0.29382432 -0.031951968 0.05354135
-0.25440106 -0.25516704 -0.1604929 0.26345798 0.2758413 -0.26021102 -0.40901354 -0.12418665
0.36974958 -0.45592695 0.33298847 -0.16711472 -0.13105592 0.12361773 0.13612904 0.28080735
0.22298513 -0.5046386 -0.2697386 -0.2588542 -0.050939135 0.2096428 -0.065149575 0.37356916
0.19101883 0.43336576 -0.2687105 -0.29415026 -0.1422233 -0.21395442 0.17736474 -0.1982612
-0.15046562 0.25628698 0.056794282 0.41107893 0.049395062 0.35181734 -0.40375054 0.03382498
00000000: dc40 febc de6b b63e 8de4 b7be edfd 843e
00000010: 8165 cebe c982 46bd e7c8 9c3e 2aa6 b23e
00000020: aa99 c63d b2bc a4be 63d2 d2be 4f0d 5dbe
00000030: 24d8 013f 9acb 42be 1da0 17be d810 5e3c
00000040: bcc7 a1be 8d6c f43e afb6 273e 52da 0b3e
00000050: da78 e03d 82e8 903e 67f9 b2be 3cdb c23c
00000060: fea8 9a3c 7969 cd3d 6797 83be 8713 e6bd
00000070: cc97 00bf 96f8 d13e 2ed6 c33e 0fa4 bbbe
00000080: 2073 f6bd 0b4a cabe aa45 873e 50b8 d0be
00000090: 28f7 d7be 1fd1 4a3e 0120 833e 8df9 90bd
000000a0: 7cb9 a13e fd0d c1be ce32 d1be db75 c73e
000000b0: f58e 623e 416a 84bd de49 89be 41de a33e
000000c0: d2c7 4a3c 6c15 8f3e fc9f bbbe 10f2 aa3e
000000d0: d177 b13e c080 293e 0601 c0be aa96 b13d
000000e0: 8911 473d 7a4d 313e 0ae7 42be d24f 343e
000000f0: b80f 963e 0ad5 203e 8810 b1be 724b 9cbc
00000100: 8583 30be 2502 953e 21c4 ab3e 7210 a83d
00000110: 199f e93c ae2b 903e a63e 783e 29b2 9cbe
00000120: 9d7c a6bc 3d41 863e 03dc ebbe fc56 db3d
00000130: 0b52 7fbd 24ca 173c ad5a 89be 4868 5abe
00000140: 6b27 7fbe d47b fa3b aa1e 313e 6b1a ee3e
00000150: b726 afbe 9143 34be d2c2 eb3e 84d0 bdbe
00000160: 5376 a13e 98ac 823e 724c 4fbe 91bf 023e
00000170: edce 973c edbb d63e 23d1 61be c438 f4be
00000180: 23c9 d7bd 47d0 c0be dab7 633d 58b6 ca3e
00000190: 061e 37be 463e 06be 3eaf 123e 69c6 45be
000001a0: e329 2dbd 3000 15be fab2 31be c2df df3e
000001b0: d35e 5e3e ab44 d63e 2f71 1cbe ac4d 89be
000001c0: 496f b03d 9981 913e d97d a2bd f5af a1be
000001d0: dbba 363e 50c2 933e da87 243e 59ae 02bf
000001e0: 65f6 f73e 0cea 2abe 5db8 9bbd 37ed 41be
000001f0: 60a8 7bbe 9ede 8fbe c300 613e 1190 53be
00000200: 972c 8abe 495f b73e a90d 98bb 0811 0cbd
00000210: faca 78be 3831 15be 0344 13be 56a5 aebe
00000220: 3525 343e ebb3 ba3e 6472 adbd 2647 e4be
00000230: 3fa8 973e 9e6b 693e 9171 f8be a9c6 4d3e
00000240: 555d d33e 92cd a1bd 7b05 8fbe 4ced cc3d
00000250: 1deb a5be 8fa1 84bd b2ad d6be a6b3 21be
00000260: 9bf8 96bd 423f 73bc 6354 da3d 1f3d 95be
00000270: 83f8 b13e 3bd0 813e 15ad 40be 052d 963d
00000280: 881c 753e 94a0 543e eeeb a73d f9d4 d5be
00000290: bd3f da3d 8869 62be 8206 8d3d 4542 02be
000002a0: 15d2 d2be c2fa 93be c87f 073e d7c6 89bd
000002b0: 5779 143e 8da4 cfbd d2f4 9abe ea93 963d
000002c0: 4a10 dabe dfb2 c63c 5caf a83d 85ea c23e
000002d0: 4f24 81be b841 88be 4bef 92be 3505 e63e
000002e0: 275c 243e 1777 8f3e 80e7 e23e 8b7f 25be
000002f0: 94ae 063e 04b6 be3e f174 8d3e 491e 26be
00000300: 0fa8 c73e 377e 763e 1139 ffbd 317b 24bd
00000310: b862 513d e8e6 abbe e110 b73e 95b7 0a3e
00000320: 1a13 363d 5ac7 adbe 3565 a5bc 4336 dbbe
00000330: bb18 873e 04e4 9dbe aef1 783e 2c55 483e
00000340: 9863 f93d 6d28 7c3e d2b0 6bbe 3845 fa3d
00000350: 3e46 c73b 2470 96be 11e0 02bd 2d4e 5b3d
00000360: db40 82be 41a5 82be 4058 24be f7e3 863e
00000370: 123b 8d3e 613a 85be 396a d1be 9255 febd
00000380: d14f bd3e 426f e9be 777d aa3e 1f20 2bbe
00000390: 8633 06be 4b2b fd3d 6965 0b3e fbc5 8f3e
000003a0: 3756 643e ff2f 01bf 2e1b 8abe 8a88 84be
000003b0: 8ea5 50bd 9aac 563e 246d 85bd 7544 bf3e
000003c0: 719a 433e 1ee2 dd3e 6c94 89be dd9a 96be
000003d0: fca2 11be de16 5bbe 1a9f 353e fc04 4bbe
000003e0: a913 1abe 0c38 833e 1fa1 683d f078 d23e
000003f0: 7a52 4a3d 6721 b43e 64b8 cebe 108c 0a3d

input_projection.bias f4 [64]
0.13260177 0.2995054 -0.066526055 0.047930084 0.20688121 0.3890635 -0.016628256 -0.18017459
-0.16976087 0.15386616 -0.0016150193 0.14565001 0.19155812 -0.050306544 -0.20874828 0.26579767
0.14339206 0.0194677 -0.20909207 0.17348713 0.27058598 -0.03910942 0.098615 0.13256799
0.17830871 0.29936013 -0.3650076 0.32886773 0.17490669 0.079421885 -0.14024667 -0.3668397
0.33078143 0.20666201 -0.2094654 -0.14347982 -0.25401384 0.25619403 0.071929105 0.0020753415
-0.027649688 -0.348324 0.0770671 -0.30075046 -0.2980747 -0.26989228 -0.39463347 -0.18507011
-0.2677387 0.16952139 -0.2797809 -0.091202326 0.23201562 0.0059107034 -0.16360736 0.30226448
0.23390774 0.22990684 0.29634756 -0.015941728 0.11693348 -0.10060579 -0.28243488 -0.27993992
00000000: c2c8 073e c658 993e d03e 88bd 5652 443d
00000010: abd8 533e 5533 c73e fb37 88bc b07f 38be
00000020: cbd5 2dbe 178f 1d3e 0eaf d3ba 4725 153e
00000030: d027 443e 3c0e 4ebd 1cc2 55be a216 883e
00000040: 5ed5 123e ba7a 9f3c 3b1c 56be 9ca6 313e
00000050: 3f8a 8a3e 3331 20bd a9f6 c93d e7bf 073e
00000060: 8f96 363e bb45 993e 47e2 babe 5a61 a83e
00000070: bd1a 333e f1a7 a23d d39c 0fbe 6ad2 bbbe
00000080: 2f5c a93e 359f 533e 197e 56be 60ec 12be
00000090: 1a0e 82be dd2b 833e 914f 933d 7402 083b
000000a0: 9981 e2bc 8657 b2be 5bd5 9d3d f7fb 99be
000000b0: 3f9d 98be 522f 8abe 660d cabe 0583 3dbe
000000c0: 0c15 89be 0497 2d3e 713f 8fbe 49c8 babd
000000d0: 8195 6d3e 93ae c13b b088 27be 69c2 9a3e
000000e0: 8385 6f3e b36c 6b3e deba 973e 3a98 82bc
000000f0: d27a ef3d 690a cebd 4e9b 90be 4954 8fbe

transformer.layers.0.self_attn.in_proj_weight f4 [192, 64]
0.024467058 -0.21716277 0.29578617 -0.24255471 -0.121223874 -0.09076111 -0.25486135 0.09483483
-0.16424648 -0.18862197 -0.16404527 -0.28443286 -0.099231586 0.14270093 0.09990449 -0.23405744
-0.008923938 0.1534546 -0.12859114 -0.30618694 0.21189937 0.18556154 -0.10864317 -0.23615633
0.2660686 -0.1688464 -0.015747983 -0.16506012 -0.14616226 -0.1961393 0.13319273 -0.05885619
-0.34336978 -0.12326526 -0.29922673 0.35553607 0.10181633 -0.036039967 -0.28176025 -0.3120238
0.2537212 0.29317367 0.31465748 -0.19054149 0.26767486 0.2530404 -0.019674782 -0.10664374
0.16384278 0.2707304 0.11452022 0.22006233 -0.10019234 -0.24714954 -0.04717843 -0.2704034
-0.30480832 -0.2246853 -0.20806907 0.21649003 -0.27348664 -0.20915365 0.15858343 0.14823444
-0.28613824 0.008678412 0.20553787 -0.31259808 -0.060229346 -0.20637608 -0.20550114 0.30852416
-0.2867578 -0.15644664 -0.13238394 -0.26151314 -0.18001638 0.2942521 0.26982445 -0.31450826
-0.2482679 0.06654541 0.090932414 -0.09433838 0.09933831 -0.054664508 -0.0072956057 -0.16690113
0.2114359 -0.10449804 -0.09479031 -0.2534326 0.0034542747 -0.17127079 0.12949881 -0.21506628
-0.05460923 -0.16110447 -0.10840621 0.06354689 0.14670458 -0.050216507 -0.26898518 -0.28424782
0.038571466 0.066264324 0.28710046 -0.16896555 0.021623202 0.18351763 -0.012490373 0.20533963
0.31415954 0.071834885 0.28125414 0.34874597 -0.11711945 -0.1455935 -0.15689309 -0.07562022
0.0010970288 -0.18382491 -0.12059675 0.25452742 -0.0823383 -0.1317615 -0.007690837 0.21182929
0.26085392 0.2265227 -0.015445581 0.29514274 0.041671846 0.14800723 0.1676893 -0.33726072
0.06784849 -0.025335984 0.17287543 0.1920901 0.22968225 -0.21596882 -0.25447 0.25628528
0.3143251 -0.0058979043 0.09521661 0.010102042 0.06950643 -0.073201604 -0.12896755 0.0597871
-0.04397587 -0.12657319 -0.117715344 0.09514106 -0.023797344 0.10888109 -0.15764812 -0.038134787
0.2096858 -0.06625078 0.09689867 -0.27333412 -0.19175158 0.018242443 0.21190347 0.24358268
-0.23861803 -0.1066933 -0.17639682 0.24504192 -0.27353624 -0.1906244 0.0995316 -0.009524798
-0.12655081 -0.13542551 0.004651452 -0.21490087 0.1508805 0.02660012 0.19463558 0.107252754
0.09616183 0.119147025 0.22971117 -0.21965335 0.2604145 0.18998551 -0.20238629 -0.2782556
0.11125075 0.065542385 -0.18680981 0.037623473 0.15363029 0.040121004 0.062736586 -0.21275087
0.2394218 0.264692 -0.049020585 0.067374855 0.20382443 -0.193333 -0.26878944 0.2251605
0.11907129 -0.3369061 -0.26469707 0.06981532 -0.24182986 -0.20567521 -0.002140746 0.27855697
-0.010876116 0.19773003 0.029726075 0.18305965 0.09980126 0.06509263 -0.090255365 0.085168
0.06128393 0.038959224 0.07624471 -0.057702146 -0.050644394 0.2543463 0.11974441 0.2106694
-0.11506639 0.024484556 -0.15829824 0.07905533 -0.06442944 -0.13992395 -0.06767591 -0.1397389
-0.05138217 -0.31725228 -0.026934618 -0.2603616 0.28109038 0.15311214 0.28885007 0.06498094
0.21593739 0.20483887 0.21133308 -0.3332499 0.19350357 0.22670415 -0.066664815 -0.21502835
00000000: 246f c83c eb5f 5ebe 4971 973e 4360 78be
00000010: 3944 f8bd f6e0 b9bd 307d 82be c338 c23d
00000020: 3b30 28be 1e26 41be 7cfb 27be 2fa1 91be
00000030: ee39 cbbd 3120 123e ba9a cc3d c1ac 6fbe
00000040: b535 12bc 3423 1d3e 65ad 03be 89c4 9cbe
00000050: 26fc 583e d803 3e3e 4f80 debd f7d2 71be
00000060: 253a 883e 12e6 2cbe ea01 81bc 8505 29be
00000070: 8fab 15be bed8 48be ad63 083e 3013 71bd
00000080: 2ace afbe 7f72 fcbd 3f34 99be d308 b63e
00000090: 1485 d03d a59e 13bd e142 90be 95c1 9fbe
000000a0: bfe7 813e dc1a 963e c91a a13e 4f1d 43be
000000b0: ae0c 893e 838e 813e 022d a1bc 0868 dabd
000000c0: 67c6 273e 2d9d 8a3e 9489 ea3d 0558 613e
000000d0: a431 cdbd c514 7dbe 2b3e 41bd 5072 8abe
000000e0: d60f 9cbe e713 66be 0f10 55be 90af 5d3e
000000f0: 7106 8cbe 602c 56be b263 223e c5ca 173e
00000100: b680 92be e62f 0e3c 8578 523e db0c a0be
00000110: 0cb3 76bd 4054 53be e46e 52be e1f6 9d3e
00000120: ebd1 92be 8c33 20be a88f 07be 0de5 85be
00000130: 3756 38be 36a8 963e 6e26 8a3e 3a07 a1be
00000140: f139 7ebe f648 883d c63a ba3d 7b34 c1bd
00000150: e271 cb3d e4e7 5fbd fa0f efbb 21e8 2abe
00000160: a782 583e 1203 d6bd 6c21 c2bd ebc1 81be
00000170: 1d61 623b 9c61 2fbe 569b 043e 563a 5cbe
00000180: eead 5fbd 92f8 24be 1304 debd df24 823d
00000190: ba39 163e d3af 4dbd 6db8 89be ee88 91be
000001a0: 1dfd 1d3d 97b5 873d d5fe 923e 4e05 2dbe
000001b0: 2423 b13c 0cec 3b3e 6ca4 4cbc 8d44 523e
000001c0: 85d9 a03e 2b1e 933d 8b00 903e d58e b23e
000001d0: 52dc efbd 7616 15be 95a8 20be c6de 9abd
000001e0: 2eca 8f3a 993c 3cbe 6efb f6bd 6b51 823e
000001f0: fca0 a8bd 7dec 06be 6b03 fcbb c7e9 583e
00000200: a58e 853e 91f5 673e 760f 7dbc f31c 973e
00000210: 19b0 2a3d 358f 173e beb6 2b3e 70ad acbe
00000220: 26f4 8a3d 698d cfbc 4206 313e 44b3 443e
00000230: d331 6b3e ee26 5dbe e449 82be d337 833e
00000240: 38ef a03e 3543 c1bb ed00 c33d 0983 253c
00000250: 6359 8e3d b9ea 95bd 1210 04be 51e3 743d
00000260: 0b20 34bd 679c 01be be14 f1bd 51d9 c23d
00000270: a6f2 c2bc 0dfd de3d 826e 21be 3933 1cbd
00000280: e0b7 563e 7dae 87bd cf72 c63d 73f2 8bbe
00000290: 875a 44be 2d71 953c 39fd 583e bd6d 793e
000002a0: 4958 74be 0482 dabd 5ea1 34be 45ec 7a3e
000002b0: f10c 8cbe 0b33 43be 39d7 cb3d e60d 1cbc
000002c0: 8996 01be fcac 0abe 356b 983b f90e 5cbe
000002d0: 6b80 1a3e 7fe8 d93c 8d4e 473e 55a7 db3d
000002e0: 7ef0 c43d 5b03 f43d 6839 6b3e cfec 60be
000002f0: 0d55 853e 908b 423e 5a3e 4fbe 8577 8ebe
00000300: 6fd7 e33d 163b 863d 124b 3fbe 121b 1a3d
00000310: 4251 1d3e ec55 243d 0a7c 803d 5ddb 59be
00000320: fd2a 753e b685 873e cfc9 48bd d4fb 893d
00000330: 5ab7 503e 16f9 45be c59e 89be 7990 663e
00000340: a6db f33d f57e acbe 6086 87be 56fb 8e3d
00000350: 3fa2 77be 869c 52be c24b 0cbb 059f 8e3e
00000360: bd31 32bc be79 4a3e 1984 f33c fd73 3b3e
00000370: 9a64 cc3d 494f 853d ced7 b8bd 8f6c ae3d
00000380: dc04 7b3d b593 1f3d 3026 9c3d 1659 6cbd
00000390: 7f70 4fbd ae39 823e 8f3c f53d b8b9 573e
000003a0: eda7 ebbd d693 c83c ef18 22be c3e7 a13d
000003b0: 95f3 83bd 3948 0fbe ab99 8abd b717 0fbe
000003c0: 1c76 52bd e46e a2be fda5 dcbc 1e4e 85be
000003d0: 14eb 8f3e 6ec9 1c3e 28e4 933e ba14 853d
000003e0: b11e 5d3e 48c1 513e b367 583e bb9f aabe
000003f0: cd25 463e 2225 683e 9087 88bd 6430 5cbe

transformer.layers.0.self_attn.in_proj_bias f4 [192]
-0.22530708 -0.15868033 0.12540619 0.14454657 -0.10748851 -0.15922788 -0.11516796 -0.2700341
-0.1715183 -0.15111685 -0.13503827 0.108371295 0.11736862 -0.15449412 -0.17695892 0.26461068
-0.19255373 -0.18330069 -0.14451857 0.15405323 -0.1574602 0.20244534 -0.24135818 0.1985252
-0.18910597 -0.20218988 -0.20371105 -0.25404066 -0.20145394 -0.15185459 0.20483668 0.21927339
-0.14921984 -0.08284029 -0.087265626 -0.12277705 0.11771567 -0.15621719 0.12917212 -0.124809735
0.15708946 0.1792195 -0.16679375 0.011794378 -0.11009294 0.11294041 0.14373825 0.09520658
0.035152648 0.101425454 0.061026994 0.007980305 0.103759505 -0.099913955 0.10468127 0.060463354
-0.061595503 -0.01260803 0.08460049 0.05829438 0.13471393 0.105870456 -0.09159028 0.08516337
-0.009698333 -0.0063534477 0.007781025 0.006190942 -0.007081582 -0.0064541674 -0.004360942 -0.009881697
-0.009103627 -0.006994405 -0.0073813624 0.006162733 0.007550669 -0.007968333 -0.008182836 0.010071599
-0.00020221471 -0.00070838345 -0.0011040203 0.00039876075 -6.4551044e-05 0.00082731165 0.0005817691 0.002419502
-4.3740878e-05 -0.0007092731 -0.0010008117 -0.0023459664 -0.0033865662 -0.0008924677 0.00321422 0.0030725098
0.0027840347 0.0015440389 0.0008403732 0.0016888521 -0.0024912388 0.0043540495 -0.0019736264 0.00256077
-0.0037650543 -0.004357615 0.0026369684 0.0007119308 0.0018935789 -0.0022087586 -0.004968846 -0.00043912162
-0.0040628016 -0.007713656 -0.005779948 -0.0013628025 -0.007028944 0.007727791 -0.007491582 -0.003499602
0.005171881 0.0038584098 -0.0074589187 -0.0057831802 -0.009927762 -0.008078729 0.007268844 -0.006807557
0.00035842575 -0.012372771 0.017096639 -0.015104237 -0.008021156 -0.0069977124 -0.013163108 -0.024473159
0.042271324 0.022899633 0.014589792 -0.025446355 -0.005262809 0.0006185285 -0.017753858 0.012874302
0.01158691 -0.0041489764 0.0020316096 -0.00092009804 -0.0055772057 0.010779152 -0.024134714 0.009403154
0.0061980872 -0.0013513995 -0.00025124225 0.035455897 0.015311358 0.005468196 0.0082576545 0.03719119
0.01723687 0.024921888 -0.0076360125 -0.0019009918 0.03211611 -0.013521667 -0.015960807 -0.0128928935
0.02586694 0.007160457 0.0037500868 -0.023904845 0.0060515697 0.004361209 0.015506839 -0.008799548
0.015358348 0.011884049 -0.0144537175 -0.0035286443 -0.028820924 0.006129679 -0.008534553 -0.03292344
-0.012062649 0.013508225 0.001185127 0.025719443 -0.005196956 0.011773318 0.0014000295 -0.0068772854
00000000: e6b6 66be 197d 22be 7b6a 003e 0404 143e
00000010: f022 dcbd a20c 23be 2edd ebbd e941 8abe
00000020: 7ea2 2fbe 60be 1abe 7947 0abe c5f1 dd3d
00000030: f65e f03d b533 1ebe b834 35be 0d7b 873e
00000040: ce2c 45be 2db3 3bbe adfc 13be 21c0 1d3e
00000050: 3f3d 21be d54d 4f3e 9926 77be 314a 4b3e
00000060: ffa4 41be dd0a 4fbe a199 50be 9e11 82be
00000070: f149 4ebe c57f 1bbe b5c0 513e 3489 603e
00000080: 16cd 18be 2ca8 a9bd 52b8 b2bd 8972 fbbd
00000090: ea14 f13d 66f7 1fbe b245 043e 3f9c ffbd
000000a0: 0fdc 203e 5185 373e fbcb 2abe 353d 413c
000000b0: 6878 e1bd 4d4d e73d 1f30 133e abfb c23d
000000c0: 39fc 0f3d 26b8 cf3d 71f7 793d d3bf 023c
000000d0: dd7f d43d b09f ccbd 2263 d63d 6ca8 773d
000000e0: 914b 7cbd e991 4ebc 0643 ad3d 16c6 6e3d
000000f0: 73f2 093e 9cd2 d83d af93 bbbd 226a ae3d
00000100: c2e5 1ebc 9530 d0bb f8f7 fe3b 63dd ca3b
00000110: 9e0c e8bb 7b7d d3bb 3ce6 8ebb d7e6 21bc
00000120: 6127 15bc 5231 e5bb 5bdf f1bb c0f0 c93b
00000130: 9a6b f73b 9c8d 02bc 4d11 06bc 5903 253c
00000140: 9909 54b9 cfb2 39ba c6b4 90ba c310 d139
00000150: 945f 87b8 f2df 583a dd81 183a 8290 1e3b
00000160: 6976 37b8 83ee 39ba ab2d 83ba c9be 19bb
00000170: 27f1 5dbb 7ef4 69ba aaa5 523b 295c 493b
00000180: 5a74 363b 5961 ca3a 7e4c 5c3a 795c dd3a
00000190: 0d44 23bb 6aac 8e3b f557 01bb 97d2 273b
000001a0: 21bf 76bb 53ca 8ebb fdd0 2c3b dea0 3a3a
000001b0: f731 f83a d2c0 10bb b4d1 a2bb e839 e6b9
000001c0: 4021 85bb d6c2 fcbb b865 bdbb 10a0 b2ba
000001d0: 0e53 e6bb 6939 fd3b f27b f5bb 9459 65bb
000001e0: e278 a93b 60dd 7c3b f269 f4bb d580 bdbb
000001f0: 0da8 22bc a55c 04bc 7c2f ee3b ed11 dfbb
00000200: 17eb bb39 2ab7 4abc 400e 8c3c c377 77bc
00000210: 2b6b 03bc 114d e5bb 14aa 57bc ef7b c8bc
00000220: b224 2d3d 0398 bb3c 060a 6f3c e074 d0bc
00000230: a473 acbb bf24 223a 8a70 91bc bdee 523c
00000240: 06d7 3d3c 23f4 87bb c124 053b bc32 71ba
00000250: fec0 b6bb 0a9b 303c 2ab6 c5bc b00f 1a3c
00000260: 5319 cb3b 7121 b1ba 2ab9 83b9 343a 113d
00000270: 7ddc 7a3c 8d2e b33b 1d4b 073c ca55 183d
00000280: 5634 8d3c fd28 cc3c 8437 fabb b32a f9ba
00000290: 2f8c 033d fb89 5dbc 3dc0 82bc b73c 53bc
000002a0: e8e6 d33c 44a2 ea3b 04c4 753b 18d4 c3bc
000002b0: 3f4c c63b 79e8 8e3b 6610 7e3c fb2b 10bc
000002c0: 95a1 7b3c 50b5 423c 49cf 6cbc d440 67bb
000002d0: dc19 ecbc 79db c83b 83d4 0bbc bbda 06bd
000002e0: 6ba2 45bc 9a51 5d3c 4356 9b3a 95b1 d23c
000002f0: 3a4b aabb e0e4 403c 3281 b73a da5a e1bb

transformer.layers.0.self_attn.out_proj.weight f4 [64, 64]
-0.012165623 -0.13183872 -0.06585462 -0.08496242 -0.120026186 -0.08958414 -0.058963504 -0.13301596
0.024782209 0.0868745 -0.07171905 -0.09273636 -0.05163002 -0.008485958 -0.123909965 -0.08863959
0.057548307 -0.030916883 -0.018914392 0.0033181028 -0.067335255 -0.09947415 0.0236939 0.015153105
-0.025656693 -0.044237986 -0.00037697225 -0.074986346 0.05432036 -0.11273285 -0.09931192 -0.0748511
0.060822036 -0.03822368 0.09450546 0.008175377 0.05981517 -0.104791634 -0.07264383 -0.07846994
-0.044153713 0.10757887 0.058682036 -0.09668732 0.06413517 0.0024216396 -0.05388163 0.21400382
0.08601008 -0.055742793 0.0058536017 0.10037057 0.07687974 0.04401277 0.054625984 0.03761856
-0.045510404 -0.043619353 -0.039914887 0.114830375 0.018251685 0.06136212 0.086681254 -0.02875963
0.13271321 0.083418176 0.06609864 0.0030479443 -0.010143173 -0.06280374 0.020477094 -3.8392976e-05
0.017297303 -0.113982305 0.09601793 -0.011168835 0.046894353 0.10839857 -0.020483749 0.08610206
0.03014673 0.102995224 0.0060922443 0.07333606 -0.08596504 0.016676057 -0.012486759 -0.15186843
0.11953159 -0.05225973 0.13553616 -0.035896387 0.06104358 -0.12057842 0.025617855 -0.12361629
0.012735665 0.01126815 -0.11400075 -0.12638594 0.07410239 0.06374026 -0.06766254 0.099181585
-0.0019733966 0.054579385 0.031108541 0.10241474 0.019538077 0.041897822 0.11696022 -0.16120487
-0.08696003 -0.014254236 -0.043699097 -0.020182868 0.101731166 0.06946505 -0.04184884 0.099575
0.059469987 -0.06625045 0.084195495 -0.015152839 -0.02342025 0.010795468 -0.04666808 0.044726223
-0.07123671 -0.02164778 0.015322262 -0.16582242 0.07268202 -0.04508777 -0.13006859 0.08037533
-0.023643035 0.14764419 -0.015165815 -0.07705561 -0.08723543 -0.0017259863 -0.033280592 0.049224265
-0.072705165 0.03458452 -0.017452374 0.071901515 -0.07358507 -0.057370156 0.007937838 0.082300775
-0.04676891 0.024553105 0.036990926 -0.0018222309 0.046354186 -0.035887107 -0.043620564 0.062480174
-0.015922256 0.079149455 0.097595826 0.012133596 -0.06351732 0.015174715 0.045211423 0.02525591
-0.033742514 -0.04395656 -0.01827065 -0.05126914 0.10903381 -0.026374953 -0.047635797 0.11094543
0.00197662 0.008272089 -0.018141622 0.01694583 0.10341772 -0.034910817 0.11036801 -0.075571
-0.10463198 -0.17108904 0.00053327985 0.008863759 0.11647177 0.08755627 -0.056927036 -0.08191527
-0.061352212 -0.17763548 -0.02235457 -0.04539768 0.07417307 0.02528154 -0.07881927 0.0006348567
0.06392087 -0.045036215 -6.6601926e-05 -0.017569443 -0.063270025 0.0141114555 -0.1019281 0.10580338
0.04717174 -0.014583567 0.10256464 0.014208155 0.0555205 -0.1072615 -0.04250438 0.10632912
-0.13718027 0.05562521 -0.07061703 -0.0003689237 0.10992156 0.14920089 -0.09749745 -0.0049245497
0.08410328 -0.00040014903 -0.040230673 0.09829035 0.09286884 0.042695116 0.04571479 0.08930523
0.13437685 -0.070690595 0.07082795 0.053469565 -0.056383993 0.033776518 0.06123365 -0.17125937
0.08424455 -0.049284216 0.03707495 -0.09492987 -0.12185649 0.053857226 -0.03124426 0.060333453
0.08147583 0.15893641 0.06740609 -0.077188656 -0.046398927 -0.06216237 0.08473772 0.04475502
00000000: 5252 47bc bb00 07be c9de 86bd c700 aebd
00000010: 4ad0 f5bd e477 b7bd b783 71bd 5635 08be
00000020: 0f04 cb3c 42eb b13d 70e1 92bd 90ec bdbd
00000030: 007a 53bd b008 0bbc 82c4 fdbd ac88 b5bd
00000040: c6b7 6b3d 6745 fdbc 5bf2 9abc 8774 593b
00000050: 11e7 89bd 1ab9 cbbd b619 c23c bb44 783c
00000060: fc2d d2bc e432 35bd 5ca4 c5b9 7192 99bd
00000070: 077f 5e3d 7be0 e6bd 0c64 cbbd 894b 99bd
00000080: 8720 793d 6f90 1cbd 148c c13d 04f2 053c
00000090: c000 753d ff9c d6bd 4ac6 94bd d9b4 a0bd
000000a0: 86da 34bd 5052 dc3d 935c 703d 0004 c6bd
000000b0: 4d59 833d 5fb4 1e3b fcb2 5cbd d123 5b3e
000000c0: 0e26 b03d 8e52 64bd 92cf bf3b 168f cd3d
000000d0: 2073 9d3d bc46 343d 7fbf 5f3d eb15 1a3d
000000e0: 1e69 3abd 35aa 32bd cb7d 23bd 302c eb3d
000000f0: 8f84 953c d956 7b3d f185 b13d 5199 ebbc
00000100: f9e5 073e 26d7 aa3d b95e 873d 05c0 473b
00000110: 8d2f 26bc 3f9f 80bd 94bf a73c 2508 21b8
00000120: 13b3 8d3c 8e6f e9bd 0ca5 c43d 7dfd 36bc
00000130: 4b14 403d 1200 de3d 89cd a7bc 4756 b03d
00000140: 46f6 f63c 29ef d23d 73a1 c73b 3731 963d
00000150: 700e b0bd 3a9c 883c 4395 4cbc 6683 1bbe
00000160: facc f43d 4c0e 56bd fec9 0a3e 1708 13bd
00000170: d508 7a3d d2f1 f6bd 89dc d13c 8a2a fdbd
00000180: 40a9 503c 0c9e 383c 3a79 e9bd 516b 01be
00000190: fec2 973d 418a 823d a892 8abd b71f cb3d
000001a0: 1a54 01bb a28e 5f3d 57d7 fe3c d2be d13d
000001b0: 510e a03c 0d9d 2b3d d788 ef3d e412 25be
000001c0: 1a18 b2bd 998a 69bc d3fd 32bd 8b56 a5bc
000001d0: 6e58 d03d b143 8e3d b069 2bbd faed cb3d
000001e0: cd96 733d 51ae 87bd b06e ac3d 9d43 78bc
000001f0: d3db bfbc 7adf 303c 0727 3fbd d832 373d
00000200: 8de4 91bd af56 b1bc 3a0a 7b3c 5acd 29be
00000210: 50da 943d f4ad 38bd b330 05be d29b a43d
00000220: 0aaf c1bc 0a30 173e 0a7a 78bc 55cf 9dbd
00000230: 7da8 b2bd 7d3a e2ba 3b51 08bd 629f 493d
00000240: 72e6 94bd 7fa8 0d3d 48f8 8ebc 1a41 933d
00000250: c5b3 96bd f8fc 6abd b50d 023c 4f8d a83d
00000260: c290 3fbd 9823 c93c cc83 173d ecd7 eeba
00000270: e3dd 3d3d 5cfe 12bd 7aab 32bd 36eb 7f3d
00000280: 646f 82bc 1c19 a23d 52e0 c73d fecb 463c
00000290: 5e15 82bd 5e9f 783c 9d2f 393d 7be5 ce3c
000002a0: 9735 0abd cb0b 34bd 55ac 95bc 97ff 51bd
000002b0: 1e4d df3d 4910 d8bc c11d 43bd 5c37 e33d
000002c0: 2e8a 013b a887 073c bd9d 94bc fbd1 8a3c
000002d0: abcc d33d a5fe 0ebd a008 e23d f8c4 9abd
000002e0: 4b49 d6bd f731 2fbe cecb 0b3a 4d39 113c
000002f0: c088 ee3d b450 b33d 532c 69bd 31c3 a7bd
00000300: 754c 7bbd 13e6 35be ee20 b7bc ebf2 39bd
00000310: 0de8 973d 3b1b cf3c ff6b a1bd 836c 263a
00000320: f2e8 823d e577 38bd a3ac 8bb8 cbed 8fbc
00000330: b793 81bd bc33 673c aebf d0bd 71af d83d
00000340: 2837 413d eaef 6ebc 690d d23d 52c9 683c
00000350: 7769 633d ebab dbbd 1319 2ebd 15c3 d93d
00000360: fc78 0cbe 43d7 633d a99f 90bd 1a6c c1b9
00000370: 8e1e e13d 1ec8 183e beac c7bd 1e5e a1bb
00000380: 573e ac3d 18cb d1b9 ebc8 24bd 734c c93d
00000390: 0532 be3d 13e1 2e3d 6e3f 3b3d a9e5 b63d
000003a0: 169a 093e 3bc6 90bd 3f0e 913d e702 5b3d
000003b0: e7f2 66bd 3f59 0a3d 23d0 7a3d 9e5e 2fbe
000003c0: 6888 ac3d 3fde 49bd e7db 173d 976a c2bd
000003d0: e58f f9bd 6599 5c3d f6f3 ffbc 3620 773d
000003e0: cddc a63d 3ac0 223e 340c 8a3d 1615 9ebd
000003f0: cd0c 3ebd f89d 7ebd f88a ad3d 0a51 373d

transformer.layers.0.self_attn.out_proj.bias f4 [64]
-0.0029326517 -0.0070038154 -0.004264442 -0.030180573 0.015578436 -0.005311765 0.013003542 0.022406017
-0.014663435 -0.0120730195 -0.0103336135 -0.020439263 -0.027227882 0.0050000767 0.021682534 0.0037793696
-0.005831951 0.0093377195 0.005335354 -0.0025687176 -0.021139544 -0.027813332 0.017245367 0.010168466
0.0068403617 0.0067707216 -0.005682202 0.006496069 0.013768738 -0.01307911 -0.0075380984 -0.018767918
-0.029924301 -0.0009115648 -0.015182251 0.10513444 0.019778589 0.010002697 -0.013835569 -0.0072890758
0.041983936 0.013996613 -0.024079856 0.002095268 0.00042196657 0.008741926 -0.0046711816 0.006038016
0.023823261 0.04921971 0.044654842 0.010120876 -0.051414028 -0.021591155 -0.0046184375 0.0030768362
0.0078962715 -0.023820769 -0.014078411 0.0057529267 -0.035869837 0.004662717 0.015278715 0.014949
00000000: bb31 40bb 4380 e5bb bbbc 8bbb 403d f7bc
00000010: b23c 7f3c 500e aebb cf0c 553c d38c b73c
00000020: e73e 70bc eacd 45bc 514e 29bc 3e70 a7bc
00000030: 020d dfbc afd7 a33b 929f b13c 4daf 773b
00000040: f319 bfbb 3cfd 183c 31d4 ae3b ee57 28bb
00000050: d62c adbc c9d8 e3bc 2846 8d3c a399 263c
00000060: 1d25 e03b eedc dd3b c431 babb fadc d43b
00000070: 4696 613c c349 56bc 2702 f7bb 2dbf 99bc
00000080: cf23 f5bc 14f6 6eba fabe 78bc ba50 d73d
00000090: b506 a23c 5ae2 233c 95ae 62bc 33d9 eebb
000000a0: 59f7 2b3d 0d52 653c 1e43 c5bc c450 093b
000000b0: 653b dd39 4c3a 0f3c b610 99bb 8dda c53b
000000c0: 0029 c33c 9b9a 493d ffe7 363d 08d2 253c
000000d0: 8497 52bd efdf b0bc 4356 97bb bfa4 493b
000000e0: 5d5f 013c c623 c3bc 23a9 66bc 0c83 bc3b
000000f0: 40ec 12bd b5c9 983b 9353 7a3c a7ec 743c

transformer.layers.0.linear1.weight f4 [128, 64]
0.033284288 -0.09133815 -0.011473738 -0.09541769 -0.1008741 -0.0095068915 -0.18259153 0.119073905
-0.19851482 0.028920079 -0.047728404 -0.15175627 -0.026363617 -0.030312493 0.11302308 -0.013846426
0.101178184 0.0038511576 -0.03758968 -0.08274526 0.19243102 0.14740081 0.010613589 -0.09928201
-0.012914751 0.02657968 -0.1070201 -0.09852926 0.14753842 -0.12204342 -0.035625223 0.09334782
-0.1481756 0.05013144 -0.021639366 -0.04785948 -0.038859457 -0.0010914266 0.01222635 -0.049955614
0.03035243 0.05743449 -0.10066132 -0.088231675 -0.13168229 0.11615714 0.09156669 0.092367366
0.04812434 0.12288297 0.031509236 -0.08682054 0.0076618795 -0.10703934 -0.06121991 -0.019181447
-0.075333185 0.04040093 0.06424757 -0.004077262 -0.0011415681 0.022807373 0.030041423 -0.053787258
0.1732169 -0.099961184 0.0015097486 0.06509926 -0.01752197 -0.10839066 -0.0010878153 0.06246839
0.05798863 0.04144707 0.02380581 0.04238177 -0.08960644 0.05408113 -0.032270808 -0.10996309
0.010475124 0.12040586 -0.15438461 -0.059137303 0.09083905 0.016206454 -0.057476748 -0.09409322
0.020813027 0.17880666 0.0041931947 0.07129615 0.12253234 -0.099437885 0.12577096 0.15442795
-0.10180197 0.05426409 -0.047141798 -0.059792742 -0.041137554 0.0872099 -0.03876976 -0.13610384
0.07829859 0.047553003 -0.07907658 -0.121758334 0.09926161 0.004950906 0.12749416 0.10173569
0.1031255 -0.014409225 -0.06763366 -0.07944742 -0.11562691 -0.0072897826 0.06008642 -0.0102973655
-0.11344672 0.08726928 -0.06167352 0.020693615 -0.044494465 -0.07954963 0.04617811 0.13168341
0.12088633 -0.04188137 0.1201229 0.0653335 0.12858881 0.020527959 -0.079924375 0.012715709
0.016194656 0.008187097 0.15716104 -0.14521985 -0.117549516 0.13143866 -0.0027471231 0.019829534
0.124636166 -0.005941199 0.04460047 0.05853333 0.0058764345 0.04919774 -0.04833798 -0.00064909394
-0.04272568 -0.0004631151 0.1527923 -0.1166051 0.014842926 0.05828855 0.014631613 0.03927049
-0.034460034 0.02986466 -0.051422678 0.068032034 -0.08538891 0.031247437 0.08753798 0.07327131
0.013043177 -0.006222413 -0.10940217 0.044179942 -0.108208284 -0.030776573 0.052067637 0.014887145
0.13875557 -0.08114951 0.13909638 -0.018163351 0.06413848 0.08717988 0.022527928 0.101154946
-0.052266594 0.08750897 -0.029458607 -0.06049147 -0.06458381 0.104223214 0.06843795 0.0957972
0.06981016 0.018162658 -0.0038149662 -0.03512848 0.06298556 0.050031584 -0.08857425 -0.09682898
-0.049266618 -0.121231385 -0.018830983 -0.05201024 -0.083691195 0.04363637 0.09017848 -0.08247882
-0.056932952 0.0013344073 -0.051845767 0.04418234 -0.021656144 0.045763463 -0.04155949 -0.06803047
-0.03535295 0.05525991 -0.03499799 0.040320348 0.08126697 0.037748802 0.11562902 -0.010211391
-0.01365278 0.07948295 0.087164186 -0.08693178 -0.06014304 0.014147645 0.0049949205 0.0675659
0.14265546 0.09291112 -0.021693286 -0.12565401 -0.043832894 0.09660593 0.15862979 0.13205653
0.08571747 -0.0538503 0.08799247 -0.00097278703 0.0016450938 -0.04500403 0.027611885 -0.06058711
-0.049134333 0.104378395 0.004321878 -0.056440096 -0.16216232 -0.0931248 0.09582667 -0.04350964
00000000: 1b55 083d 7f0f bbbd 58fc 3bbc 5a6a c3bd
00000010: 1597 cebd cbc2 1bbc 46f9 3abe 05dd f33d
00000020: 7847 4bbe cde9 ec3c dc7e 43bd ff65 1bbe
00000030: 83f8 d7bc e851 f8bc a578 e73d 1fdc 62bc
00000040: 8236 cf3d b463 7c3b a3f7 19bd 5976 a9bd
00000050: a30c 453e 3df0 163e 9ee4 2d3c 5e54 cbbd
00000060: 6498 53bc a1bd d93c 5b2d dbbd b5c9 c9bd
00000070: 5014 173e e7f1 f9bd c1eb 11bd 242d bf3d
00000080: 58bb 17be a056 4d3d 0a45 b1bc 4d08 44bd
00000090: 182b 1fbd 330e 8fba 0751 483c 429e 4cbd
000000a0: a9a5 f83c 6e40 6b3d 8627 cebd cfb2 b4bd
000000b0: b9d7 06be cbe3 ed3d 5187 bb3d 1a2b bd3d
000000c0: 071e 453d 11aa fb3d d40f 013d f8ce b1bd
000000d0: 8110 fb3b 7137 dbbd bac1 7abd 6922 9dbc
000000e0: 4948 9abd 727b 253d 3b94 833d 8d9a 85bb
000000f0: aba0 95ba 87d6 ba3c 6e19 f63c 0750 5cbd
00000100: c55f 313e 73b8 ccbd c2e2 c53a c352 853d
00000110: 3c8a 8fbc ecfb ddbd 0695 8eba dbde 7f3d
00000120: 7c85 6d3d 67c4 293d 6704 c33c 8298 2d3d
00000130: 9583 b7bd 2d84 5d3d 652e 04bd 5434 e1bd
00000140: db9f 2b3c 5997 f63d 0017 1ebe f539 72bd
00000150: d309 ba3d 66c3 843c bd6c 6bbd f2b3 c0bd
00000160: 1580 aa3c 1819 373e 1167 893b b703 923d
00000170: 3cf2 fa3d 17a6 cbbd 1aca 003e 5c22 1e3e
00000180: 8d7d d0bd 0644 5e3d c217 41bd 3ce9 74bd
00000190: da7f 28bd 1b9b b23d 0acd 1ebd ce5e 0bbe
000001a0: 035b a03d f0c6 423d e7f2 a1bd 6f5c f9bd
000001b0: ac49 cb3d 363b a23b d48d 023e cd5a d03d
000001c0: 7633 d33d ac14 6cbc 8483 8abd 54b5 a2bd
000001d0: cdcd ecbd 21df eebb 2e1d 763d 48b6 28bc
000001e0: c156 e8bd 3cba b23d 5f9d 7cbd a885 a93c
000001f0: d43f 36bd ebea a2bd 4225 3d3d 04d8 063e
00000200: 4193 f73d cd8b 2bbd ff02 f63d 92cd 853d
00000210: c9ac 033e 402a a83c 64af a3bd 8d55 503c
00000220: a8aa 843c 2c23 063c d3ee 203e 83b4 14be
00000230: cdbd f0bd db97 063e 1409 34bb 8c71 a23c
00000240: 3f41 ff3d 64ae c2bb fcae 363d a5c0 6f3d
00000250: 1b8f c03b 9283 493d 0cfe 45bd f527 2aba
00000260: 1f01 2fbd 42ce f2b9 9675 1c3e a8ce eebd
00000270: be2f 733c f9bf 6e3d 6fb9 6f3c 18da 203d
00000280: f725 0dbd bba6 f43c 96a0 52bd 6154 8b3d
00000290: 61e0 aebd a0fa ff3c 1d47 b33d 450f 963d
000002a0: 0db3 553c 62e5 cbbb 3f0e e0bd 07f6 343d
000002b0: 4e9c ddbd 271f fcbc e044 553d 36e9 733c
000002c0: f115 0e3e b731 a6bd 486f 0e3e 4fcb 94bc
000002d0: 095b 833d 5d8b b23d 7d8c b83c 532a cf3d
000002e0: 7f15 56bd e737 b33d 2d53 f1bc e7c5 77bd
000002f0: 8444 84bd fb72 d53d 3229 8c3d 5331 c43d
00000300: a1f8 8e3d dbc9 943c 8304 7abb e2e2 0fbd
00000310: 93fe 803d ebed 4c3d 6b66 b5bd 464e c6bd
00000320: cbcb 49bd 2948 f8bd 6f43 9abc b008 55bd
00000330: 4a66 abbd 0dbc 323d 7faf b83d a8ea a8bd
00000340: 8732 69bd 47e7 ae3a 3a5c 54bd 8bf8 343d
00000350: 3a68 b1bc 7872 3b3d 493a 2abd 8f53 8bbd
00000360: 41ce 10bd 3758 623d 0d5a 0fbd f326 253d
00000370: 4c6f a63d 7d9e 1a3d e8ce ec3d ae4d 27bc
00000380: e9af 5fbc f5c7 a23d 2383 b23d 4a09 b2bd
00000390: 8c58 76bd 86cb 673c 6eac a33b fe5f 8a3d
000003a0: 4614 123e 2f48 be3d 1eb6 b1bc 72ab 00be
000003b0: 1f8a 33bd 54d9 c53d d96f 223e d439 073e
000003c0: a48c af3d 2292 5cbd 6535 b43d a202 7fba
000003d0: 30a0 d73a 2556 38bd 5232 e23c 312a 78bd
000003e0: 1541 49bd 57c4 d53d 8a9e 8d3b bb2d 67bd
000003f0: e10d 26be 37b8 bebd c640 c43d 2a37 32bd

transformer.layers.0.linear1.bias f4 [128]
-0.04869453 -0.026588148 -0.015481876 0.009507936 0.081850655 -0.0920688 0.07837545 0.025432795
0.11797076 -0.016700916 -0.08687659 -0.061776664 0.020708913 0.085846305 -0.064249955 -0.013398689
0.052065447 -0.095488556 -0.014929948 0.1028498 0.051899098 -0.13471843 -0.06505705 0.023414902
-0.12456223 -0.1180316 0.07851122 -0.089775674 -0.14609382 0.021467267 -0.054473024 -0.0015902644
0.043519847 -0.14513893 0.027242117 0.011536587 -0.12442088 -0.10390065 -0.07706015 0.015068005
0.03636881 -0.13614056 -0.070044085 -0.04545856 -0.12793212 -0.04068121 -0.108127035 -0.01926647
-0.014316718 -0.009518881 -0.13994244 0.0037620463 -0.050828416 -0.06037133 -0.11662611 0.085987456
-0.096430406 -0.000112986556 -0.115206 -0.108119905 -0.061049223 -0.004726922 -0.02771116 -0.07952151
0.035883244 -0.12153014 -0.019631991 0.09059677 -0.067093134 -0.12554719 -0.081811935 0.07612596
0.094356716 -0.084546804 -0.11340381 0.035383135 0.09011605 0.08867545 -0.08512744 0.054505832
-0.07668501 -0.12997013 0.054077018 -0.0027586212 -0.04844405 0.049151193 -0.122875005 -0.00518818
0.0582257 -0.045851227 -0.11044519 0.11067932 0.01837952 0.06784138 -0.12248692 -0.07534107
0.048390564 0.04486617 0.09331447 -0.007750866 -0.048681896 -0.03473165 -0.0730764 -0.062590405
-0.108474925 -0.09446815 -0.033388108 -0.02699596 0.029790824 -0.021801408 0.08251692 -0.12462509
-0.15121472 -0.12756458 0.00842954 -0.08255423 -0.009701329 0.11004054 0.06285146 -0.05760302
0.11010913 -0.090123124 -0.038268365 0.05802132 0.0661517 -0.042451773 -0.08416363 0.017503124
00000000: ea73 47bd 63cf d9bc b2a7 7dbc 2dc7 1b3c
00000010: 51a1 a73d 918e bcbd 4f83 a03d 7058 d03c
00000020: a79a f13d 5cd0 88bc 5bec b1bd 8709 7dbd
00000030: bda5 a93c 30d0 af3d 7b95 83bd 2d86 5bbc
00000040: 9442 553d 818f c3bd be9c 74bc eaa2 d23d
00000050: 2694 543d a1f3 09be a13c 85bd 9cd0 bf3c
00000060: 7c1a ffbd 8dba f1bd 7eca a03d 4fdc b7bd
00000070: 9e99 15be 1fdc af3c 1b1f 5fbd 6b70 d0ba
00000080: de41 323d 4d9f 14be dc2a df3c f403 3d3c
00000090: 60d0 febd ddc9 d4bd b6d1 9dbd cbdf 763c
000000a0: 76f7 143d 6e68 0bbe 4673 8fbd c132 3abd
000000b0: a300 03be 57a1 26bd b571 ddbd b7d4 9dbc
000000c0: ab90 6abc 15f5 1bbc 124d 0fbe aa8c 763b
000000d0: 7531 50bd ed47 77bd acd9 eebd 311a b03d
000000e0: 4e7d c5bd 32f3 ecb8 20f1 ebbd f86d ddbd
000000f0: c00e 7abd 4ce4 9abb 8402 e3bc 2cdc a2bd
00000100: 4ffa 123d cbe4 f8bd 45d3 a0bc cd8a b93d
00000110: 2068 89bd 718f 00be 048d a7bd ede7 9b3d
00000120: 183e c13d e026 adbd 4240 e8bd e8ed 103d
00000130: c38e b83d 799b b53d 4c57 aebd 8241 5f3d
00000140: 080d 9dbd e416 05be dd7f 5d3d fcc9 34bb
00000150: 456d 46bd c352 493d e4a5 fbbd 9c01 aabb
00000160: 127e 6e3d 7fce 3bbd 1631 e2bd d7ab e23d
00000170: a690 963c 6cf0 8a3d 6cda fabd 6b4c 9abd
00000180: 2f35 463d 97c5 373d a81b bf3d fafa fdbb
00000190: ab66 47bd c642 0ebd 14a9 95bd 662f 80bd
000001a0: 1a28 debd 8478 c1bd f8c1 08bd a226 ddbc
000001b0: e30b f43c de98 b2bc a2fe a83d 703b ffbd
000001c0: 08d8 1abe 4aa0 02be 0e1c 0a3c 3112 a9bd
000001d0: 53f2 1ebc ef5c e13d 44b8 803d 25f1 6bbd
000001e0: e580 e13d 7992 b8bd 4abf 1cbd c3a7 6d3d
000001f0: 8b7a 873d e9e1 2dbd fb5d acbd b662 8f3c

transformer.layers.0.linear2.weight f4 [64, 128]
0.012474608 0.10650517 -0.05752745 0.09090661 0.08405303 0.007928702 0.17910297 -0.026609708
-0.0066310223 -0.005075543 0.03344149 0.031736173 0.065968126 -0.0019134417 0.0016547169 0.013126683
0.055554383 0.107592456 -0.06653035 -0.031788822 -0.1238878 0.07990216 0.058865976 0.033665985
0.05033556 0.051263433 -0.09239779 -0.006689277 -0.008507676 -0.068257436 0.04779987 -0.03160628
-0.02331411 -0.024661886 0.16495854 0.05918107 -0.031158471 0.11980698 -0.028204458 -0.051155176
0.06328406 -0.023448538 0.06261964 0.067915924 0.06707285 0.049710162 0.017103285 0.07150221
0.026060862 0.116054356 0.029397031 0.001323739 -0.0075269756 -0.05524766 0.02671515 -0.0287045
0.0746912 -0.07095035 0.11558982 0.21014452 -0.065798275 -0.028066026 0.08850727 -0.05279702
0.05685232 0.0963483 0.09708177 0.06922989 -0.04824664 0.12820305 0.035409495 -0.01997961
0.0676128 0.02285826 0.065470524 0.08641667 -0.0148613965 0.08003234 0.10392255 -0.020395972
0.18233114 0.09350583 0.14828168 0.07532431 0.18890244 0.033734776 -0.04365985 -0.03878382
0.06971009 0.056224365 0.07722618 -0.0444493 -0.07022281 0.005475153 0.091412134 0.040898282
0.07606703 -0.022261199 -0.08316464 -0.026788456 -0.026047496 -0.06118899 -0.0007776042 -0.044594027
0.18181482 0.0030761154 0.01300209 -0.008102356 0.014236679 -0.08410738 0.057911757 0.2945493
0.10521552 -0.0098773185 -0.017824236 -0.03241483 0.14591984 0.13242818 0.09584716 0.03377276
0.1299341 0.11972064 -0.024807528 0.0036973024 -0.054345768 -0.07869784 0.07728527 -0.044160124
-0.10731394 -0.051440082 0.024002256 0.028362565 -0.045104165 -0.089670375 -0.029419163 -0.14417204
0.013713993 -0.004871189 0.07623254 0.023516813 -0.09761408 -0.07591256 -0.036329016 -0.03318163
0.022812484 0.052595664 -0.012550475 0.06567945 -0.03604282 -0.085450515 -0.039562132 0.05790577
-0.051071208 -0.032771815 0.023501782 -0.06633068 0.03262316 0.013328686 -0.006651836 -0.08764441
-0.10108858 0.0823448 -0.064653486 0.07125743 -0.120556764 0.04424551 -0.05733608 -0.034370594
0.09904572 0.056235373 -0.096226275 -0.022065205 -0.0076863277 -0.02405766 -0.071047045 0.03350319
-0.073274225 0.11759544 -0.110081635 -0.0033165233 0.033957213 0.035354175 -0.004556113 0.08270639
0.065979 0.039458144 -0.093996294 0.165387 -0.04675191 -0.005001337 0.048318736 0.06028226
-0.040711947 -0.049894575 -0.0043639713 -0.14437814 -0.018615445 0.0027943554 0.014290571 0.09116836
-0.059652574 0.0185069 -0.055264875 -0.0038953626 -0.15513174 -0.071540214 -0.06938946 -0.09015952
-0.015532276 0.05213556 -0.0026048117 -0.10042053 -0.029909773 -0.0635647 -0.055651467 -0.093081795
-0.067389816 0.05409479 -0.10300071 -0.10345409 -0.18858463 -0.043652885 0.08198647 0.0129955895
-0.12115998 -0.039978545 0.056350995 0.024164824 0.06743791 0.032625966 -0.0797983 0.02620955
-0.090573296 -0.026462132 0.05573813 0.04620459 -0.0015834016 0.019719232 -0.08403692 -0.02764962
-0.0093220435 0.04580808 -0.036998004 0.009926203 -0.094566025 -0.06817279 0.087898426 0.024439229
0.06391097 -0.082766406 -0.028838145 0.03553123 -0.04167405 -0.01228138 0.003698819 -0.1677783
00000000: 4c62 4c3c 621f da3d e7a1 6bbd 3f2d ba3d
00000010: ff23 ac3d 63e7 013c c566 373e 9afc d9bc
00000020: 0c49 d9bb be50 a6bb f2f9 083d cafd 013d
00000030: 4c1a 873d 73cc faba 16e3 d83a 4d11 573c
00000040: fe8c 633d 6f59 dc3d 1041 88bd ff34 02bd
00000050: e3b8 fdbd bea3 a33d 731d 713d 58e5 093d
00000060: a92c 4e3d 9bf9 513d 0d3b bdbd b931 dbbb
00000070: c863 0bbc 8eca 8bbd ccc9 433d 9675 01bd
00000080: 3bfd bebc b907 cabc e4ea 283e da67 723d
00000090: 0d40 ffbc 5d5d f53d 090d e7bc 1788 51bd
000000a0: 139b 813d 2617 c0bc ba3e 803d 8117 8b3d
000000b0: 7e5d 893d e29c 4b3d 301c 8c3c c06f 923d
000000c0: 977d d53c e8ad ed3d 0bd2 f03c 4f81 ad3a
000000d0: d9a4 f6bb 5f4b 62bd bbd9 da3c b325 ebbc
000000e0: b3f7 983d 6b4e 91bd 5bba ec3d 2030 573e
000000f0: 3fc1 86bd b9ea e5bc 4d43 b53d b041 58bd
00000100: fadd 683d 4252 c53d cfd2 c63d 67c8 8d3d
00000110: 459e 45bd a947 033e 8c09 113d 47ac a3bc
00000120: 9478 8a3d 3f41 bb3c 6915 863d 39fb b03d
00000130: 377d 73bc ffe7 a33d 59d5 d43d 7415 a7bc
00000140: 04b5 3a3e fc7f bf3d 27d7 173e a243 9a3d
00000150: a46f 413e 7a2d 0a3d acd4 32bd c8db 1ebd
00000160: 2ac4 8e3d 854b 663d c228 9e3d 7810 36bd
00000170: fad0 8fbd ea68 b33b 4936 bb3d f584 273d
00000180: 08c9 9b3d 1e5d b6bc 3952 aabd 7773 dbbc
00000190: 8f61 d5bc 4ea1 7abd 22d8 4bba 3aa8 36bd
000001a0: aa2d 3a3e a798 493b b806 553c bfbf 04bc
000001b0: f640 693c 7d40 acbd e134 6d3d 2acf 963e
000001c0: 3c7b d73d 7ad4 21bc 2204 92bc 6ac5 04bd
000001d0: 036c 153e 419b 073e 844b c43d 4e55 0a3d
000001e0: 720d 053e 1830 f53d 2839 cbbc 714e 723b
000001f0: ab99 5ebd 552c a1bd bd47 9e3d 3fe1 34bd
00000200: 69c7 dbbd d6b2 52bd 61a0 c43c 9c58 e83c
00000210: 25bf 38bd 1aa5 b7bd 7500 f1bc d6a1 13be
00000220: a8b0 603c 7f9e 9fbb ce1f 9c3d 55a6 c03c
00000230: e4e9 c7bd 0b78 9bbd bccd 14bd 76e9 07bd
00000240: 3fe1 ba3c 8d6e 573d 82a0 4dbc f382 863d
00000250: a3a1 13bd ae00 afbd e70b 22bd 9a2e 6d3d
00000260: 0b30 51bd bd3b 06bd cf86 c03c 61d8 87bd
00000270: dd9f 053d 9060 5a3c a5f7 d9bb ea7e b3bd
00000280: 8807 cfbd 64a4 a83d 0c69 84bd 6aef 913d
00000290: 77e6 f6bd c83a 353d 3dd9 6abd 2ec8 0cbd
000002a0: 7cd8 ca3d 1057 663d 4812 c5bd 17c2 b4bc
000002b0: 97dd fbbb 9214 c5bc 1d81 91bd a43a 093d
000002c0: cc10 96bd e1d5 f03d 7b72 e1bd 075a 59bb
000002d0: b816 0b3d 8acf 103d 724b 95bb f861 a93d
000002e0: ff1f 873d dd9e 213d 2181 c0bd 365b 293e
000002f0: ee7e 3fbd 41e2 a3bb dee9 453d 88ea 763d
00000300: 92c1 26bd 415e 4cbd a5ff 8ebb ddd7 13be
00000310: 6b7f 98bc 8121 373b 0023 6a3c 7ab6 ba3d
00000320: 4256 74bd c89b 973c 6c5d 62bd 5749 7fbb
00000330: dbda 1ebe ad83 92bd 101c 8ebd 8ea5 b8bd
00000340: 167b 7ebc 198c 553d 7db5 2abb 47a9 cdbd
00000350: 5705 f5bc 362e 82bd cbf2 63bd aba1 bebd
00000360: ac03 8abd 8092 5d3d 09f2 d2bd bddf d3bd
00000370: 541c 41be 5ecd 32bd 86e8 a73d 74eb 543c
00000380: b922 f8bd 8bc0 23bd 4dd0 663d 4ff5 c53c
00000390: e31c 8a3d cea2 053d 4b6d a3bd 69b5 d63c
000003a0: 7e7e b9bd 1dc7 d8bc aa4d 643d 0641 3d3d
000003b0: 248a cfba 3a8a a13c 8c1b acbd 7581 e2bc
000003c0: 7cbb 18bc 41a1 3b3d 388b 17bd 83a1 223c
000003d0: d5ab c1bd 2d9e 8bbd 1704 b43d c734 c83c
000003e0: c1e3 823d 6f81 a9bd f93d ecbc 3289 113d
000003f0: 69b2 2abd d737 49bc e367 723b 13ce 2bbe

transformer.layers.0.linear2.bias f4 [64]
-0.035144955 -0.06838331 -0.07904547 0.03921586 -0.05548058 0.05054164 0.01007786 -0.057259716
-0.03969558 0.020587659 0.071339644 -0.08473124 0.0019994345 0.044887383 0.044246748 -0.033320684
0.009955739 -0.019689228 -0.07216892 0.016894165 -0.015419144 0.057549316 0.018323522 0.036510743
0.054223567 -0.032740653 0.03949846 -0.037600633 0.021880982 -0.016376527 0.056123476 -0.019043822
-0.061018225 -0.03797902 -0.07702194 0.059185736 0.023513462 -0.05501848 0.019902263 -0.010639072
0.015257265 0.098897845 0.06408365 0.07187529 0.019305287 0.035622366 0.014442998 -0.030319262
0.0541377 0.023846906 0.047304444 0.060301054 -0.06143724 -0.070873156 0.060461115 -0.08819229
-0.056250863 0.0046100304 0.05751497 0.088098094 -0.09789322 -0.061770614 -0.042992126 0.06190512
00000000: 28f4 0fbd 8d0c 8cbd 97e2 a1bd cfa0 203d
00000010: 9b3f 63bd c004 4f3d 9c1d 253c 2a89 6abd
00000020: d597 22bd 73a7 a83c 851a 923d 9387 adbd
00000030: f208 033b d5db 373d 143c 353d 457b 08bd
00000040: 651d 233c 4e4b a1bc 4ccd 93bd a265 8a3c
00000050: 94a0 7cbc d5b8 6b3d 361b 963c 4a8c 153d
00000060: 8819 5e3d 101b 06bd 23c9 213d 1f03 1abd
00000070: bf3f b33c 1128 86bc bbe1 653d ca01 9cbc
00000080: 3fee 79bd e48f 1bbd aebd 9dbd be6c 723d
00000090: 4e9f c03c 0f5b 61bd 120a a33c 814f 2ebc
000000a0: 9cf9 793c f48a ca3d 4a3e 833d 5a33 933d
000000b0: 1f26 9e3c c2e8 113d 53a2 6c3c 1a60 f8bc
000000c0: 7ebf 5d3d 965a c33c 4ec2 413d 3dfe 763d
000000d0: 9ea5 7bbd f225 91bd 13a6 773d 299e b4bd
000000e0: 4e67 66bd bd0f 973b d194 6b3d c66c b43d
000000f0: 3e7c c8bd 2f03 7dbd 8318 30bd 3990 7d3d

transformer.layers.0.norm1.weight f4 [64]
1.0396601 0.99473476 1.0355009 0.89700586 1.064444 1.2906749 1.1270813 1.1453104
0.94966716 0.96139485 1.100877 0.9464925 0.9274321 1.011749 1.0565801 1.0260298
1.0663248 1.0671564 1.1311586 0.9760087 1.0017002 1.0511993 1.1398517 1.1288532
1.0458726 1.1177531 1.1050161 0.9646498 1.1146241 0.99414414 1.0863838 1.2029028
0.94060874 1.2131981 0.99314636 0.85579187 0.93919784 1.0365034 0.952713 1.0113647
0.94468313 0.9264419 1.0359211 1.24569 1.0777361 1.1445794 1.0774654 1.054002
0.9669059 0.95508265 0.8985436 0.9854909 0.92154646 0.8961628 1.0437601 1.0490423
0.96211964 0.90670985 0.9101752 1.1071997 0.9415549 1.0732085 1.0790893 0.94960153
00000000: 9513 853f f0a6 7e3f 4b8b 843f 2da2 653f
00000010: b33f 883f d634 a53f 3344 903f 8899 923f
00000020: 631d 733f f91d 763f 8ae9 8c3f 554d 723f
00000030: 316c 6d3f fe80 813f 043e 873f f254 833f
00000040: 557d 883f 9598 883f cec9 903f b5db 793f
00000050: b637 803f b38d 863f a9e6 913f 437e 903f
00000060: 27df 853f 8912 8f3f 2b71 8d3f 4af3 763f
00000070: 01ac 8e3f 3b80 7e3f a00e 8b3f b8f8 993f
00000080: bccb 703f 134a 9b3f d73e 7e3f 2d15 5b3f
00000090: 456f 703f 25ac 843f 00e5 733f 6674 813f
000000a0: c1d6 713f 4c2b 6d3f 1099 843f c572 9f3f
000000b0: 42f3 893f 9481 923f 63ea 893f 8ae9 863f
000000c0: 2587 773f 4c80 743f f406 663f 2249 7c3f
000000d0: 78ea 6b3f ed6a 653f ee99 853f 0547 863f
000000e0: 794d 763f 231e 683f 3e01 693f b8b8 8d3f
000000f0: be09 713f e55e 893f 991f 8a3f 1619 733f

transformer.layers.0.norm1.bias f4 [64]
-0.0021765616 -0.019992935 0.023253316 -0.056623615 -0.016853614 -0.004239838 0.008035251 0.0054626316
-0.027953368 -0.024054939 0.014984477 -0.03217724 -0.054737084 0.023672083 0.0305855 -0.0069693765
-0.01430555 0.014320144 0.0047096726 -0.012993094 0.004727312 -0.010528553 -0.005238925 -0.029601883
0.0053588725 0.009779725 0.030069882 -0.047675293 0.013066999 -0.018834665 -0.006088565 0.0029184725
-0.038722638 0.016462134 -0.029770477 0.10644418 0.051926184 0.0006769881 -0.02471938 -0.017434873
0.05739028 0.04370889 0.013841463 0.015306536 0.018538324 -0.008741136 -0.01113216 0.005409087
0.03595481 0.04348544 0.05603745 0.012152646 -0.04452206 -0.05208317 -0.0058592386 -0.0008332942
-0.01650751 -0.02778651 -0.056052126 0.005309978 -0.050331116 0.001487781 0.04493406 0.044085093
00000000: a5a4 0ebb 39c8 a3bc bd7d be3c 2aee 67bd
00000010: 9710 8abc 57ee 8abb 49a6 033c e0ff b23b
00000020: 76fe e4bc dd0e c5bc 7481 753c 48cc 03bd
00000030: fe33 60bd f5eb c13c 718e fa3c 5e5f e4bb
00000040: d361 6abc 0a9f 6a3c 9953 9a3b fce0 54bc
00000050: 91e7 9a3b f47f 2cbc 4aab abbb a67f f2bc
00000060: 7b99 af3b 243b 203c 1d55 f63c 2b47 43bd
00000070: f716 563c 284b 9abc 9682 c7bb d843 3f3b
00000080: a19b 1ebd 99db 863c 37e1 f3bc 68ff d93d
00000090: 8db0 543d e777 313a 4c80 cabc 94d3 8ebc
000000a0: 1212 6b3d 1808 333d 4ec7 623c 44c8 7a3c
000000b0: afdd 973c fb36 0fbc aa63 36bc b63e b13b
000000c0: 5a45 133d ca1d 323d 8687 653d e41b 473c
000000d0: c35c 36bd 2955 55bd dbfe bfbb 6d71 5aba
000000e0: c23a 87bc 89a0 e3bc ea96 65bd 53ff ad3b
000000f0: 0028 4ebd a501 c33a c70c 383d 9292 343d

transformer.layers.0.norm2.weight f4 [64]
1.0279948 0.9704893 1.0075729 0.9165098 1.0605845 1.2190378 1.061272 1.042039
0.9196075 0.96391624 1.0507798 0.94927955 0.96122694 1.022619 1.044735 0.99221545
1.0045724 1.0251912 1.1087657 1.0123188 0.9483814 1.0513155 1.0306523 1.1060485
0.99816597 1.0676911 0.97946954 0.99965763 1.043354 0.9783023 1.0587149 1.0466365
0.94849515 1.0544039 0.9969561 0.89888334 0.97192097 1.0162032 0.9525518 0.9752138
0.98933935 0.91943204 1.0276059 1.0774992 0.9916263 1.0473393 1.0057582 0.9701767
0.95057374 0.9749635 0.9033479 0.9523173 0.93397576 0.91576624 0.97700036 1.0102113
0.91987205 0.93497974 0.9424468 1.0786252 0.93655676 1.029801 1.0588182 0.9500675
00000000: 5595 833f fd71 783f 26f8 803f 63a0 6a3f
00000010: 3cc1 873f 6e09 9c3f c3d7 873f 8961 853f
00000020: 666b 6b3f 37c3 763f f47f 863f fc03 733f
00000030: f812 763f 2ee5 823f e0b9 853f d501 7e3f
00000040: d495 803f 7739 833f 09ec 8d3f aa93 813f
00000050: 20c9 723f 8291 863f 6aec 833f ff92 8d3f
00000060: ce87 7f3f 1aaa 883f 84be 7a3f 90e9 7f3f
00000070: a08c 853f 0572 7a3f f883 873f 2ff8 853f
00000080: 94d0 723f b5f6 863f 8438 7f3f 381d 663f
00000090: d0cf 783f f212 823f 6fda 733f 9da7 793f
000000a0: 5845 7d3f e65f 6b3f 9788 833f 7eeb 893f
000000b0: 39db 7d3f 370f 863f afbc 803f 805d 783f
000000c0: cd58 733f 3597 793f cf41 673f 11cb 733f
000000d0: 0919 6f3f a86f 6a3f b21c 7a3f 9b4e 813f
000000e0: bc7c 6b3f d55a 6f3f 3244 713f 6410 8a3f
000000f0: 2fc2 6f3f 85d0 833f 5b87 873f a037 733f

transformer.layers.0.norm2.bias f4 [64]
0.006323355 -0.016676461 0.021983635 -0.017974205 -0.009654211 0.0026293176 0.018338203 0.0042986595
-0.040883344 -0.011709671 0.0189089 -0.031038726 -0.027622972 0.00091777544 0.020016259 -0.015979523
-0.01136586 0.003991473 -0.020036047 0.022283508 0.032777928 -0.011773889 -0.0058467127 -0.010718309
-0.002565203 0.01935892 0.010320791 -0.048669316 0.0243981 -0.021160793 -0.015592955 0.008738358
-0.03140526 0.009619914 -0.025778443 0.06930927 0.02315267 0.00097337726 -0.005932297 0.000336476
0.019375004 0.037684556 0.04951586 0.012670136 0.010981843 0.005611902 0.010138858 0.009713978
0.018093811 0.014606433 0.0406297 -0.0033199505 -0.019018777 -0.0027580548 -0.005783279 -0.0004543847
-0.008729654 -0.016418917 -0.042421207 0.00075221324 -0.020438576 0.014260528 0.013857097 0.022583455
00000000: 2534 cf3b 139d 88bc 0617 b43c a43e 93bc
00000010: b22c 1ebc a150 2c3b 003a 963c c5db 8c3b
00000020: 4b75 27bd ebd9 3fbc d6e6 9a3c ed44 febc
00000030: 9249 e2bc de96 703a 23f9 a33c 7de7 82bc
00000040: df37 3abc e7ca 823b a322 a4bc e78b b63c
00000050: 2642 063d 45e7 40bc c895 bfbb d99b 2fbc
00000060: f71c 28bb 9996 9e3c 8918 293c 7a59 47bd
00000070: 86de c73c 6659 adbc 9879 7fbc 542b 0f3c
00000080: cda2 00bd d89c 1d3c 502d d3bc 05f2 8d3d
00000090: abaa bd3c 3e2a 7f3a b763 c2bb 0b69 b039
000000a0: 54b8 9e3c 1f5b 1a3d 24d1 4a3d 6796 4f3c
000000b0: 30ed 333c 0ce4 b73b 741d 263c 6027 1f3c
000000c0: 7939 943c d24f 6f3c 546b 263d 8793 59bb
000000d0: 44cd 9bbc 7bc0 34bb a981 bdbb 7b3a eeb9
000000e0: d306 0fbc f780 86bc dcc1 2dbd 2d30 453a
000000f0: cd6e a7bc fda4 693c e108 633c f000 b93c
