results/MinMaxScaler/TransformerModel_w500.pth (torch, 422342 bytes, 40 tensors)

input_projection.weight f4 [64, 6]
0	0x3cbea1c2	0.023270492
1	0xbec91632	-0.39274746
2	0xbe941132	-0.2891937
3	0x3d828b06	0.06374173
4	0xbe80cc61	-0.2515593
5	0x3ecb87c0	0.39752007
6	0x3c9eb6cc	0.019374274
7	0xbd92e440	-0.071724415
8	0x3d744d9b	0.059644323
9	0xbea7d242	-0.327776
10	0xbe436681	-0.19082071
11	0xbe1fe6e6	-0.15615425
12	0x3ebd1207	0.36927816
13	0x3de3554f	0.11100256
14	0xbd7a2fae	-0.061080627
15	0xbebd1328	-0.36928678
16	0x3e4057e8	0.18783534
17	0xbda2d0e8	-0.07950002
18	0x3ecc7e78	0.39940238
19	0x3e398488	0.18116963
20	0x3d0f558b	0.03499369
21	0x3e5622b7	0.2091168
22	0xbd832f14	-0.06405464
23	0x3e2d4ceb	0.16923873
24	0x3e532003	0.2061768
25	0xbd479ffa	-0.04873655
26	0xbec0fa39	-0.37690905
27	0x3ebdf79e	0.3710298
28	0x3e2ebf44	0.1706515
29	0xbed4ab62	-0.41537005
30	0x3ec301d8	0.38087344
31	0xbe484711	-0.1955836
32	0xbec99405	-0.39370742
33	0x3e75f3fe	0.24018857
34	0x3e8f8584	0.28031552
35	0xbd8eebfd	-0.06978605
36	0x3ed0b7bf	0.40765187
37	0x3e858040	0.2607441
38	0xbe903e6d	-0.28172627
39	0xbe909f62	-0.282466
40	0xbe8f4383	-0.27981195
41	0x3e78f755	0.243131
42	0x3eab7de0	0.33494473
43	0xbeab72d9	-0.3348606
44	0xbe82ca85	-0.25545135
45	0xbe7b3cd8	-0.24534929
46	0x3d2bc252	0.041933365
47	0x3d910ac4	0.070821315
48	0xbe3c4434	-0.18385392
49	0x3dee28b7	0.116288595
50	0x3e42b963	0.19016032
51	0x3e3b6274	0.18299276
52	0xbe82a76e	-0.25518364
53	0xbe75d5d6	-0.24007353
54	0xbe9fafb0	-0.31188726
55	0xbddbdc25	-0.107353486
56	0x3e85c8a9	0.26129654
57	0xbe95da9d	-0.2926835
58	0x3ebe54eb	0.37174162
59	0x3e0090de	0.12555262
60	0xbdc5bcc0	-0.09655142
61	0x3e2815e2	0.16414598
62	0xbe784f59	-0.24249019
63	0xbef43f93	-0.47704753
64	0x3eaac345	0.33352104
65	0xbe966869	-0.29376534
66	0x3ed7b3f2	0.42129475
67	0xbe70f851	-0.23532225
68	0xbd906976	-0.07051365
69	0x3d6cf26f	0.05784839
70	0x3edaa6cb	0.42705378
71	0x3e2caaf6	0.16862091
72	0x3e86ddb4	0.2634102
73	0x3e985b39	0.29757097
74	0x3dda8ab3	0.10670986
75	0x3e4c197a	0.19931594
76	0x3e436748	0.19082367
77	0xbe191904	-0.14950949
78	0x3eb9a92b	0.36261877
79	0x3eb77e5c	0.35838592
80	0xbe7f23d2	-0.24916008
81	0xbdc4cb15	-0.09609047
82	0x3e389c6d	0.18028422
83	0x3e849046	0.25891322
84	0x3e5ebdb0	0.21752048
85	0x3ec44991	0.38337377
86	0x3e0f2a28	0.13980925
87	0x3e4343a5	0.19068773
88	0xbec9abc5	-0.39388862
89	0x3dfbab0e	0.122884855
90	0xbe8bef73	-0.27331123
91	0xbe31e46d	-0.17372294
92	0x3e0bf1cc	0.13666457
93	0xbe9d5320	-0.30727482
94	0xbd4301ce	-0.047609143
95	0xbeba8a41	-0.36433604
96	0xbdff695b	-0.12471267
97	0x3d6decb3	0.058087062
98	0x3e471e46	0.19445142
99	0x3d1ec9c8	0.038766652
100	0xbe59c7f1	-0.21267678
101	0xbd2e02a5	-0.04248299
102	0x3ea23c90	0.3168683
103	0x3e441621	0.19149067
104	0x3e3fad9f	0.18718575
105	0xbedee2d1	-0.43532422
106	0x3e3ea497	0.18617474
107	0x3e7bc23e	0.24585816
108	0x3dd5928b	0.104283415
109	0xbe9dcef9	-0.3082197
110	0x3d355d80	0.04427862
111	0x3eb60ddf	0.35557458
112	0xbef270ac	-0.47351587
113	0x3e8d136f	0.2755389
114	0xbde6f3a4	-0.112769395
115	0x3eaff6c8	0.34367967
116	0xbd6686cd	-0.0562809
117	0xbec906da	-0.3926304
118	0xbeba6d5e	-0.36411566
119	0x3e5bf280	0.21479225
120	0xbdd0e6ac	-0.10200247
121	0x3cb9b13d	0.022667522
122	0xbe5fe022	-0.21862844
123	0xbb1df8d2	-0.0024104607
124	0x3ebea9fd	0.37239066
125	0xbd608816	-0.05481728
126	0xbea38e42	-0.31944472
127	0xbeba55bf	-0.36393544
128	0x3c8c80ab	0.017151197
129	0x3c5b6cb4	0.013392616
130	0xbe8fa1f6	-0.28053254
131	0x3c08f379	0.00835883
132	0x3ed6a708	0.4192431
133	0xbec76bf9	-0.38949564
134	0x3e17f532	0.14839628
135	0x3dc5890f	0.096452825
136	0x3e8224fc	0.25418842
137	0xbc4f67cc	-0.012659024
138	0xbeb70fa2	-0.35754114
139	0x3e39a966	0.18131027
140	0x3e56af73	0.20965366
141	0xbe4a62f1	-0.19764306
142	0x3e191ea3	0.14953093
143	0xbde609a8	-0.112323105
144	0xbedf9e00	-0.43675232
145	0x3d87dbb4	0.06633702
146	0x3e771da2	0.24132398
147	0x3e1f1aea	0.1553761
148	0x3e850e25	0.25987354
149	0x3eb3a526	0.35086936
150	0xbe677f0b	-0.22607057
151	0x3c09bd9b	0.008407022
152	0x3e0be935	0.1366318
153	0x3e275b4b	0.16343419
154	0xbe32a541	-0.17445852
155	0xbe504f0d	-0.20342655
156	0xbeb2d189	-0.34925488
157	0x3d843c61	0.06456829
158	0x3e83c7d6	0.257384
159	0x3edd161c	0.4318093
160	0x3eb515b1	0.35368112
161	0xbeaf4cb8	-0.3423822
162	0x3dd997d7	0.10624664
163	0xbe4c08d6	-0.19925246
164	0x3e9abb6b	0.30221114
165	0xbe193793	-0.14962606
166	0xbeae8d2a	-0.34092075
167	0x3e5d107b	0.21588318
168	0x3d4aa8d1	0.049477402
169	0x3dd6b78c	0.104842275
170	0xbdee4a18	-0.11635226
171	0xbe45316e	-0.19257137
172	0x3e0b6a5d	0.13614793
173	0xbe96493a	-0.29352742
174	0xbec97d93	-0.39353618
175	0x3d9ed341	0.07755137
176	0xbe3ab69f	-0.18233727
177	0xbebe3e77	-0.37157032
178	0x3d9bddba	0.0761065
179	0x3ecb6423	0.39724836
180	0x3dacfb4f	0.08446371
181	0xbd2a18b5	-0.04152747
182	0xbe7de842	-0.2479563
183	0x3e93ed2b	0.28891882
184	0xbea3d9f7	-0.3200223
185	0x3eb87c5b	0.36032376
186	0xbd8cd1de	-0.068759665
187	0xbdfd45b6	-0.12366812
188	0x3e96f8ba	0.29486638
189	0x3e91ed9a	0.28501588
190	0xbdf38715	-0.11890999
191	0xbd0ca5ea	-0.034337915
192	0x3ec53971	0.38520387
193	0xbe846674	-0.25859416
194	0x3eadb66c	0.3392824
195	0xbda6d0ca	-0.08145292
196	0xbd90420d	-0.07043848
197	0x3ea26e20	0.31724644
198	0x3e6f2d46	0.23357114
199	0x3cb4f2fe	0.022088524
200	0xbeb3de18	-0.35130382
201	0xbe00e44f	-0.12587093
202	0xbd4b73cd	-0.049670983
203	0xbe2c3af3	-0.16819362
204	0x3edf06b1	0.43559793
205	0xbe9511c3	-0.29115114
206	0xbe01e3a6	-0.12684497
207	0x3e3d54ae	0.18489334
208	0xbea70bae	-0.32626098
209	0x3d5ff183	0.054673683
210	0xbe46b3e1	-0.19404556
211	0x3e0cd54a	0.13753238
212	0xbd5458ac	-0.051842377
213	0xbe486ea6	-0.19573459
214	0x3ed2634a	0.41091377
215	0xbebcf535	-0.36905828
216	0x3d2bfdd0	0.0419901
217	0xbe3ed700	-0.18636703
218	0x3e1200d3	0.14258127
219	0x3ea7db46	0.3278448
220	0xbde18a2f	-0.110126846
221	0x3dc0c5c9	0.094127245
222	0x3e03ae56	0.12859473
223	0xbd52f8c1	-0.05150676
224	0x3cff6424	0.03117568
225	0x3e4605ea	0.19338194
226	0x3ea8e32d	0.3298582
227	0x3d431b22	0.047633298
228	0xbec39d42	-0.38205916
229	0xbe96793a	-0.29389364
230	0x3e588a01	0.21146394
231	0x3e86dcf5	0.26340452
232	0x3eba6d8b	0.364117
233	0xbea1839e	-0.31545728
234	0x3e891398	0.2677276
235	0xbe4adb86	-0.19810304
236	0xbea3a5ea	-0.3196252
237	0xbe361af4	-0.1778372
238	0x3cd89426	0.02643783
239	0x3e858238	0.26075912
240	0x3e2fa34d	0.17152138
241	0x3e05c198	0.13062131
242	0xbe83664f	-0.25663993
243	0x3e2185f3	0.15773754
244	0xbea5c209	-0.323746
245	0xbe4b14ce	-0.19832155
246	0x3eaaf9a9	0.333936
247	0xbeb6dc62	-0.35715014
248	0x3c18caae	0.009325666
249	0xbd35d94a	-0.044396676
250	0xbea56f6c	-0.3231157
251	0xbd908b11	-0.07057775
252	0xbeae01ed	-0.33985844
253	0xbe368092	-0.17822483
254	0xbe5953bb	-0.21223347
255	0x3e1e3ba0	0.15452433

input_projection.bias f4 [64]
0	0x3eb2c72d	0.34917584
1	0x3e843ea1	0.25829032
2	0xbe01a74c	-0.12661475
3	0xbeaceb2f	-0.3377318
4	0x3e136bd7	0.14396606
5	0x3d5bc031	0.053650085
6	0xbe77b7b5	-0.24191172
7	0xbea5eb8d	-0.32406273
8	0xbe17d6ae	-0.14827988
9	0x3dcd3586	0.100199744
10	0x3ec1387a	0.377384
11	0xbe9f2787	-0.31084844
12	0xbe668182	-0.22510341
13	0xbe12460d	-0.14284535
14	0xbea2e4e0	-0.31815243
15	0x3d43ada2	0.04777301
16	0x3e24b932	0.16086271
17	0xbe94d2aa	-0.29066974
18	0x3e5c21a8	0.21497214
19	0x3e201344	0.15632349
20	0xbda8cd58	-0.08242291
21	0x3daa0dd7	0.08303421
22	0x3b6b5a09	0.003591182
23	0x3c9d827c	0.019227259
24	0xbe142fe6	-0.14471397
25	0x3e08256a	0.13295522
26	0xbe9b26fd	-0.30303183
27	0x3df8eda9	0.12154705
28	0xbe1f5338	-0.15559089
29	0xbc36dd55	-0.011161168
30	0x3e2dbd31	0.16966702
31	0xbe012d7a	-0.12615004
32	0xbdf989e8	-0.12184507
33	0x3eb47f57	0.35253403
34	0x3d7db2b8	0.061938018
35	0x3d99f34a	0.07517107
36	0xbdff3b3f	-0.12462472
37	0xbeb7366d	-0.3578371
38	0x3e2f0ca8	0.17094672
39	0xbe09ef10	-0.13470101
40	0xbc662b4d	-0.01404841
41	0x3cb48c48	0.022039548
42	0x3e2d40ef	0.16919301
43	0x3ea2857c	0.31742465
44	0x3dbf3c7b	0.093377076
45	0xbe432df2	-0.19060495
46	0xbe65c8e1	-0.2243991
47	0x3d675a5b	0.056482654
48	0x3e96ab9e	0.2942781
49	0xbe182351	-0.14857222
50	0x3e8dc1ad	0.27686825
51	0x3e46ee34	0.19426805
52	0x3de55dba	0.111995175
53	0xbdaac262	-0.08337857
54	0x3e610c5c	0.21977371
55	0x3ea63b87	0.3246729
56	0xbe6bfbb0	-0.2304523
57	0xbe2dae2f	-0.16960977
58	0x3e83c547	0.25736448
59	0xbe049280	-0.1294651
60	0x3ea8c28d	0.3296093
61	0x3d385b49	0.04500893
62	0xbd9509ee	-0.072772846
63	0x3d8e25a9	0.06940777

transformer.layers.0.self_attn.in_proj_weight f4 [192, 64]
0	0xbc82e7e6	-0.015979718
1	0xbdc3fadd	-0.09569333
2	0xbe3331e5	-0.17499502
3	0xbd38afa1	-0.045089368
4	0x3e515616	0.20442995
5	0xbdb10cdd	-0.086450316
6	0xbe7791bd	-0.24176688
7	0x3d858d26	0.065210626
8	0x3d2e7e82	0.042601116
9	0x3e253a45	0.1613551
10	0xbd3dae89	-0.046309028
11	0xbba2957e	-0.0049616685
12	0x3e2dad4f	0.16960643
13	0x3dfd3bf1	0.123649485
14	0xbd1440c0	-0.036194563
15	0x3d9d4e14	0.07680908
16	0x3e192a63	0.14957576
17	0x3e3f0b15	0.18656571
18	0x3e575c17	0.21031223
19	0x3db9faa4	0.09081009
20	0xbe14d147	-0.14532958
21	0x3c78e002	0.015190126
22	0x3e158c42	0.14604285
23	0x3d89169d	0.06693766
24	0x3e4540ee	0.1926305
25	0x3e4b0030	0.1982429
26	0xbd459e49	-0.048246656
27	0xbc8b493b	-0.017002692
28	0xbe2bc47c	-0.16774172
29	0xbe179df8	-0.14806354
30	0x3e496dc6	0.19670781
31	0xbe199d87	-0.15001498
32	0x3dbe6c91	0.09298051
33	0x3d03b3ac	0.03215377
34	0xbe3649b8	-0.17801559
35	0xbd85a5f9	-0.065257974
36	0x3dfcda23	0.12346294
37	0xbcba7165	-0.022759149
38	0x3d4629af	0.048379596
39	0xbe15eb9c	-0.14640659
40	0x3c41666a	0.011804203
41	0xbe62481b	-0.22097819
42	0xbcd8de72	-0.026473258
43	0x3e3a9cec	0.18223923
44	0xbe55067e	-0.20803258
45	0x3d2aeef1	0.04173178
46	0xbd9776ff	-0.073957436
47	0x3ce3cecf	0.027808575
48	0x3d63c991	0.05561215
49	0xbd5ded17	-0.054181185
50	0x3c7ecd88	0.015551932
51	0xbce621c4	-0.028092273
52	0xbe37d79d	-0.17953344
53	0xbd850a9f	-0.064961664
54	0xbe3c8ed8	-0.18413866
55	0xbd56499e	-0.0523163
56	0x3d522f3b	0.051314574
57	0xbe3f3bdf	-0.18675183
58	0x3e04c5e9	0.12966122
59	0xbd96d46c	-0.07364735
60	0x3dcfc4b6	0.101449415
61	0x3ce9b7c1	0.028530004
62	0xbbdbf671	-0.0067127277
63	0x3e7c6aad	0.24650069
64	0x3d993cca	0.07482298
65	0xbdb8be9d	-0.090207316
66	0xbda64f26	-0.08120565
67	0xbcc290be	-0.02375066
68	0x3cd77b1b	0.026303818
69	0x3cb00214	0.021485366
70	0x3d7da412	0.061924048
71	0xbd0d1e07	-0.034452464
72	0x3db7f5b5	0.08982412
73	0xbe084d9b	-0.13310854
74	0xbe2c02af	-0.16797899
75	0xbd891a2c	-0.06694445
76	0xbdaa81d2	-0.083255425
77	0x3d098422	0.033573277
78	0x3e209cad	0.15684767
79	0x3e0a34fe	0.13496777
80	0xbe1036a1	-0.1408334
81	0xbd252500	-0.04031849
82	0xbe244c2e	-0.16044685
83	0xbc928c86	-0.017889272
84	0x3e4ebc25	0.20188959
85	0x3d9aac62	0.07552411
86	0xbe453084	-0.19256788
87	0x3d49ea76	0.049295865
88	0x3d517047	0.051132467
89	0x3d1b4722	0.037909634
90	0xbc3ee5c4	-0.01165146
91	0xbe541341	-0.2071047
92	0xbdc009f9	-0.09376902
93	0x3e344c49	0.17607225
94	0xbe268a66	-0.16263732
95	0x3e03ff52	0.12890366
96	0x3c0b2915	0.008493681
97	0x3db0a2d5	0.08624808
98	0x3d83063a	0.06397672
99	0x3d36c04a	0.044616975
100	0x3d90f91d	0.070787646
101	0xbdaba6f1	-0.08381451
102	0xbdfab93a	-0.122423604
103	0x3d4003e5	0.046878714
104	0x3e5fe7b3	0.2186573
105	0x3e174875	0.14773734
106	0x3e201c90	0.15635896
107	0xbdd8be21	-0.10583139
108	0x3e510be0	0.20414686
109	0xbce963e6	-0.028490018
110	0x3c72def5	0.014823665
111	0x3d9a6cb8	0.07540268
112	0x3df68637	0.12037318
113	0xbdb65da9	-0.08904583
114	0x3d0f924a	0.03505162
115	0xbe376d26	-0.1791273
116	0x3d9f97c8	0.07792622
117	0xbe5685f1	-0.20949532
118	0x3e258779	0.1616496
119	0xbe07a3a0	-0.13246012
120	0x3e170b9f	0.14750527
121	0x3cf50a3f	0.029912112
122	0x3b9a4df3	0.0047089993
123	0x3ca71c4d	0.020399237
124	0x3d33d81e	0.043907277
125	0x3cf24815	0.029575387
126	0x3e3e176d	0.18563624
127	0xbe24032e	-0.16016838
128	0x3d09c408	0.033634216
129	0x3cfffe45	0.031249175
130	0x3c83fc88	0.016111627
131	0xbd2090bd	-0.039200533
132	0x3e5b584a	0.21420398
133	0x3e09599f	0.13413094
134	0xbdecd09b	-0.11563226
135	0xbe21168e	-0.1573126
136	0x3d35c940	0.04438138
137	0x3d7613ed	0.060077596
138	0x3e7836e9	0.24239697
139	0xbe44e196	-0.19226679
140	0x3db4ddbe	0.088313565
141	0xbdce7cee	-0.10082422
142	0xbe280a6d	-0.16410227
143	0xbe3d7e3c	-0.18505186
144	0x3e2ec38b	0.17066781
145	0x3d131169	0.035905275
146	0x3d9d6555	0.07685343
147	0x3d844b42	0.06459667
148	0x3dcca257	0.09991901
149	0x3c7dec5d	0.015498248
150	0x3df0760a	0.11741264
151	0x3ccc7a43	0.024960643
152	0x3cc6930a	0.024240036
153	0xbd029802	-0.031883247
154	0xbc9aaf6e	-0.01888248
155	0x3ced2416	0.028947871
156	0xbd0c6711	-0.03427798
157	0x3ccf0f81	0.025275948
158	0xbcd0b6c2	-0.02547777
159	0xbe345c6e	-0.17613384
160	0x3dc6cd48	0.09707123
161	0x3d3ae5df	0.04562938
162	0xbe2c58c2	-0.16830733
163	0xbdecadd6	-0.11556594
164	0xbd728b23	-0.059214722
165	0xbe4fb725	-0.20284708
166	0x3e2ff625	0.1718374
167	0xbe5c3a5e	-0.2150664
168	0x3d03c7e0	0.032173038
169	0xbe312693	-0.17299871
170	0xbd012f57	-0.031539287
171	0xbd838d4b	-0.06423434
172	0x3d822be5	0.063560285
173	0x3e6b804c	0.2299816
174	0x3d7dfa15	0.062006075
175	0xbd25505f	-0.04035985
176	0xbde6a000	-0.11260986
177	0x3db83d49	0.08996064
178	0x3e0bd544	0.13655573
179	0x3e53cc73	0.2068346
180	0xbe1332c9	-0.14374842
181	0x3da465a8	0.08027202
182	0x3d426974	0.04746385
183	0x3df24cb3	0.118310355
184	0xbe60daf9	-0.21958531
185	0x3d1894e0	0.037251353
186	0x3e23da48	0.16001236
187	0x3e1ea714	0.15493423
188	0x3d694390	0.0569492
189	0x3dacbbc3	0.0843425
190	0x3b865c60	0.0041003674
191	0x3e089daf	0.13341402
192	0xbd87e71c	-0.066358775
193	0xbe112b60	-0.14176702
194	0x3d2776aa	0.04088465
195	0xbe4c25d9	-0.19936313
196	0x3da4b9ba	0.08043237
197	0x3c6c7a26	0.014433419
198	0xbe59522b	-0.21222751
199	0xbe41eafb	-0.18937294
200	0xbe4b9243	-0.19880013
201	0x3daa6503	0.08320048
202	0x3ded2a2e	0.11580311
203	0x3d7ba327	0.06143489
204	0x3c7159f9	0.014730924
205	0x3dcad468	0.099037945
206	0xbe4af39b	-0.1981949
207	0xbd3b111a	-0.045670606
208	0x3e4e4e91	0.20147158
209	0xbdca7440	-0.09885454
210	0x3d62986c	0.055321142
211	0xbe188091	-0.14892794
212	0xbc572fbc	-0.013133939
213	0xbe500301	-0.20313646
214	0xbd97c4aa	-0.074105576
215	0x3e8d4315	0.27590242
216	0x3dea9425	0.114540376
217	0x3da65e06	0.08123402
218	0x3df3504d	0.118805505
219	0x3e245960	0.16049719
220	0xbda5f106	-0.08102612
221	0xbd956e87	-0.07296472
222	0x3e140748	0.14455903
223	0xbe10f59b	-0.14156191
224	0xbdc400bd	-0.09570453
225	0x3d836d60	0.06417346
226	0xbbc77677	-0.00608712
227	0xbd9cf9c2	-0.07664825
228	0xbdb4521d	-0.08804724
229	0xbdb140e8	-0.08654958
230	0x3dfe1dbb	0.124080144
231	0xbdc95667	-0.09830933
232	0xbe5eda51	-0.21762969
233	0xbdbaf478	-0.0912866
234	0xbdc51d4d	-0.09624729
235	0x3e19d75c	0.1502356
236	0xbe2efa23	-0.17087607
237	0x3dd68192	0.10473932
238	0xbdd4cf2c	-0.103910774
239	0x3e0724f3	0.13197689
240	0x3d9d191e	0.07670806
241	0xbcbfa6d5	-0.023394981
242	0x3e4815d5	0.19539578
243	0xbbd8d71b	-0.0066174394
244	0xbd91f3fd	-0.07126615
245	0x3d8e2996	0.06941526
246	0x3d62e4ce	0.055393986
247	0xbcba51e8	-0.022744134
248	0xbce297d9	-0.027660297
249	0x3d7e9d40	0.062161684
250	0x3d140caa	0.03614489
251	0x3dca2bfc	0.098716706
252	0x3dbd89fa	0.092548326
253	0x3e122284	0.14270979
254	0xbe6bfad1	-0.23044898
255	0xbcc916bd	-0.024546975

transformer.layers.0.self_attn.in_proj_bias f4 [192]
0	0x3d9b2591	0.075755246
1	0xbd82562b	-0.063640915
2	0x3d818c4c	0.06325588
3	0x3d995ac3	0.074880145
4	0x3cbb0a26	0.022831988
5	0xbd9b5f31	-0.07586516
6	0xbd95173e	-0.07279824
7	0xbd8bb865	-0.0682228
8	0xbd770230	-0.06030482
9	0xbd879800	-0.066207886
10	0xbd9cb458	-0.07651585
11	0xbdb28a18	-0.087177455
12	0x3dbabac8	0.09117657
13	0x3d96fa75	0.0737199
14	0x3d8dfea3	0.06933334
15	0xbdb8ae24	-0.0901759
16	0x3d8e81cd	0.06958351
17	0xbda5b1c6	-0.08090548
18	0x3d6ff4d7	0.058583107
19	0xbe124257	-0.14283119
20	0x3df3f904	0.1191273
21	0x3da827ca	0.08210714
22	0x3d6b6f88	0.05747941
23	0x3df85e9d	0.12127421
24	0xbdb08e4e	-0.086208925
25	0x3d896dd6	0.06710403
26	0xbdccefa9	-0.10006649
27	0x3da2e773	0.07954302
28	0x3d8bd56b	0.068278156
29	0xbd6c97ea	-0.057762064
30	0xbdd66d95	-0.1047012
31	0x3db7bc9b	0.089715205
32	0x3dbb240a	0.09137733
33	0x3de7c3c4	0.11316636
34	0xbe039eb0	-0.12853503
35	0x3dc7c7b1	0.09754885
36	0x3d9eb3cb	0.077491365
37	0x3db304b0	0.087411284
38	0x3d931985	0.07182602
39	0xbd4c6546	-0.04990127
40	0xbd885a61	-0.066578634
41	0xbdb67b2c	-0.08910212
42	0xbdba49d8	-0.09096116
43	0xbda33b6e	-0.0797032
44	0x3dc19023	0.0945132
45	0x3d95361c	0.07285711
46	0xbd8a9cf5	-0.067682184
47	0x3da6223b	0.08111998
48	0xbd06f7aa	-0.032951035
49	0xbd125b16	-0.035731398
50	0x3da378cc	0.079820246
51	0x3d9d0c41	0.07668353
52	0xbdc92dd3	-0.098231934
53	0xbd9c5f69	-0.076353855
54	0x3d8cc9b9	0.06874413
55	0xbdd8e20a	-0.105899885
56	0x3df69ea1	0.12041975
57	0xbd8e1831	-0.06938208
58	0xbd197119	-0.037461374
59	0xbdd6a931	-0.104814894
60	0xbda125f5	-0.07868568
61	0x3de09108	0.109651625
62	0xbdc86c11	-0.09786237
63	0x3d9484e3	0.07251909
64	0x3acb66e9	0.001551834
65	0xbae303c5	-0.0017319849
66	0x3ab1c472	0.0013562574
67	0x3b4e7248	0.0031501222
68	0x3aff5054	0.0019478896
69	0xbb2fefe7	-0.0026845874
70	0xbb204ef5	-0.0024461125
71	0xbb08d904	-0.0020881305
72	0xbaa2f414	-0.001243236
73	0xbadec049	-0.0016994561
74	0xbb2d557f	-0.0026448665
75	0xbb535817	-0.003224855
76	0x3ad24a08	0.0016043792
77	0x3b2b615a	0.0026150555
78	0x3b1662fa	0.0022947178
79	0xbb3d6e73	-0.0028904944
80	0xba8baf74	-0.0010657148
81	0x3b1b27ef	0.0023674925
82	0xba11c36c	-0.0005560431
83	0x3b248437	0.002510322
84	0xbb3afee2	-0.002853327
85	0xbab91f01	-0.001412362
86	0xbacbb50e	-0.0015541629
87	0xbb78ef13	-0.0037984296
88	0x3b35a15e	0.002771459
89	0xbb009ec5	-0.0019625884
90	0x3b277ace	0.0025555375
91	0xba8cb642	-0.0010735469
92	0xbafa369c	-0.0019089761
93	0x3ab85ddb	0.0014066057
94	0x3b5f920d	0.0034114153
95	0xbad8a3f9	-0.001652836
96	0xbb14a4e8	-0.00226813
97	0xbb212a64	-0.0024591917
98	0x3b4177a4	0.0029520774
99	0xbb49310e	-0.0030699405
100	0xbb17bbf5	-0.0023152803
101	0xbb0e688d	-0.0021729798
102	0xbae03e48	-0.0017108405
103	0x3ab0ebe5	0.0013498036
104	0x3b1d7d1e	0.0024030874
105	0x3b130312	0.002243225
106	0x3af4347c	0.0018631364
107	0x3b0a9569	0.0021146184
108	0xbb18a996	-0.002329444
109	0xbad54ea4	-0.0016274047
110	0x3afb8dcf	0.0019192043
111	0xbb0b0370	-0.0021211766
112	0x3aebff3a	0.0018005141
113	0x3aeb7d03	0.0017966334
114	0xbb5db658	-0.003383061
115	0xbb9c802e	-0.0047760224
116	0x3ba19fdc	0.004932387
117	0x3b16323d	0.0022918128
118	0xbbaf4233	-0.0053484677
119	0x3ba028fb	0.0048876978
120	0xbb5bc39c	-0.003353334
121	0x3b1a620d	0.0023556978
122	0x3a74984c	0.00093305553
123	0x3b9271b7	0.0044691223
124	0x3ad9daa6	0.0016620948
125	0xbba28021	-0.004959122
126	0x3bbecf58	0.005823057
127	0xbb402799	-0.0029320477
128	0xbc960c03	-0.018316275
129	0x3c166a44	0.009180609
130	0xbbeab593	-0.0071627586
131	0x3c4478eb	0.01199172
132	0x3a3a154e	0.00070985116
133	0xbb11a64c	-0.0022224365
134	0x3c33853c	0.0109570585
135	0xbbee2239	-0.0072672633
136	0xbaf6b250	-0.0018821452
137	0xbc329dcd	-0.01090188
138	0xbb442946	-0.0029931827
139	0xbb9341bc	-0.00449392
140	0xbbad48be	-0.0052882126
141	0x3b01b1fe	0.001978993
142	0xbc398533	-0.011323261
143	0x3ba1bbbb	0.0049357093
144	0xbaa9c8bc	-0.00129535
145	0xbc471117	-0.012150071
146	0xbc154ff6	-0.009113302
147	0x3bdf1825	0.006808298
148	0x3c1fe0b5	0.009758164
149	0xbc212298	-0.009834908
150	0xbbe31f47	-0.006931219
151	0xbb6c7ef7	-0.003608642
152	0x3b9b4175	0.0047380277
153	0x3c30ebb6	0.010798385
154	0x3bf1e052	0.0073814774
155	0xbb84db87	-0.00405449
156	0x3c4b51ae	0.012409611
157	0xbb2ea35e	-0.0026647667
158	0xbbf936db	-0.0076054162
159	0x3b12c357	0.0022394264
160	0xbc718c02	-0.014742853
161	0xbc45e473	-0.012078392
162	0xbb9e85d2	-0.00483773
163	0xb9c84c5a	-0.0003820386
164	0xbb9225e6	-0.0044600843
165	0x3a9b4b10	0.0011847932
166	0xbc81ee61	-0.015860738
167	0x3c94e290	0.01817444
168	0xbc137bf6	-0.009001723
169	0x3c705216	0.014668008
170	0xbbf1dbcb	-0.0073809377
171	0x3c8ed52e	0.017435636
172	0x3cb92049	0.022598403
173	0xbc6ef8dc	-0.0145857
174	0xbb1f1b84	-0.0024277875
175	0xbb00df3e	-0.0019664313
176	0x3c90df58	0.017684624
177	0x3bef629d	0.007305457
178	0x3c8ee407	0.017442716
179	0xbc9618b4	-0.018322326
180	0xbbe5bdbf	-0.007011145
181	0x3a9e4d0a	0.0012077403
182	0xbc311349	-0.010807821
183	0xbb9e83fa	-0.00483751
184	0xbc966cf2	-0.018362496
185	0x3b4a1ed6	0.0030841134
186	0x3b668c8e	0.0035178992
187	0xbb94f953	-0.0045463233
188	0x3c96a80e	0.018390682
189	0xbb45ac52	-0.0030162525
190	0x3c66840d	0.014069569
191	0x3ca8ea93	0.020619666

transformer.layers.0.self_attn.out_proj.weight f4 [64, 64]
0	0xbd61d2bc	-0.055132613
1	0x3d9b530f	0.075842015
2	0xbd504482	-0.050846584
3	0x3d9802f3	0.074224375
4	0x3d24873f	0.040168043
5	0xbe14411b	-0.14477961
6	0x3d1b4adf	0.0379132
7	0x3c8d989e	0.017284688
8	0xbda53e5b	-0.08068534
9	0x3dbcd1b4	0.09219685
10	0xbd91a8a2	-0.07112242
11	0x3df18f28	0.11794883
12	0xbd898669	-0.0671509
13	0x3d94cfe5	0.07266215
14	0x3d9e51f6	0.077304766
15	0x3db239a4	0.087024
16	0x3d46f444	0.048572794
17	0xbd1276a7	-0.035757687
18	0x3e012906	0.12613305
19	0xbd80723e	-0.0627179
20	0x3e0bae9f	0.13640831
21	0xbd8a5858	-0.067551315
22	0x3e0f4aeb	0.13993423
23	0x3d5e3cf3	0.054257344
24	0xbd53d8c8	-0.05172041
25	0xbd5698f9	-0.05239198
26	0x3d97c1e5	0.07410029
27	0x3dd71c37	0.105034284
28	0x3d0dad68	0.0345892
29	0xbd89783d	-0.06712387
30	0x3ceb0f16	0.028693717
31	0x3de72122	0.112856165
32	0xbde72b92	-0.11287607
33	0xbd80061f	-0.062511675
34	0xbc5cdc2f	-0.01348023
35	0xbcb9af42	-0.022666577
36	0xbd79be70	-0.06097263
37	0x3d0f7ba5	0.035030026
38	0xbdb90df3	-0.09035864
39	0x3dacdd40	0.084406376
40	0xbdb9254c	-0.09040317
41	0x3c32e1bc	0.010918077
42	0xbe019365	-0.12653883
43	0xbd6ef7db	-0.058341842
44	0xbd1cf9dc	-0.038324222
45	0xbdc51d2b	-0.09624704
46	0xbd8d2443	-0.06891682
47	0xbc23757c	-0.009976741
48	0x3d13b58e	0.036061816
49	0x3daf185e	0.085495695
50	0x3deeb86d	0.1165627
51	0xbdd865cb	-0.105662905
52	0xbd8a9070	-0.067658305
53	0x3dbf498b	0.09340199
54	0xbd36d7cd	-0.044639397
55	0x3c8c7ade	0.017148431
56	0xbd188c12	-0.037242956
57	0x3ce94c0d	0.028478647
58	0xbd0a3d61	-0.03374994
59	0x3d91b3d7	0.0711438
60	0x3dcf6285	0.10126213
61	0xbe1605ad	-0.14650603
62	0x3d796dc3	0.060895693
63	0x3b739188	0.00371656
64	0x3d92eb46	0.07173781
65	0xbdcd700a	-0.100311354
66	0x3dcae9e6	0.09907894
67	0xbd6496c1	-0.055807833
68	0x3bdfd7ff	0.0068311687
69	0xbd8a407e	-0.06750582
70	0x3d416877	0.047218766
71	0xbdc3ded3	-0.09563985
72	0x3dd74f7a	0.10513206
73	0x3dc91b68	0.098196805
74	0xbc85fd97	-0.016356273
75	0xbddfd49b	-0.10929223
76	0x3de95e49	0.113949366
77	0xbd5df81e	-0.0541917
78	0x3dc4cfc4	0.09609941
79	0x3cb1e477	0.021715386
80	0x3db5c6fb	0.08875843
81	0x3c5e9ce7	0.013587213
82	0x3dd40621	0.103527315
83	0x3dcb9895	0.09941212
84	0x3dc37649	0.095440455
85	0x3cb10c22	0.02161223
86	0x3d888811	0.066665776
87	0xbd740a37	-0.059580054
88	0x3d22d224	0.039751187
89	0x3c776d61	0.015101762
90	0x3d39ebd0	0.045390904
91	0xbd18f830	-0.037346065
92	0xbd485b49	-0.04891518
93	0x3da0dfd5	0.078551926
94	0x3d5c4b84	0.053782955
95	0xbd5a4880	-0.053291798
96	0xbcf04c95	-0.029333392
97	0xbc9703ce	-0.018434431
98	0x3dd70813	0.10499587
99	0x3d1eb293	0.03874452
100	0xbdda985d	-0.10673592
101	0xbc1d8bde	-0.0096158665
102	0x3dde1ef1	0.10845745
103	0xbe01f362	-0.126905
104	0xbd23c9aa	-0.039987244
105	0x3d4b6fcb	0.04966716
106	0xbdadf848	-0.084946215
107	0xbbfb72bb	-0.007673589
108	0x3cd1f34f	0.025628714
109	0x3d30ce1f	0.043165322
110	0xbc36fb26	-0.011168277
111	0xbdb4d65f	-0.088299505
112	0x3d8c1153	0.06839242
113	0xbd705673	-0.058676194
114	0xbd7b850d	-0.061406184
115	0xbdb887f8	-0.09010309
116	0x3ddbd422	0.107338205
117	0xbdb004c3	-0.08594658
118	0x3c2e16ac	0.010625523
119	0x3db9532f	0.09049069
120	0xbd91ead2	-0.071248665
121	0xbd254c12	-0.04035575
122	0xbc348563	-0.01101813
123	0x3d9cc723	0.0765517
124	0x3c541070	0.012943372
125	0x3da65e8d	0.08123503
126	0x3cfbcdf7	0.03073786
127	0x3dac8e44	0.084255725
128	0x3ba5de62	0.0050619105
129	0xbd78a0b1	-0.060700122
130	0xbcca3163	-0.024681753
131	0x3d69c88f	0.057076033
132	0xbdebf3e6	-0.11521129
133	0x3d6c4d7a	0.057691075
134	0x3d3050f7	0.043045964
135	0x3dc028e6	0.09382801
136	0xbd09ef07	-0.03367522
137	0xbdc50fdb	-0.09622165
138	0x3ddaa678	0.10676283
139	0xbd0b7ffe	-0.03405761
140	0xbcbf7894	-0.023372926
141	0x3dc1d172	0.09463777
142	0x3d7e921c	0.06215106
143	0xbd9dc49f	-0.07703518
144	0xbc7bd72c	-0.015371125
145	0xbda3bb9a	-0.079947665
146	0x3dc07520	0.0939734
147	0x3dd1f87b	0.10252472
148	0x3d9d8b30	0.076925635
149	0xbd263da6	-0.040586136
150	0xbd8a7dc8	-0.06762272
151	0xbd99159c	-0.07474825
152	0x3d37aeb3	0.04484434
153	0x3b8ed4fb	0.0043588853
154	0x3d9e0d5e	0.07717393
155	0x3db480a0	0.08813596
156	0xbddebaa7	-0.10875445
157	0xbd8df6ff	-0.069318764
158	0xbcfa4d26	-0.030554365
159	0xbe3be3ac	-0.18348569
160	0x3de77db4	0.11303273
161	0xbcdc8cf5	-0.026922682
162	0xbcf8113e	-0.03028166
163	0xbc77bf6b	-0.015121321
164	0xbdf00d90	-0.11721337
165	0xbc87622c	-0.016526304
166	0x3d9fb5ce	0.07798348
167	0x3df5bdef	0.119991176
168	0xbde54de3	-0.11196496
169	0x3d83a50a	0.06427963
170	0x3de84706	0.11341672
171	0x3d1cf1a8	0.0383164
172	0x3b91d83a	0.004450825
173	0x3cf45979	0.02982782
174	0x3d1f7b9a	0.038936235
175	0xbdc37cec	-0.09545311
176	0xbd6a9f93	-0.057281088
177	0x3d78a095	0.060700018
178	0xbce336ec	-0.02773615
179	0x3da92d52	0.08260597
180	0xbdf673b4	-0.12033787
181	0xbda0c2f2	-0.07849683
182	0xbd80085d	-0.06251595
183	0xbdbeeb13	-0.093221806
184	0x3dcd2ba0	0.100180864
185	0x3d71071a	0.058844663
186	0xbd61fc74	-0.0551724
187	0x3d839d6b	0.064265095
188	0xbd98d158	-0.07461804
189	0xbd70e1ae	-0.058808975
190	0x3c76cbcc	0.015063237
191	0xbde932ea	-0.11386664
192	0x3dbdb196	0.092623875
193	0x3d4ea855	0.050453503
194	0x3c90d216	0.017678302
195	0x38108248	3.445361e-05
196	0xba5292aa	-0.0008032719
197	0xbcb28da9	-0.021796064
198	0xbda29eb9	-0.0794043
199	0x3dd30144	0.10302976
200	0xbc6694e4	-0.014073584
201	0xbdcd6a97	-0.10030096
202	0x3dac0f88	0.084014
203	0x3dbc6b71	0.0920018
204	0xbc8fb2d3	-0.017541325
205	0x3d4cce18	0.050001234
206	0xbd561379	-0.052264664
207	0xbd971627	-0.07377272
208	0x3debe00d	0.11517344
209	0xbca5fdd5	-0.020262638
210	0x3d5e8e8f	0.054335173
211	0xbd9157f0	-0.07096851
212	0x3de55ec3	0.11199715
213	0xbd64ba19	-0.05584154
214	0xbc8f0f22	-0.01746327
215	0xbd8bbe5d	-0.06823418
216	0xbd1710ca	-0.036881246
217	0xbbc6fb32	-0.0060724253
218	0xbb83ca4f	-0.00402192
219	0xbd56517b	-0.0523238
220	0xbcb363ae	-0.021898117
221	0xbdd356c4	-0.103192836
222	0xbd9212a5	-0.071324624
223	0xbdeb41c9	-0.11487157
224	0xbddb3776	-0.10703938
225	0x3db62936	0.08894579
226	0x3dd1d4a7	0.10245638
227	0xbbca274a	-0.0061692344
228	0x3c8c25a4	0.017107792
229	0xbc4bf88d	-0.012449396
230	0x3c1dc331	0.009629057
231	0x3d8a6df7	0.067592554
232	0x3d8aba27	0.06773787
233	0xbd0bcba7	-0.034129765
234	0x3da08532	0.07837905
235	0xbca4216d	-0.02003547
236	0x3d62cd3c	0.055371508
237	0xbdbc30ed	-0.09189019
238	0xbd781fe5	-0.060577292
239	0x3da616f8	0.0810985
240	0xbde52240	-0.11188173
241	0x3c50d315	0.012745638
242	0xbdaa433b	-0.083136044
243	0xbd4d82e0	-0.05017364
244	0x3dc7d069	0.09756548
245	0x3dbf7496	0.09348409
246	0x3d547377	0.05186793
247	0x3d8a88e3	0.0676439
248	0xbcbd1c05	-0.02308465
249	0xbdea9092	-0.11453356
250	0xbb82d3a2	-0.0039925138
251	0xbdc26007	-0.09490972
252	0x3d4cd613	0.050008845
253	0xbcb04569	-0.021517472
254	0x3de8596a	0.113451794
255	0x3ce8e149	0.028427737

transformer.layers.0.self_attn.out_proj.bias f4 [64]
0	0xbbc096e9	-0.005877365
1	0x3b832c04	0.00400305
2	0xbbe70e4d	-0.0070512653
3	0xbba68a60	-0.0050824136
4	0xbbcd4c92	-0.0062652314
5	0xbc812c45	-0.01576818
6	0x3bbaac4b	0.0056968085
7	0x3d00cc4c	0.031444833
8	0x3c8a0184	0.016846426
9	0xbb78ab11	-0.003794376
10	0x3b580667	0.00329628
11	0xbba01fdd	-0.004886611
12	0xbb229fed	-0.0024814561
13	0xbbc20f96	-0.005922268
14	0xbbbf0359	-0.0058292565
15	0x3d080ba6	0.033214234
16	0xbb39abcb	-0.0028331156
17	0x3a7d4442	0.0009661355
18	0xbc528ab3	-0.012850451
19	0x3b3569b5	0.0027681415
20	0xbca66860	-0.020313442
21	0x3bd2bd50	0.006431259
22	0xbc7d0e45	-0.015445297
23	0x3bca58ec	0.006175151
24	0xbbbee996	-0.0058261855
25	0x3b8716d0	0.0041225925
26	0xbc1b0a21	-0.009462864
27	0xba21008f	-0.0006141746
28	0x3cfe0320	0.03100735
29	0x3c92e2e3	0.017930454
30	0xbbdcd89a	-0.006739688
31	0xbbac1c3c	-0.0052523892
32	0xbbb0dbe2	-0.005397306
33	0xbb43e5d7	-0.0029891634
34	0xbc65ff22	-0.014037879
35	0x3b969e17	0.0045964825
36	0xbc446ff6	-0.011989584
37	0xbc041396	-0.00806131
38	0xbb06dcf6	-0.002057848
39	0x3d061980	0.032739162
40	0x3cb353fa	0.02189063
41	0x3c20f5a4	0.00982419
42	0x3d241700	0.040060997
43	0xbcd6556f	-0.026163785
44	0x3d01138f	0.031512793
45	0xbb709262	-0.0036708345
46	0xbc02c4d5	-0.007981499
47	0xbcda3564	-0.026636787
48	0x3bfbeec7	0.0076883766
49	0xbb8046bb	-0.0039146817
50	0xbb595397	-0.0033161396
51	0xbb82b317	-0.0039886343
52	0x3cd157dd	0.025554592
53	0xbcf26782	-0.029590372
54	0xbb3dc403	-0.0028955943
55	0xb9f20147	-0.0004615879
56	0x3c4613aa	0.012089649
57	0x3c2a647b	0.010399933
58	0xbcdc9f3f	-0.026931403
59	0x3b967f5a	0.004592818
60	0x3c026764	0.007959221
61	0xbcbe18f4	-0.023205258
62	0xbbf37e90	-0.007430859
63	0x3801730e	3.086315e-05

transformer.layers.0.linear1.weight f4 [128, 64]
0	0xbd41e292	-0.047335215
1	0x3dc09f0e	0.09405337
2	0x3e55f4bc	0.2089414
3	0x3d99f89c	0.075181216
4	0x3e176d4a	0.14787784
5	0xbd529415	-0.051410753
6	0x3c8fbae5	0.017545173
7	0x3dee7471	0.11643303
8	0x3d08384f	0.033256825
9	0xbd29faf7	-0.041499104
10	0x3c27f23a	0.010250622
11	0x3b213128	0.002459595
12	0x3c9a156c	0.018809043
13	0xbd9f3130	-0.07773054
14	0x3e15b55c	0.14619964
15	0xbc427fd4	-0.011871297
16	0xbc7d804d	-0.015472484
17	0x3e31c733	0.17361145
18	0xbdf6c62d	-0.12049518
19	0xbdc56ad0	-0.096395135
20	0x3d77fcdf	0.06054389
21	0xbdc12dc6	-0.09432559
22	0x3ddab76d	0.10679517
23	0x3de3527c	0.11099717
24	0xbd96cea0	-0.07363629
25	0xbdb10c84	-0.08644965
26	0x3c815731	0.015788646
27	0xbd746eae	-0.059675865
28	0xbdc37ea1	-0.09545637
29	0xbe0b3cfe	-0.13597485
30	0xbe0c8ea7	-0.13726293
31	0xbdcef02b	-0.10104402
32	0x3c49f565	0.012326573
33	0xbcdc57ff	-0.026897429
34	0x3c9c5be1	0.01908678
35	0x3d987ead	0.074460365
36	0xbbf4be11	-0.0074689467
37	0x3d747690	0.059683383
38	0x3d78526e	0.060625486
39	0x3c9c9381	0.019113304
40	0xbb3458e6	-0.0027518808
41	0x3c5e07bf	0.0135516515
42	0x3d5cf1ae	0.05394142
43	0x3d57a88d	0.052650977
44	0xbd8bc260	-0.068241835
45	0x3d9e47c4	0.07728532
46	0xbdb73d2b	-0.08947214
47	0x3cae6a14	0.021290816
48	0xbcc32165	-0.023819635
49	0xbd8fae60	-0.07015681
50	0xbd043309	-0.032275233
51	0x3d56007c	0.052246556
52	0xbd32ce92	-0.043654032
53	0x3e0328ba	0.12808505
54	0xbda37196	-0.07980649
55	0xbd0c218d	-0.034211684
56	0x3db1364b	0.08652934
57	0xbde39c20	-0.11113763
58	0x3d1a2257	0.037630405
59	0x3e06c740	0.13161945
60	0xbde0367f	-0.10947894
61	0xbdbe1a07	-0.09282308
62	0x3d8e9c1b	0.069633685
63	0x3c1be92b	0.009516041
64	0xbdc14240	-0.09436464
65	0xbd9105bf	-0.07081174
66	0x3d507f03	0.050902378
67	0xbd8e9306	-0.06961636
68	0x3d9a75a1	0.07541967
69	0x3d875a1e	0.06608985
70	0x3b3d71d6	0.0028906963
71	0x3e01f85b	0.12692396
72	0xbc5aafea	-0.013347605
73	0x3d91748f	0.0710231
74	0x3c0396da	0.008031571
75	0x3d67da7f	0.05660486
76	0xbe150cc8	-0.14555657
77	0x3d85b6eb	0.065290295
78	0xbdd2e44b	-0.1029745
79	0xbcf5a72c	-0.02998694
80	0x3d6f520d	0.05842786
81	0xbdee14c7	-0.11625057
82	0xbdde2a7b	-0.10847946
83	0x3d034439	0.032047484
84	0xbd164969	-0.036691103
85	0xbdb7a023	-0.089660905
86	0x3d1dd71f	0.038535234
87	0xbc9b7439	-0.018976318
88	0xbc9ecc59	-0.01938455
89	0xbd2834c1	-0.041065935
90	0xbdb64f5c	-0.08901855
91	0xbdefa899	-0.11702079
92	0x3dd18630	0.10230672
93	0xbd6b302f	-0.057419
94	0x3c54aa76	0.012980094
95	0x3d8941c7	0.06701999
96	0x3c6d566c	0.014485937
97	0xbde7723d	-0.11301086
98	0xbd557a37	-0.052118506
99	0x3d63ad5e	0.055585258
100	0xbda5f36a	-0.08103068
101	0x3dda0365	0.10645179
102	0x3d6285a2	0.055303223
103	0x3dc95697	0.09830969
104	0x3d05434a	0.032534875
105	0x3caa7d80	0.020811796
106	0x3e07ae8f	0.13250183
107	0x3da28ecf	0.07937395
108	0x3d323530	0.043507755
109	0xbd32b1c8	-0.043626577
110	0xbdcc705f	-0.099823706
111	0x3d16f685	0.036856193
112	0xbd7de225	-0.061983246
113	0x3c99ea65	0.018788526
114	0xbccec7a3	-0.025241679
115	0x3d3f7626	0.046743535
116	0xbd4b9967	-0.049706843
117	0x3d8458ad	0.06462226
118	0x3e0e200a	0.1387941
119	0xbb106b02	-0.0022036438
120	0xbd520770	-0.051276624
121	0x3db4bf81	0.08825589
122	0xbcb1c9d9	-0.021702694
123	0x3dca7606	0.098857924
124	0xbcf12b89	-0.029439704
125	0xbd0b7e75	-0.034056146
126	0x3db04566	0.08606987
127	0x3d3741a9	0.044740353
128	0x3c1bba5b	0.00950488
129	0x3ca2039f	0.019777117
130	0x3e0652d0	0.13117528
131	0x3bc662de	0.0060542664
132	0xbd4586bb	-0.048224192
133	0x3db440ea	0.08801444
134	0x3e1d16c2	0.15340713
135	0xbd0da4fe	-0.034581177
136	0xbd9d8e22	-0.07693125
137	0x3d8d3c5b	0.068962775
138	0xbc5f96c5	-0.013646786
139	0xbe0a9b22	-0.13535741
140	0xbda26a12	-0.079303876
141	0xbc177da1	-0.009246261
142	0xbdb1cdc8	-0.08681828
143	0xbc14d019	-0.0090828175
144	0xbdc6678b	-0.09687718
145	0x3dad324d	0.0845686
146	0xbc7041e4	-0.014664147
147	0xbd77e918	-0.06052503
148	0x3c577334	0.013150025
149	0xbb819113	-0.003954062
150	0x3dab24a2	0.083565965
151	0x3dc5e6c5	0.096631564
152	0xbc27e0cf	-0.01024647
153	0xbd838f4b	-0.06423815
154	0xbd559fc1	-0.052154306
155	0xbdae8dfb	-0.085231744
156	0xbdc1b442	-0.094582096
157	0x3dc937a3	0.09825065
158	0xbd739e99	-0.059477422
159	0xbd39629a	-0.04526005
160	0xbd134326	-0.03595271
161	0xbcbaf617	-0.022822423
162	0xbcc5edbc	-0.024161212
163	0x3c9bb396	0.019006532
164	0xbd04a13e	-0.032380335
165	0xbe0e2c2c	-0.13884038
166	0x3c7f840d	0.015595448
167	0x3ddca39e	0.10773395
168	0x3da956e7	0.082685284
169	0xbdce3770	-0.100691676
170	0x3dd82cf6	0.105554506
171	0xbdb0c753	-0.08631768
172	0xbce91541	-0.028452517
173	0xbb07bae3	-0.0020710758
174	0x3df962f1	0.12177075
175	0xbe0f0a46	-0.13968763
176	0x3be3c8c2	0.0069514224
177	0x3a048f3f	0.0005056746
178	0x3d97e40e	0.07416545
179	0x3e1b2c43	0.15153603
180	0x3c4789a9	0.012178817
181	0xbd550c72	-0.052013822
182	0x3d859999	0.06523437
183	0xbdc4e4fe	-0.09613989
184	0xbc95642e	-0.018236246
185	0xbd86c8e0	-0.065812826
186	0x3dc624dc	0.09674999
187	0x3e1e5781	0.15463068
188	0x3da0c195	0.07849423
189	0x3dde9bcc	0.1086956
190	0xbdb652bb	-0.08902498
191	0x3ce10036	0.02746592
192	0xbceecb99	-0.029149817
193	0x3d5466d3	0.051855873
194	0x3de07631	0.10960043
195	0x3db270a4	0.08712891
196	0xbce1c293	-0.0275586
197	0xbc651c49	-0.0139837945
198	0x3d9be467	0.07611924
199	0xbd4a270c	-0.049353644
200	0xbe06e491	-0.13173129
201	0x3d7dcb69	0.061961565
202	0x3dfaf306	0.12253384
203	0x3e048331	0.1294067
204	0xbde2bb96	-0.110709354
205	0x3dbd62ca	0.09247358
206	0xbdee1904	-0.11625865
207	0x3d4145ca	0.047185697
208	0xbdb11fc4	-0.08648637
209	0x3b4ce0ab	0.0031261842
210	0xbcbbc603	-0.022921568
211	0x3e1e6bc0	0.15470791
212	0xbc8f1922	-0.017468039
213	0xbd0c7b7c	-0.03429745
214	0xbd39955c	-0.045308456
215	0xbdb9b6c4	-0.09068063
216	0x3d0479e9	0.032342825
217	0xbd82d0f8	-0.06387514
218	0xbd743f4c	-0.059630677
219	0xbbe26c8b	-0.006909912
220	0xbcbc9095	-0.02301816
221	0x3df8e2ea	0.121526554
222	0xbca0c6c1	-0.019626023
223	0xbd02b576	-0.031911336
224	0xbdbb7b71	-0.09154404
225	0xbc04c32e	-0.008103175
226	0x3d76d68c	0.0602632
227	0xbb7e7f7a	-0.0038833306
228	0xbd739d21	-0.05947602
229	0xbd49a0d4	-0.049225643
230	0x3dc2f92b	0.09520181
231	0xbcb87f99	-0.02252178
232	0xbd8826cb	-0.06648024
233	0xbd81f5b1	-0.0634569
234	0xbd83f2f6	-0.064428255
235	0xbd32cdde	-0.04365336
236	0x3cd1b31b	0.0255981
237	0xbe4a57f6	-0.19760117
238	0xbc695b97	-0.014243028
239	0xbdd29f63	-0.10284307
240	0x3bf17c1e	0.0073695322
241	0xbcfbf304	-0.030755527
242	0xbcce4a7e	-0.025182005
243	0x3d9a0a16	0.07521455
244	0x3d1c6182	0.03817893
245	0xbd21ca03	-0.039499294
246	0x3c3131b7	0.010815076
247	0x3dfa9f3b	0.12237402
248	0xbc818f27	-0.01581533
249	0xbdf44af4	-0.11928359
250	0x3cd7ce3a	0.026343454
251	0xbdbdd6e6	-0.09269504
252	0xbdc9534e	-0.09830342
253	0xbddaeaa7	-0.10689288
254	0x3b379b9d	0.0028016337
255	0x3df8b696	0.121442005

transformer.layers.0.linear1.bias f4 [128]
0	0x3ddda7b3	0.10823002
1	0xbd46526b	-0.048418444
2	0x3daa7402	0.08322908
3	0x3cecd575	0.028910378
4	0xbd5b35dc	-0.05351816
5	0x3ce60173	0.028076863
6	0xbdabb771	-0.08384598
7	0xbdc26977	-0.09492772
8	0xbdb4f421	-0.088356264
9	0xbd01926d	-0.031633783
10	0x3dc55c35	0.09636728
11	0x3cf58171	0.029968949
12	0x3d492dc0	0.049115896
13	0xbd7340f1	-0.059388105
14	0xbd7b67d6	-0.061378323
15	0xbdd48d24	-0.10378483
16	0xbdb23cd5	-0.08703009
17	0x3dcdb73b	0.10044714
18	0x3c6b73aa	0.014370838
19	0xbcb08584	-0.02154804
20	0xbda903d0	-0.0825268
21	0xbc834f09	-0.016028898
22	0x3d823271	0.06357277
23	0x3d72df8c	0.059295222
24	0x3d145c9b	0.036221128
25	0x3d646c87	0.055767562
26	0x3c808dd2	0.015692625
27	0xbc2ac4c6	-0.010422891
28	0xbd2929f1	-0.041299764
29	0x3cda6d45	0.026663432
30	0xbc67831d	-0.014130381
31	0xbdb26455	-0.08710543
32	0xbda0e150	-0.07855475
33	0xbc3de519	-0.011590266
34	0x3dac85c6	0.08423953
35	0x3d27bc1b	0.040950876
36	0xbd8e1c37	-0.06938975
37	0x3db5457e	0.08851145
38	0xbbc3b1e6	-0.005972135
39	0xbdbbff7a	-0.09179588
40	0x3d85d2e7	0.06534367
41	0x3cf075ac	0.029352985
42	0x3b90eee1	0.004423008
43	0x3d9ea0ed	0.07745538
44	0x3bb37071	0.0054760505
45	0xbd871f3b	-0.065977536
46	0xbdb3dbfd	-0.08782194
47	0xbe01a320	-0.12659883
48	0x3dfd2f65	0.123625554
49	0xbc9a195e	-0.018810924
50	0x3c50cd5d	0.012744275
51	0xbde377da	-0.11106844
52	0xbde952b0	-0.113927245
53	0x3db4663a	0.08808561
54	0x3bc7b4d5	0.006094555
55	0xbdee9db2	-0.11651172
56	0x3d264ed4	0.04060252
57	0x3d22f327	0.03978267
58	0xbd7225a9	-0.059117947
59	0xbd91288c	-0.07087812
60	0x3d8da47c	0.069161385
61	0x3cdb2a9c	0.026753716
62	0xbd7efabb	-0.062250834
63	0xbda5d0a7	-0.08096438
64	0xbde69bde	-0.11260198
65	0xbd4d4bd2	-0.050121136
66	0xbcf37c43	-0.029722339
67	0xbd3b9c1f	-0.045803186
68	0x3d9bf32a	0.07614739
69	0x3dad727d	0.084691025
70	0x3d488e9b	0.048964124
71	0x3ccc5a8a	0.024945516
72	0xbdf3d6a9	-0.119061776
73	0x3d3a2171	0.04544205
74	0xbd75cf23	-0.060011994
75	0x3d962796	0.07331769
76	0xbdf55529	-0.11979134
77	0x3d8e4fa4	0.06948784
78	0x3e071925	0.13193186
79	0xbcf61203	-0.030037886
80	0xbcea225a	-0.028580833
81	0xbe08985a	-0.13339368
82	0x3d8e0d49	0.06936128
83	0xbcf37cf8	-0.029722676
84	0xbc25b4e0	-0.010113925
85	0x3de74ab9	0.11293549
86	0x3ce5fc2c	0.028074346
87	0xbdfaf9cf	-0.122546785
88	0x3d3d089c	0.04615079
89	0xbe08cc0f	-0.13359092
90	0xbc61591a	-0.013754154
91	0x3dd345d1	0.10316051
92	0xbd17e010	-0.037078917
93	0xbc2e1e79	-0.010627382
94	0x3d770b6f	0.06031364
95	0xbcc3b348	-0.023889199
96	0xbd651224	-0.055925503
97	0xbdb2e8b8	-0.08735794
98	0xbd7adb59	-0.061244342
99	0x3d026636	0.031835757
100	0xbd48734e	-0.048938088
101	0xbc0af42d	-0.008481068
102	0xbdab57c6	-0.08366351
103	0x3de64340	0.11243296
104	0xbdf930d7	-0.121675186
105	0xbd982b98	-0.0743019
106	0xbdb0d35a	-0.08634062
107	0x3d8ce38f	0.06879341
108	0x3d0340fe	0.032044403
109	0x3d21291e	0.039345853
110	0xbda933f2	-0.08261861
111	0x3da5ebee	0.08101641
112	0x3da8a79c	0.08235094
113	0xbbe75f4b	-0.0070609204
114	0xbcca79f2	-0.024716351
115	0x3cdb88ba	0.026798595
116	0x3de6d7a5	0.112716
117	0x3db7ffa5	0.08984307
118	0xbddce2e8	-0.107854664
119	0x3da6c081	0.08142186
120	0x3db7e4ba	0.08979173
121	0xbdc6b73f	-0.0970292
122	0xbd908dc6	-0.07058291
123	0x3daf4c40	0.085594654
124	0x3d35d4f9	0.04439256
125	0x3cd00cce	0.02539673
126	0xbcd7eb01	-0.026357176
127	0x3d93b658	0.07212514

transformer.layers.0.linear2.weight f4 [64, 128]
0	0xbdbd5c02	-0.09246065
1	0x3c33ccae	0.010974092
2	0xbd68b5a1	-0.05681384
3	0x3d634a8c	0.055491015
4	0x3da0f6a5	0.07859544
5	0xbb8cc830	-0.004296325
6	0x3df2764a	0.11838968
7	0x3d8e6b03	0.069540046
8	0x3deb8dff	0.11501693
9	0xbd0fb3ed	-0.0350837
10	0xbd8d221e	-0.06891273
11	0x3ad14abe	0.001596771
12	0x3d0ba0e2	0.034088977
13	0x3d10bc4f	0.035335835
14	0xbd94415a	-0.07239027
15	0x3db16d26	0.086633965
16	0x3df47a7d	0.11937425
17	0xbe1a83ea	-0.15089384
18	0x3d863ce6	0.06554584
19	0x3c7f8f5d	0.015598145
20	0x3cab40d7	0.020904941
21	0x3cdec3c3	0.027192956
22	0xbb2d4f2b	-0.0026444893
23	0xbd0da903	-0.03458501
24	0xbddaff8f	-0.10693275
25	0xbdb7b6bc	-0.08970401
26	0xbd888164	-0.06665304
27	0xbd2c0dcb	-0.04200534
28	0xbd787179	-0.06065509
29	0x3cbedc43	0.023298388
30	0x3d1370e7	0.035996344
31	0xbc8f145d	-0.017465765
32	0x3ab81263	0.0014043566
33	0x3d113549	0.035451207
34	0x3d11e066	0.035614394
35	0x3d9536f3	0.07285871
36	0x3d82e22a	0.063907936
37	0xbc5acc58	-0.013354383
38	0x3d8fab94	0.07015148
39	0xbde0f356	-0.10983913
40	0x3d8caea9	0.06869251
41	0x3db0e909	0.08638198
42	0xbda8dac4	-0.08244851
43	0xbd602d78	-0.054730862
44	0x3d0238e9	0.031792555
45	0xbd3831dc	-0.044969425
46	0x3d52327e	0.051317684
47	0xbde1d9c5	-0.11027864
48	0x3c0070a0	0.007839352
49	0x3d69ec2a	0.05710999
50	0x3d77b870	0.060478628
51	0x3bd0fb3f	0.006377607
52	0x3c19a2e1	0.009377212
53	0x3d820ead	0.063504554
54	0xbd4708b4	-0.048592284
55	0x3d43b274	0.047777608
56	0x3d90dd93	0.07073512
57	0x3d5e2d4d	0.05424242
58	0x3c694374	0.0142372735
59	0xbd7ac176	-0.061219655
60	0xbcb0d054	-0.021583714
61	0x3d4032b1	0.046923343
62	0xbcc9f394	-0.02465228
63	0xbdbef6c0	-0.093244076
64	0x3d16090e	0.03662973
65	0xba99093c	-0.0011675726
66	0x3d7f0843	0.06226374
67	0xbd69c27f	-0.05707025
68	0xbd8a8195	-0.06762997
69	0xbd5e09e9	-0.05420867
70	0x3d7c7cac	0.061642334
71	0xbcdc17a6	-0.026866745
72	0x3d533160	0.05156076
73	0xbcddb955	-0.027065912
74	0x3d93089f	0.07179379
75	0x3dd0811d	0.101808764
76	0x3d3dd088	0.04634145
77	0x3d485e21	0.048917893
78	0xbdd5fc43	-0.10448506
79	0xbe6cf4b9	-0.2314023
80	0x3ce467c2	0.027881507
81	0xbc86d716	-0.016459983
82	0xbc3fc1c1	-0.011703909
83	0x3d3e0727	0.04639354
84	0x3d8ece07	0.0697289
85	0xbdcb6f58	-0.099333465
86	0xbdadcb0a	-0.08485992
87	0x3daf9c7d	0.0857477
88	0x3daf28ea	0.085527256
89	0xbd181dbe	-0.03713774
90	0xbc29f5a3	-0.010373506
91	0xbdb576e0	-0.08860564
92	0x3d62ecb2	0.05540151
93	0x3d460e5d	0.04835354
94	0xbd5b35c3	-0.053518068
95	0x3bc59819	0.0060300943
96	0x3c681e53	0.014167386
97	0xbd7f3971	-0.06231064
98	0x3dba1306	0.0908566
99	0xbd0a7feb	-0.0338134
100	0xbc26d00d	-0.010181439
101	0xbc1eb6c9	-0.009687134
102	0x3dddeab9	0.108357854
103	0x3d88d73b	0.06681677
104	0x3dfb52bf	0.12271642
105	0xb9d0177a	-0.00039690343
106	0xbb406166	-0.002935493
107	0x3c0ecc15	0.008715649
108	0x3b065ed7	0.0020503306
109	0x3d91c0fb	0.07116886
110	0xbcc543f9	-0.024080263
111	0x3cdc9825	0.026928017
112	0xbc6f8ba3	-0.014620694
113	0x3d565bc6	0.052333616
114	0xbc21095e	-0.0098288935
115	0xbdb5e078	-0.08880705
116	0xbccecc84	-0.025244005
117	0x3afa883d	0.0019114088
118	0x3d852c23	0.06502559
119	0x3d52741e	0.05138027
120	0xbdc1fc15	-0.09471909
121	0xbc4eb3c9	-0.012616106
122	0x3da86f32	0.08224334
123	0xbd83258d	-0.064036466
124	0x3d9608c2	0.07325889
125	0x3da3fb1d	0.080068804
126	0xbdb34d14	-0.08754936
127	0x3c46d1e3	0.012135002
128	0xbd635783	-0.05550338
129	0xbbc7f0de	-0.0061017117
130	0x3d059073	0.03260846
131	0x3b8c854c	0.004288351
132	0xbcbfdc63	-0.023420518
133	0x3d65889d	0.056038488
134	0x3d1d960d	0.038473178
135	0x3d94358a	0.07236774
136	0xbc902e4d	-0.017600203
137	0x3d884030	0.06652868
138	0x3da34735	0.07972566
139	0x3d868e37	0.06570094
140	0x3db43771	0.08799637
141	0x3d0c6fac	0.034286186
142	0x3d8fe8e5	0.07026843
143	0x3d2e72fc	0.042590126
144	0x3c8f26f5	0.01747463
145	0x3c31cc40	0.01085192
146	0xbd562197	-0.052278128
147	0x3d11f229	0.035631333
148	0xbcf75e81	-0.03019643
149	0xbd8952a7	-0.06705218
150	0x3dbf4664	0.09339598
151	0x3d15748a	0.036488093
152	0xbc6376e1	-0.013883323
153	0xbcc9707e	-0.024589773
154	0xbc0d7768	-0.008634426
155	0x3d853df7	0.065059595
156	0x3cfacc38	0.030614957
157	0xbc8e018e	-0.017334726
158	0xbca3f05f	-0.020012079
159	0x3d9135cc	0.07090339
160	0x3e06e2d5	0.13172467
161	0x3cace7a0	0.021106541
162	0x3da66d58	0.081263244
163	0xbd742e1b	-0.059614282
164	0x3daf083b	0.08546492
165	0xbc8453d8	-0.016153261
166	0xbd730886	-0.0593343
167	0xbde50949	-0.11183412
168	0xbd4d0b76	-0.050059758
169	0xbbf19905	-0.0073729777
170	0xbca94181	-0.020661118
171	0xbce00c59	-0.027349638
172	0x3d300bde	0.042980067
173	0x3c08bbe3	0.008345577
174	0x3c488f7d	0.0122412415
175	0xbda7d3b9	-0.0819468
176	0x3b9ce88a	0.004788463
177	0x3ca5cb1a	0.020238448
178	0x3d9eef71	0.077605136
179	0xbdd4e131	-0.10394514
180	0xbcc477e4	-0.02398295
181	0xbcbaf01c	-0.022819571
182	0xbdc617b7	-0.09672492
183	0xbd9b54dc	-0.07584545
184	0x3dc268f2	0.09492673
185	0xbdb109c8	-0.08644444
186	0x3c3164bf	0.010827242
187	0xbd0f9e04	-0.035062805
188	0xbdfc6955	-0.12324778
189	0x3ad45298	0.0016198931
190	0xbdb20e29	-0.08694107
191	0xbd07916c	-0.03309767
192	0xbe03cb57	-0.12870537
193	0xbd4a4eed	-0.049391676
194	0x3d17b023	0.03703321
195	0xbda2b8f8	-0.07945436
196	0xbd4361c5	-0.047700662
197	0xbbebeaed	-0.007199636
198	0xbd591f98	-0.053008646
199	0x3dd6457f	0.10462474
200	0xbd5d356f	-0.054006036
201	0xbdc2081a	-0.094742015
202	0x3d3f8793	0.046760153
203	0x3c53d8f8	0.012930147
204	0xbc8e100a	-0.017341632
205	0x3dcc106a	0.09964068
206	0xbd311172	-0.043229528
207	0x3db2ec0e	0.0873643
208	0xbdb6767f	-0.0890932
209	0x3da0aea1	0.07845808
210	0xbb061056	-0.0020456514
211	0xbd180cff	-0.03712177
212	0x3d1559db	0.036462646
213	0x3d8e863e	0.069591984
214	0x3e0d63a8	0.13807547
215	0x3cd5e601	0.026110651
216	0xbbc34285	-0.0059588575
217	0x3d8659d4	0.06560102
218	0x3d650764	0.05591525
219	0x3d6953e2	0.056964763
220	0x3d940074	0.07226649
221	0x3d334a60	0.0437721
222	0x3d824b5a	0.063620284
223	0x3d894400	0.06702423
224	0xbd21f863	-0.03954352
225	0xbde5d056	-0.112213776
226	0xbd487060	-0.048935294
227	0x3d56a56d	0.052403856
228	0x3d321c73	0.043484163
229	0xbd27de02	-0.040983208
230	0x3a6af0c5	0.0008962269
231	0x3d18c4a6	0.037296914
232	0x3da36e9b	0.07980081
233	0x3a6d92a3	0.0009062683
234	0xbceeb7fc	-0.029140465
235	0x3d51625f	0.051119205
236	0xbd814fde	-0.063140616
237	0x3d98ded9	0.0746438
238	0xbd911ffd	-0.070861794
239	0xbdac1a22	-0.08403422
240	0x3d6b6f2c	0.05747907
241	0x3d3bcc1f	0.045848962
242	0xbd331ab6	-0.043726645
243	0x3d64e2bf	0.055880304
244	0xbb9bf7cc	-0.0047597643
245	0xbdb9ce4b	-0.090725504
246	0x3db5f300	0.08884239
247	0x3bbb9e35	0.005725647
248	0xbd9fccb2	-0.078027144
249	0x3d4b7131	0.049668495
250	0x3d149770	0.036277235
251	0xbd9d311d	-0.07675383
252	0xbb8c87c0	-0.0042886436
253	0x3c9603e9	0.018312411
254	0x3d72dfc6	0.05929544
255	0x3d2acb1b	0.041697603

transformer.layers.0.linear2.bias f4 [64]
0	0x3ccf8738	0.025333032
1	0xbc0c4136	-0.008560469
2	0xbcafeaa6	-0.021474194
3	0xbd9d76d7	-0.076886825
4	0xbcb15ee2	-0.021651689
5	0x3d4697c9	0.048484597
6	0x3cdca6b6	0.026934963
7	0x3b7ec3d9	0.0038874059
8	0xbd31779f	-0.04332697
9	0x3d9b0e31	0.07571066
10	0xbce9df2c	-0.0285488
11	0xbc0e9867	-0.008703328
12	0x3c3be95e	0.011469213
13	0x3cd9229d	0.026505763
14	0x3d8b6596	0.06806485
15	0x3c94c474	0.018160082
16	0x3d878efb	0.06619068
17	0xbd751d22	-0.059842236
18	0xbd819741	-0.063276775
19	0x3db03402	0.0860367
20	0x3d9ccbea	0.07656081
21	0x3d74433a	0.059634425
22	0x3c72ec13	0.014826792
23	0x3d925d03	0.07146647
24	0x3d3b35d0	0.045705616
25	0xbcd0446d	-0.025423253
26	0x3cc3ba82	0.023892645
27	0xbd83d2b3	-0.06436672
28	0xbd8bf929	-0.06834633
29	0x3d618acc	0.055064008
30	0x3cf0e988	0.029408231
31	0xbdb90d6f	-0.090357654
32	0xbd9688ae	-0.07350288
33	0x3ca45c77	0.020063622
34	0x3d4dace8	0.050213724
35	0x3d8b7966	0.06810264
36	0xbd40e00e	-0.047088675
37	0xbd6bf2d6	-0.057604633
38	0xbcf29e29	-0.029616432
39	0x3cd44233	0.025910472
40	0x3bd5f6f8	0.006529685
41	0x3b344fa0	0.002751328
42	0x3dc321fb	0.09527966
43	0xbdcfed56	-0.1015269
44	0x3d267e83	0.040647995
45	0x3d144504	0.03619863
46	0xbd839d79	-0.0642652
47	0xbd831084	-0.063996345
48	0xbb4b8e3d	-0.0031060122
49	0xbcd89ce9	-0.026442008
50	0xbcdf2926	-0.0272413
51	0x3d82a431	0.06378973
52	0x3c1b403d	0.009475765
53	0xbc95a723	-0.018268174
54	0x3d17dae2	0.037073977
55	0xbdad293b	-0.0845513
56	0x3ce89e67	0.028395845
57	0x3d87d9c1	0.0663333
58	0xbd1d86e9	-0.03845874
59	0x3d3e43be	0.046451323
60	0x3cc9dcd5	0.024641434
61	0x3ca29e29	0.019850807
62	0x3d4f3b80	0.050593853
63	0x3d969db3	0.073542975

transformer.layers.0.norm1.weight f4 [64]
0	0x3f879408	1.059205
1	0x3f83574a	1.0261014
2	0x3f879b1d	1.0594212
3	0x3f8d93e3	1.1060756
4	0x3f87bdf0	1.0604839
5	0x3f842685	1.0324255
6	0x3f742647	0.95370907
7	0x3f6f48e0	0.93470573
8	0x3f79ec6e	0.9762639
9	0x3f7dd9bc	0.9916036
10	0x3f854d42	1.0414202
11	0x3f859567	1.0436219
12	0x3f7ac020	0.9794941
13	0x3f814300	1.0098572
14	0x3f86ed6d	1.0541207
15	0x3f702084	0.93799615
16	0x3f7fcd9f	0.9992313
17	0x3f8c1d19	1.094638
18	0x3f82ecff	1.0228575
19	0x3f8aebdd	1.085323
20	0x3f7c0ac7	0.98453945
21	0x3f7d16a8	0.98862696
22	0x3f81c7f9	1.0139152
23	0x3f82e256	1.0225322
24	0x3f7ab19a	0.9792725
25	0x3f810f0f	1.008272
26	0x3f88eded	1.0697609
27	0x3f85dd06	1.0458076
28	0x3f712eff	0.94212335
29	0x3f851246	1.0396202
30	0x3f7f7628	0.9978967
31	0x3f8b36a9	1.0876056
32	0x3f845880	1.0339508
33	0x3f78842c	0.9707668
34	0x3f820295	1.0157038
35	0x3f8ed5c8	1.1158991
36	0x3f88cdb9	1.0687782
37	0x3f837209	1.0269176
38	0x3f7e3262	0.9929563
39	0x3f723dd1	0.94625574
40	0x3f75cbf4	0.9601433
41	0x3f7abe50	0.97946644
42	0x3f765223	0.9621908
43	0x3f73d8dd	0.9525278
44	0x3f711a5a	0.94180834
45	0x3f867fcc	1.050775
46	0x3f8cad69	1.099042
47	0x3f6dab80	0.92839813
48	0x3f80c78d	1.0060898
49	0x3f86542f	1.0494441
50	0x3f7e0c15	0.99237186
51	0x3f83b1bf	1.0288619
52	0x3f7af69f	0.98032564
53	0x3f7b8ffb	0.9826657
54	0x3f8bf394	1.0933709
55	0x3f7f6d63	0.99776286
56	0x3f7d8a59	0.99039227
57	0x3f8000c4	1.0000234
58	0x3f7346e4	0.95030046
59	0x3f90b487	1.1305093
60	0x3f819755	1.0124308
61	0x3f76d96d	0.96425515
62	0x3f866d1f	1.0502051
63	0x3f8ef8e0	1.1169701
