results/MinMaxScaler/TransformerModel_w100.pth (torch, 422342 bytes, 40 tensors)

input_projection.weight f4 [64, 6]
000000 6c a6 a0 3e b5 37 7b 3d c6 58 a4 bd 7d dc 34 be
       0.3137697 0.061332423 -0.08024745 -0.17662235
000010 28 f7 9b bd 0f c2 6f 3e 18 db e8 3e 14 4f 62 bd
       -0.07615501 0.23413871 0.45479655 -0.055251196
000020 de 8c 01 3e cb 4a 15 3e f5 73 7b 3e c6 44 e4 3d
       0.12651393 0.14579313 0.24555953 0.1114593
000030 b7 d3 5e 3e 04 15 a8 3e b2 e1 cd 3d 0d a8 0b bf
       0.2176045 0.32828534 0.100528136 -0.545533
000040 9b 71 52 be 6d 4c 22 3e ff 68 9a be 3a 71 ad be
       -0.2055115 0.15849467 -0.3015823 -0.33875448
000050 36 a0 b3 3e 6c c7 7d 3d d9 cd 2f 3e 11 96 82 be
       0.3508317 0.06195776 0.17168368 -0.25505117
000060 34 0c 63 be a5 e5 49 3e e3 2b 87 be 3a ba a1 3e
       -0.22172624 0.19716509 -0.2640067 0.31587392
000070 58 77 cf be f3 1d e5 bd 99 00 7e 3e cc ec a1 3e
       -0.4052074 -0.11187353 0.24804915 0.31625974
000080 ed 3e e4 3d 3c 24 e4 3d 28 ee 9b 3e 9b 3c 00 bf
       0.11144815 0.11139724 0.30455136 -0.50092477
000090 e4 b1 db be f1 56 33 be e2 ab c8 3e c4 12 92 3e
       -0.42909157 -0.17513634 0.39193636 0.28529942
0000a0 25 9f 9f 3d a5 34 f1 bd 3d 35 66 be a7 b3 55 3d
       0.07794026 -0.11777619 -0.22481246 0.052173283
0000b0 d0 e6 34 be bc 44 db 3e 78 56 cc be f4 9e 79 be
       -0.17666173 0.42825878 -0.3990972 -0.24377042
0000c0 e7 d2 4d 3e 65 b9 e1 be da 3f 76 bd 79 84 ba bd
       0.20099984 -0.44086757 -0.060119487 -0.091072984
0000d0 d2 60 0c be 08 dd 97 be 67 28 9a 3e 70 21 2a 3b
       -0.13708809 -0.2966082 0.3010895 0.0025959872
0000e0 8a bc be be 94 7f 88 3e 57 27 ef 3e 90 13 b1 be
       -0.3725322 0.26659834 0.467097 -0.34585238
0000f0 cc 62 40 be 19 63 cf 3c 21 e4 09 3e 29 09 67 3e
       -0.18787688 0.025315808 0.1346593 0.22562088
000100 77 e2 cd be 96 7a b4 bd de ea 83 be 11 84 06 be
       -0.4021184 -0.08812444 -0.25765127 -0.13136317
000110 b7 73 9f bd ef 9d b7 3d f3 f8 8f 3e 15 00 90 3e
       -0.07785743 0.0896567 0.2811962 0.28125063
000120 ff c0 c4 be 57 91 e7 bd b8 35 91 3d 85 a0 17 3e
       -0.38428494 -0.11307018 0.07090324 0.14807327
000130 91 b8 2f 3e 2e f4 0d be 88 19 56 3d c0 09 15 bd
       0.1716025 -0.13862678 0.052270442 -0.03638625
000140 95 43 19 3e ca 0f b4 3e a4 8b 81 be c8 2d 57 be
       0.14967187 0.35168296 -0.2530185 -0.21013558
000150 55 d7 c8 be c9 12 45 3d 2f bd 76 3e 1b 8d c6 bd
       -0.39226785 0.048113618 0.24095605 -0.096948825
000160 64 19 39 3e a3 d1 11 3e d0 9e 4b 3d bb 2d 77 be
       0.18076092 0.14240126 0.049712002 -0.24138539
000170 1f bb ea 3e c9 b6 06 3f 39 94 a2 3d 0b 27 b8 be
       0.45845887 0.5262266 0.079384275 -0.35967287
000180 da 4f f6 3e b6 4b 9f 3e 66 68 0c 3e 13 86 74 be
       0.48107797 0.3111245 0.137117 -0.2387927
000190 f8 b1 f8 3d d5 84 27 be 56 72 06 3f 69 de ed 3d
       0.1214332 -0.16359265 0.5251821 0.11614687
0001a0 06 ea 8c be c1 ec 88 3e dc 03 81 3e a6 6d 40 be
       -0.27522296 0.2674313 0.25198257 -0.18791828
0001b0 0e 62 4b 3e fb 8b aa be 5a 44 b8 be 9b d1 02 3e
       0.19861624 -0.33309922 -0.35989648 0.1277527
0001c0 08 0c bf bd b4 f6 47 bd 31 a6 c2 bd 23 c7 36 be
       -0.09328467 -0.04881926 -0.09504355 -0.17849402
0001d0 14 9d fa bd e7 4f 60 be ea 51 7c bc 09 aa c4 3e
       -0.122369915 -0.2190548 -0.015400389 0.38410977
0001e0 03 9d ec bd b3 cf a2 be 96 b2 e3 3e a4 16 9e be
       -0.11553385 -0.31799087 0.44472188 -0.30876648
0001f0 82 40 a6 3d 9b fa e6 3e 43 25 9b 3e 3f 75 77 3c
       0.08117773 0.45113072 0.30301866 0.015103637
000200 c7 85 16 bd 48 fd c0 bd 53 fc a3 3d 0a 07 64 bb
       -0.036748674 -0.094233096 0.080071114 -0.0034794235
000210 4f f2 b2 3c 2f 1d 22 be 16 2b 3e be df 9c a9 bd
       0.021844057 -0.15831445 -0.18571123 -0.08281874
000220 52 48 c7 3d 2c 64 7e be fc 51 7c be 90 a7 af 3e
       0.09730591 -0.248429 -0.2464065 0.34307528
000230 25 ba 06 bf a2 c8 33 3e 53 de c4 be 2f 77 9d 3e
       -0.52627784 0.17557004 -0.3845087 0.30754992
000240 1c 61 e0 be a9 0d 7c 3e 30 11 ca be 66 82 66 ba
       -0.4382409 0.24614586 -0.39466238 -0.00087932346
000250 8e e3 18 3e 75 02 39 3e 6c 09 96 be 04 ad 6f be
       0.14930555 0.18067344 -0.29304063 -0.23405844
000260 f9 c7 b8 bc 2b 1f 85 be fe 97 1d 3e 9b ca 83 be
       -0.022556292 -0.26000342 0.15390012 -0.25740513
000270 f7 50 02 bf d3 82 30 3d f4 ac b8 3d 5d 8d 55 be
       -0.5090479 0.043093514 0.09017363 -0.20854707
000280 8c db 80 3e 60 ba 47 be 6a 50 83 be 87 2a 9b bd
       0.251675 -0.1950469 -0.2564729 -0.07576471
000290 2a d2 e5 bd ad b7 77 bd 48 83 0c 3e 89 5f 91 be
       -0.11221726 -0.0604779 0.13721955 -0.283932
0002a0 aa 68 69 3e e3 f9 af 3e fd b3 b2 3d 24 c8 24 3e
       0.22793832 0.34370336 0.08725736 0.16091973
0002b0 bd 80 8c be 13 79 e9 be ca 03 6b be 98 61 21 bd
       -0.2744197 -0.45600185 -0.22950664 -0.039399713
0002c0 da 23 d2 bd 53 e9 63 be f5 24 82 3e 68 9f 0f be
       -0.102607444 -0.22256975 0.2541882 -0.14025652
0002d0 45 c8 d0 bc 3a 63 7c be 85 f7 ba bc 54 2c 79 3e
       -0.025486121 -0.24647227 -0.022823105 0.24333316
0002e0 56 20 0d 3e 74 e6 ac 3c cb cd 1b be c7 a9 e8 bc
       0.13781866 0.021105982 -0.15215223 -0.028401269
0002f0 d7 98 08 3f dc 1a bf bd e8 9d a7 3d 3e a0 98 be
       0.53358215 -0.09331295 0.08184415 -0.29809755
000300 c9 60 37 be 99 44 1d 3e b3 25 53 be 96 ef 0d 3e
       -0.17908014 0.15358199 -0.2061985 0.13860926
000310 15 88 15 3e af 95 5b 3e 3d 82 75 be 97 2b 4e be
       0.14602692 0.21443819 -0.23975463 -0.20133816
000320 51 b6 a7 3e 9d 66 d8 bc 3c 3f b2 be ff 9e b5 3d
       0.32756284 -0.026416117 -0.3481387 0.08868217
000330 78 99 da 3c d4 4f c0 3e 51 73 f9 3d b5 f1 03 bf
       0.026684508 0.37560904 0.12180198 -0.5154069
000340 bc b1 68 be 05 ea 83 3e 3a b7 6f be 14 f4 27 3e
       -0.2272405 0.2576448 -0.23409739 0.16401702
000350 67 5f 15 be dc 47 22 bd fb 82 8e be df ad d7 3e
       -0.14587174 -0.03961931 -0.27834305 0.4212484
000360 ee 44 2e be 33 09 f4 3d 64 db 8b be 13 40 81 be
       -0.17018482 0.11915817 -0.2731582 -0.25244197
000370 dc a7 10 3e 5d 07 24 3e c6 6f 0f 3f d6 3e 94 be
       0.14126533 0.16018434 0.5602993 -0.2895419
000380 b1 64 36 3e 28 4a bd be c4 cb 09 bd 98 e5 06 3e
       0.17811848 -0.3697064 -0.03364159 0.1317352
000390 a2 c7 f4 bc 1a 82 33 be 64 d9 d1 be ce ca ef 3e
       -0.029880349 -0.17530099 -0.40986168 0.46834415
0003a0 e4 a3 68 3e f9 c2 81 3e 8b 31 9e 3e 81 2c da 3e
       0.2271877 0.25344065 0.30897173 0.4261208
0003b0 74 ea 2d 3e dd 20 95 3d 86 40 9c be 43 0b 3d 3d
       0.16983968 0.07281659 -0.30517977 0.046153318
0003c0 59 83 d2 3e 69 b9 c5 be 8c d7 c9 bd b8 04 2f be
       0.41115835 -0.3861802 -0.098555654 -0.17091644
0003d0 c0 4a 11 3e 90 2e 95 3e 2b 99 89 be 1b 87 d5 be
       0.14188671 0.29137087 -0.2687467 -0.4170464
0003e0 b6 a2 64 3e 0c 79 b8 3d 7b 03 ed be b9 ea 69 3e
       0.22327694 0.09007463 -0.46291718 0.22843446
0003f0 c1 1b e5 bd c9 f8 b8 be 93 35 97 3d f5 94 17 3e
       -0.11186934 -0.36127308 0.07383265 0.14802916

input_projection.bias f4 [64]
000000 3f 90 a9 bd 83 52 cc be f4 38 2c 3d 2c 99 d0 3d
       -0.08279466 -0.399067 0.042046502 0.10185465
000010 5e db 72 3e 58 e5 5d be c0 e8 15 be 57 0d 62 3e
       0.23716494 -0.21669519 -0.14639568 0.22075401
000020 c8 b6 dd 3e 5e 9a c0 bd 0b bd b2 3d da cd d1 bd
       0.43303514 -0.09404443 0.08727463 -0.10244341
000030 64 f8 72 3e 2c 0a 64 3c f2 63 4c be e4 eb 89 be
       0.23727566 0.013918441 -0.19960001 -0.26937783
000040 f8 46 57 be 1e 51 96 be 0b 62 83 3e bb de 0c 3e
       -0.21023166 -0.29358763 0.25660738 0.1375684
000050 31 bf 28 be 1b fa dd 3d ae a8 83 3d 61 5d 10 3e
       -0.16479184 0.108387195 0.064286575 0.14098121
000060 73 14 58 3d 22 e8 c1 3e 1f 8f 30 3e 9d ee 91 3e
       0.052753877 0.37872416 0.17242096 0.2850236
000070 e3 a1 2f 3d 0f 06 16 3d 6c 07 27 bd d2 91 72 bd
       0.042878997 0.03662687 -0.040778562 -0.059221096
000080 d3 f5 36 be 1b c0 17 3e 74 06 47 3d db 38 82 bd
       -0.17867212 0.14819376 0.04859014 -0.063585006
000090 0a e4 bc 3d 78 e0 15 3c 3c eb 49 be d3 9d 85 be
       0.092231825 0.009147756 -0.19718641 -0.26096973
0000a0 d6 b5 79 bc 23 93 73 3e 93 4f 99 3e c6 8f 5e 3d
       -0.015241107 0.23786597 0.29943523 0.05433633
0000b0 4d bc 5e be 12 e4 cc bd a7 cd 0e 3e 15 ac 0c be
       -0.21751519 -0.100044385 0.13945638 -0.13737519
0000c0 ab 31 02 3e 5f 8c 33 3d a5 1d 6a be 1c b2 99 be
       0.1271426 0.04383504 -0.22862871 -0.300187
0000d0 a6 d2 96 3d bf 1d 6b be 7a ce 51 be 67 9c 53 bd
       0.07364397 -0.22960566 -0.20488921 -0.05166283
0000e0 a2 2f 2c 3e e0 83 5c 3e 1d 73 ae bd dc 21 52 3e
       0.16815045 0.21534681 -0.0851805 0.20520729
0000f0 9e 98 db be e0 0b 96 3e f9 a2 cb be 87 d8 0b 3c
       -0.42889875 0.29305935 -0.39772776 0.008535511

transformer.layers.0.self_attn.in_proj_weight f4 [192, 64]
000000 09 1f 93 be 87 f5 ae bd f4 4d 1b bc 33 8a a1 3e
       -0.28734615 -0.085429244 -0.009479035 0.3155075
000010 29 1d 21 3e 62 d1 33 be 83 8f 53 be f4 e3 5f be
       0.1573378 -0.17560342 -0.20660214 -0.21864301
000020 db 7e d3 3d 96 ce 0c be 70 aa 61 bd dc 67 e4 3d
       0.1032693 -0.13750681 -0.055094182 0.11152622
000030 ed 94 59 3e a2 6d 72 3e 10 7a 82 bd 6f 57 e2 bd
       0.21248217 0.23674634 -0.06370938 -0.11051833
000040 27 0d 0c be e5 28 5c be a5 94 56 be 34 9c 79 bd
       -0.13676892 -0.21499975 -0.20955141 -0.060939983
000050 5e 14 e2 39 1e 5a a6 3e a5 25 79 be ec 90 b8 3d
       0.00043121254 0.3249063 -0.24330766 0.09012017
000060 95 8c 81 3e 30 14 8d 3d dc 09 44 3e 5c 16 98 3e
       0.25302568 0.06888616 0.19144386 0.2970456
000070 cc e7 a6 be 34 3c 02 be e4 90 e6 3d 73 00 69 be
       -0.32598722 -0.12718278 0.112581044 -0.22754078
000080 99 01 4a bd 06 0e 3b 3e 8d df 59 3e 65 78 cb bd
       -0.04931793 0.18267068 0.21276684 -0.09935073
000090 76 04 0f 3e e2 be 53 bd 7e 3b 52 bd f5 32 83 be
       0.13966545 -0.051695712 -0.051326267 -0.25624815
0000a0 23 4c 7e 3e a9 f9 09 3e e4 66 af 3e e0 58 d2 bd
       0.24833731 0.13474144 0.34258187 -0.10270858
0000b0 20 0f 43 3d b7 21 5d be f8 c1 0b be 4d fa 42 3e
       0.047621846 -0.21594892 -0.13648212 0.19040795
0000c0 b0 44 64 3d 79 ab 4e be 00 79 ad bc 67 14 da bd
       0.055729568 -0.20182599 -0.021175861 -0.10648423
0000d0 8a 2f ac be aa 35 c3 be 73 9b a3 be 6e 4c b4 bc
       -0.3363002 -0.3812688 -0.31954536 -0.0220091
0000e0 5a 71 63 3e 4c 18 5a 3e 3d ed 96 3e dc 0b 4c 3e
       0.22211209 0.21298331 0.29477873 0.19926399
0000f0 fc b3 0e be 82 a5 b9 3d 3d ee a0 be 51 8b 75 bd
       -0.13935846 0.09064771 -0.3143176 -0.059947316
000100 e5 12 13 be d0 20 a3 3d 8a a3 e3 3d f7 f9 fc 3d
       -0.14362676 0.07965243 0.11115177 0.123523645
000110 86 24 d1 3d 72 fe c7 3d b5 25 ad bd 5b c7 9c bd
       0.102120444 0.097653285 -0.08454458 -0.076552115
000120 43 d3 e5 3d e9 8c 67 bd 63 a0 98 bd fa 48 94 3e
       0.112219356 -0.056530867 -0.07452466 0.28961927
000130 da f5 b9 3e ee fb 93 3d 28 30 5e be 88 95 75 be
       0.36320382 0.07225786 -0.21698058 -0.23982823
000140 6e fd 8f be 2f 46 e2 bd 77 11 42 be d4 5a 2b 3d
       -0.2812304 -0.11048543 -0.18951975 0.041834667
000150 92 47 8e bb b5 b0 51 3e 48 86 b8 bd 48 18 91 3d
       -0.004342028 0.20477565 -0.09009987 0.070847094
000160 6f e0 81 3d 3a 9c 08 3c 27 a7 89 3e ea 81 28 3e
       0.063416354 0.008338029 0.2688534 0.16455808
000170 a9 98 80 be 99 ce 87 be 67 8b aa 3d f8 68 a1 be
       -0.2511647 -0.2652481 0.0832737 -0.31525397
000180 b0 fa 31 be 4c 13 16 3e f2 3d 7d 3c 8f 9e c8 be
       -0.17380786 0.14655799 0.015456663 -0.3918347
000190 49 b0 83 3d f5 6b 59 be 44 a7 24 3d e9 6e 97 be
       0.06430108 -0.21232589 0.04019858 -0.29576805
0001a0 08 e0 d0 3e 9b 2d 0a 3e 74 cc b2 3e 7e 48 82 be
       0.40795922 0.1349396 0.3492161 -0.25445932
0001b0 c8 ac f4 3d c7 44 52 be f8 74 9c be ab e9 a5 3e
       0.11947018 -0.20534049 -0.3055799 0.32404837
0001c0 24 5e 3a 3e bd 0d ab be 0b 01 c3 bd bf 05 74 be
       0.18199974 -0.3340892 -0.09521683 -0.23830317
0001d0 7a 53 28 be 25 d8 48 be a5 c4 e2 be 14 51 81 3c
       -0.16438094 -0.19613703 -0.44290653 0.015785731
0001e0 6a 29 a7 3e ff f3 64 3e ef a1 82 3e 3d 1e bf 3e
       0.32648784 0.22358702 0.2551417 0.37327757
0001f0 6f 71 dc bd 13 4e b8 3e 75 7f ec bd 83 ee b1 be
       -0.10763823 0.35997066 -0.11547748 -0.34752283
000200 fb 76 8a 3e a3 93 95 be 63 1d 87 bd 16 60 9f be
       0.270439 -0.292142 -0.06597402 -0.31127995
000210 24 80 94 be 2c 0d 4c bd 23 54 5b 3e 51 42 92 3e
       -0.29004014 -0.04981725 0.21418814 0.2856622
000220 66 60 8d bd ce 18 ba 3e 63 36 0f 3e bb bb 51 be
       -0.06903152 0.3634705 0.1398559 -0.2048177
000230 af e3 9e be 13 86 85 be 3a 96 a9 3e 40 66 99 3e
       -0.31033084 -0.26078853 0.33122426 0.29960823
000240 f5 dd 98 3e 82 95 84 3e 67 8c 9d 3e f1 6b 55 3e
       0.2985684 0.25895315 0.3077118 0.20841958
000250 7d 27 bc 3d 5b 5d b7 be 6e 5f 75 3e ee 6c 4b be
       0.09187219 -0.35813412 0.23962185 -0.19865772
000260 66 e3 7d be 10 9b 74 3e 2b 4b 83 be 8f 4d 8f be
       -0.24793777 0.23887277 -0.25643286 -0.2798886
000270 0d b8 06 3e dd 04 62 3e 38 91 9f be f3 2f 53 3e
       0.13156147 0.22072168 -0.3116548 0.2062376
000280 02 4b 36 3e 24 fc f9 bd 6b 3d 73 be cc fa d3 3e
       0.1780205 -0.12206295 -0.23753898 0.4140228
000290 49 2c 25 bd 14 ce 8e 3e 11 5c 8b 3d a8 9b 8b 3d
       -0.040325437 0.278916 0.0680467 0.068167984
0002a0 fc e9 5e be 1a 28 ca be 84 5a da be 77 0f 28 3e
       -0.21768945 -0.3948372 -0.42647183 0.1641215
0002b0 10 e5 06 be 7d eb 14 3e cd c3 c7 3e 18 12 c3 be
       -0.13173318 0.14542957 0.39016572 -0.38099742
0002c0 40 67 aa bd f6 14 59 3e e8 99 b9 3e e5 06 0f 3e
       -0.083204746 0.21199402 0.36250234 0.13967474
0002d0 1a 99 ab 3e d6 32 12 3e 50 77 98 3e d2 79 b9 bd
       0.33515245 0.14277205 0.29778528 -0.090564385
0002e0 ef c9 08 be 18 bf 39 be 89 fa 90 be 6a ba 86 be
       -0.13358282 -0.18139303 -0.28316143 -0.26314098
0002f0 52 e0 dd bb 21 de 4e be fc 07 20 bd 77 eb 45 3e
       -0.006771126 -0.20201923 -0.039070114 0.19328104
000300 a6 23 63 3d e6 9c 4c 3d 9d 6b 1d be d6 6a 1c be
       0.05545392 0.049954318 -0.15373082 -0.1527513
000310 9a bd b6 bd 57 fc 91 3c 1c 13 8e 3e 0b 35 69 3e
       -0.089228824 0.01782052 0.27748954 0.2277414
000320 42 01 32 3d 41 fc 44 3e 88 70 47 3e 38 a3 9c be
       0.04345823 0.19236852 0.19476521 -0.30593276
000330 2e 2a c9 be c3 6c 8b be d4 eb a6 3e 7a eb db 3e
       -0.39289993 -0.27231416 0.32601798 0.42953092
000340 c3 5b 97 3e 65 ec 24 3e 37 36 ad 3e ac f0 ec bd
       0.29562196 0.16105802 0.33830425 -0.11569342
000350 a5 f2 5f bd 1f 3c 3e be e3 82 a3 3e 82 b5 8b be
       -0.054674763 -0.18577622 0.31935796 -0.27286917
000360 b6 85 b9 be 28 91 48 bd 41 91 ca be bb 78 15 be
       -0.36234826 -0.048966557 -0.39563945 -0.14596836
000370 9d fb e5 3e 9d 11 ad 3e bd bd 20 be c1 31 20 3e
       0.44918528 0.338025 -0.1569738 0.1564398
000380 f9 f6 20 3e c1 78 6f be b9 77 1f be 4d 64 c2 3d
       0.15719213 -0.23385908 -0.15573014 0.09491787
000390 68 d8 85 be d0 5a 83 3e 6f 89 25 3e 4b 35 84 3e
       -0.26141667 0.25655222 0.16165708 0.2582191
0003a0 fa a4 8a be 9e 93 63 be 94 d7 d1 bd d0 fa 68 3e
       -0.27078992 -0.2222428 -0.102461964 0.22751927
0003b0 9c a6 8d bd 04 d3 76 3d fd 65 5f 3e 3d 3e 9f be
       -0.06916544 0.060259834 0.21816249 -0.31102172
0003c0 2d f2 2f 3e 28 5a 78 3d f3 74 9f 3d 98 dc a3 3e
       0.17182226 0.060632855 0.07785978 0.32004237
0003d0 62 32 84 3e 45 2d cf 3e 61 7f 09 3f a6 35 17 bd
       0.2581969 0.40464225 0.5370999 -0.036916398
0003e0 e7 e6 41 be 1c 9d c2 be 04 6f 0c be 57 21 f8 bd
       -0.18935739 -0.3801049 -0.13714224 -0.12115734
0003f0 c3 5d b4 bd 68 07 a4 be c2 19 3e 3d 66 07 6f 3e
       -0.08806946 -0.320369 0.046411283 0.23342666

transformer.layers.0.self_attn.in_proj_bias f4 [192]
000000 5f 92 88 3e b3 12 97 3e 82 9b a3 be f7 29 9a be
       0.26674172 0.29506454 -0.3195458 -0.30110142
000010 6f 4c 57 be b1 de 3f be 05 f2 a1 be 8d cf a6 be
       -0.21025251 -0.18737294 -0.3162996 -0.32580224
000020 29 e4 8f be f6 2e a0 3e c1 2d b5 be 08 44 bb 3e
       -0.2810376 0.31285828 -0.3538647 0.3657534
000030 8e 17 a1 be 33 bd 9b 3e cd 31 a6 3e bb fb 9f 3e
       -0.31463283 0.30417785 0.3245987 0.31246743
000040 1e 0d 9e be c9 94 94 be 36 3f 85 3e 6c a2 33 be
       -0.30869383 -0.29019764 0.2602479 -0.17542428
000050 d1 c8 c7 3e 20 9b a1 3e ce 74 d1 be 3c b3 8d be
       0.39020398 0.31563663 -0.40909427 -0.27675807
000060 76 37 2b 3e c7 99 b4 be 67 0c 5e 3e 94 39 91 3e
       0.16720375 -0.35273573 0.21684419 0.2836424
000070 5c 0b a3 be ad b2 8a be 08 70 9c be c4 61 b1 3e
       -0.31844604 -0.27089444 -0.30554223 0.34644902
000080 7b dd 08 be 7a df 2c 3e 2c ae 2b bd 6e a3 43 be
       -0.13365738 0.16882125 -0.04191415 -0.19105312
000090 86 ae 5a be 3a 8a 60 3e 09 ed 08 3e 18 3a 13 be
       -0.21355638 0.21927729 0.13371672 -0.1437763
0000a0 78 cf 23 be bb 2d 54 3e ee e1 30 be c6 ba 55 be
       -0.15997112 0.2072057 -0.17273685 -0.2087203
0000b0 c8 6d 22 3e ed 98 8d 3e 2a b2 3e be 25 74 08 be
       0.1586219 0.27655736 -0.18622652 -0.13325556
0000c0 d2 dd 61 be 4c 20 19 bd 3e c4 95 3d 9c 9f e7 3d
       -0.22057274 -0.037384316 0.07312821 0.1130974
0000d0 02 44 5f be 87 41 2b be ac ba 13 3e 32 35 c8 3d
       -0.21803287 -0.16724215 0.14426678 0.09775771
0000e0 f1 0a 21 be f6 65 33 3e 53 2b a5 bc 38 bf 27 3e
       -0.1572683 0.17519364 -0.02016226 0.16381538
0000f0 55 cd 38 be f4 61 6b 3e 87 13 e5 bd 16 a4 11 3e
       -0.18047078 0.22986585 -0.11185365 0.1422275
000100 95 f1 e9 b6 95 65 62 3a 3a 4e db bb fb 71 28 bb
       -6.972065e-06 0.0008636353 -0.006692675 -0.0025702703
000110 47 6b fd 3a e7 f0 d4 b9 85 f3 b9 3a a0 b3 95 ba
       0.0019334339 -0.00040615277 0.0014186954 -0.001142133
000120 fa 0f 9c ba c0 dd ba 3a c8 bc c5 ba bf d1 37 3a
       -0.0011906617 0.001425676 -0.0015086168 0.00070121506
000130 8c 5d 2e 3a 12 ae ab 39 31 ee f7 ba 8e 73 44 3a
       0.0006651513 0.00032745354 -0.0018915591 0.00074940256
000140 6c e3 ae bb f0 38 9d bb 78 7d c2 39 23 b8 80 b9
       -0.0053371694 -0.0047980472 0.00037096045 -0.00024551255
000150 c0 f2 9b 3b a9 a5 a6 b9 6e 76 bb bb df 89 f8 3a
       0.0047591627 -0.00031785414 -0.005720905 0.0018961987
000160 fb af fb 3a fb a3 54 ba fe b0 6f 3b 27 13 4e 3b
       0.0019202227 -0.0008111593 0.0036574001 0.003144452
000170 6c c4 07 3b 62 77 e5 b9 f2 70 52 ba 5f 63 7f 3a
       0.0020716442 -0.0004376723 -0.00080276944 0.00097422855
000180 8b 9f e0 ba 82 26 8e 3b 7f bc a1 ba 09 64 3d bb
       -0.0017137391 0.0043380866 -0.0012339501 -0.0028898737
000190 6c 1d 86 bb ed 1c 0c 3b 8c 8d 63 3b bf 20 88 bb
       -0.004092863 0.0021379546 0.003472182 -0.0041542943
0001a0 68 68 84 bb 8d ac 8e 3b a0 33 87 bb 67 4d 42 bb
       -0.0040407665 0.0043540657 -0.004126027 -0.0029648186
0001b0 55 a7 c0 3a 42 ff 69 3b 6e 33 67 bb 5a b8 37 bb
       0.0014698306 0.0035705124 -0.0035278457 -0.0028033466
0001c0 4e af 57 ba 4d d9 1d 3a 4c f4 27 3a e9 ac 01 39
       -0.00082277216 0.0006021455 0.00064069475 0.00012366813
0001d0 17 5a d3 ba 56 05 15 ba ed 85 96 ba f3 0a e0 b9
       -0.0016124871 -0.0005684694 -0.0011484005 -0.00042732767
0001e0 69 5c 3a ba da 1b 44 3a 68 41 36 ba 6d 71 7c b9
       -0.0007109107 0.0007480957 -0.00069524953 -0.00024074847
0001f0 c5 02 2b ba 38 bc 90 3a d8 0e 7d ba 01 e3 b7 39
       -0.0006523545 0.0011042422 -0.0009653396 0.0003507361
000200 63 7a d1 bb 72 72 e9 bc 84 9e 4e bc 65 14 e5 3c
       -0.0063927635 -0.028496955 -0.012611035 0.027963826
000210 80 a1 3d 3c 7e 79 b1 3c 4d 3f 25 b8 28 4c 51 bc
       0.011574149 0.021664377 -3.939802e-05 -0.012774505
000220 f2 70 21 bb 5a 6e b5 3c da 66 57 3c 93 2c 04 3c
       -0.002463397 0.022147346 0.01314708 0.008067268
000230 12 70 4c ba 48 36 43 ba 4f a4 3b 3c 7e 50 51 3b
       -0.0007798682 -0.0007446748 0.011452748 0.0031938846
000240 a7 51 e3 3c 78 41 02 3c 23 50 5c bb 04 4e 78 3c
       0.027748896 0.007950179 -0.00336171 0.015155319
000250 4f e7 12 bd 3c 6c d1 bc 93 c5 16 bd af bd b6 3c
       -0.035865124 -0.025564305 -0.036809515 0.022307245
000260 8f 58 83 bc cd 25 47 3d cb 8a 6a 3c 20 e9 58 bc
       -0.016033439 0.048620034 0.014315317 -0.013239175
000270 94 f6 9b 3b 03 03 a1 bc 92 76 cf ba 4a 05 91 bc
       0.004759619 -0.019654756 -0.0015828183 -0.017702717
000280 3b 64 dc bc 66 60 24 bc c6 65 79 bb 2c cd 91 3b
       -0.026903262 -0.010032749 -0.0038055046 0.004449507
000290 13 5f f2 bc df a1 54 bc 8d 08 e8 bb cc 00 a0 ba
       -0.02958635 -0.012978046 -0.0070810975 -0.0012207269
0002a0 2f d9 00 bd 1e ab b9 bb 7a 74 93 bc 5d 9f 6a bb
       -0.031457122 -0.0056661507 -0.017999876 -0.0035800554
0002b0 03 e1 5a bc 6f ef 80 3c a7 09 4f bc 30 42 83 bb
       -0.013359311 0.01573917 -0.012636579 -0.004005693
0002c0 2c ad e3 3c a8 4c 32 3d a3 bf 2b ba 95 13 18 3c
       0.027792536 0.043530136 -0.00065516884 0.0092820125
0002d0 c9 29 ed bc 48 74 9d bc 96 5b 03 bd fe 54 5e bc
       -0.028950589 -0.019220486 -0.032069765 -0.013570068
0002e0 1f 97 83 3b 91 67 3c bb 89 72 38 bc c2 83 e4 3c
       0.004015818 -0.0028748254 -0.011257776 0.027894858
0002f0 bd 66 05 3d 4d 55 1b bc f6 fd fb 3c fa d6 1a 3c
       0.032568682 -0.0094807865 0.030760746 0.0094506685

transformer.layers.0.self_attn.out_proj.weight f4 [64, 64]
000000 1d 74 9e bc 38 93 66 3d 8e 70 03 3d 8a 0e 36 be
       -0.019342477 0.056292742 0.032089762 -0.17778984
000010 7f 68 bc 3d 46 6f a0 bd 0d c0 8b bd 40 b1 96 bd
       0.091996185 -0.07833724 -0.0682374 -0.073580265
000020 fa 23 2b 3d 47 19 2e 3d 9d 41 f7 3d 52 8b 38 3d
       0.041782357 0.042504575 0.120730616 0.04505474
000030 42 2d 98 3d 82 ec 44 be 6c 94 c6 bd da 8c b2 bd
       0.07430507 -0.19230846 -0.09696278 -0.087182716
000040 69 23 2d 3d 1b fb 9a 3d 9a 29 18 bd b7 7b 8c bd
       0.042270098 0.07567426 -0.03714905 -0.06859534
000050 76 e6 0f 3e 0c a9 a0 3d a5 4e b7 bc c2 e2 ae 3d
       0.14052758 0.07844743 -0.022376368 0.08539344
000060 2c 9c ba 3d c6 00 50 3d d2 91 70 3e 33 00 59 bc
       0.09111819 0.050781988 0.23493126 -0.013244676
000070 72 f2 96 3d 0c 8a 2a 3d 18 0a 05 3e c5 5e 11 3b
       0.073704615 0.041635558 0.12992132 0.0022181731
000080 90 4e 7c bd e3 09 7e 3d 33 f8 94 bd d7 da 04 be
       -0.06159836 0.062021147 -0.07273903 -0.12974106
000090 b2 d0 a8 3c e2 e7 c3 ba f7 31 75 bc 93 d5 38 bd
       0.020607326 -0.0014946426 -0.014965526 -0.045125555
0000a0 97 9a 18 3d 91 52 02 be 35 eb e5 bd 9f 15 6f bd
       0.037256803 -0.12726809 -0.11226503 -0.05837023
0000b0 26 be 1e be 87 40 95 3c 87 97 94 3d 2f 00 b4 3d
       -0.15502223 0.018219246 0.07255464 0.087890975
0000c0 74 fc cb 3c c3 51 cf bd 66 0e 77 bd cb 98 f2 bd
       0.024900652 -0.10123017 -0.060316466 -0.11845549
0000d0 1b f6 ae 3d 12 de 5c bd 8a 6e ba 3c 8e 9c ba bb
       0.08543035 -0.05392272 0.022757787 -0.0056949323
0000e0 d2 36 ae bd 2e fb 49 3d 5d bb b1 3d cd ca 37 bd
       -0.0850655 0.04931181 0.08678315 -0.04487114
0000f0 5c e2 d3 bd 1e c8 24 3d 9c 45 b1 bd 29 5e 25 bc
       -0.10345909 0.04022991 -0.08655855 -0.01009325
000100 2d ad 99 3d 2b 80 2d 3d 3a 94 a8 3c 13 45 3f 3c
       0.07503734 0.04235856 0.020578492 0.011674183
000110 1a 56 b4 bd d7 6a e3 3d cc 53 c5 3d b3 b7 8e bd
       -0.08805485 0.111043625 0.096351236 -0.069686316
000120 02 7e ab 3d ca d2 b5 bd 03 c0 82 bd fd c5 6a bd
       0.083736435 -0.088780954 -0.063842796 -0.057317723
000130 f8 7a b5 bd 2c f3 a5 bd 35 04 01 3d 32 cb c5 ba
       -0.08861345 -0.08103022 0.031498153 -0.0015090464
000140 30 36 04 3e f2 de 1d 3d cd 3f 96 3d ad 2c 51 bd
       0.12911296 0.038542695 0.07336388 -0.051067997
000150 51 4f d1 3c a3 14 f0 bc 8a 15 dd bd 69 18 60 bd
       0.025550516 -0.029306715 -0.10795124 -0.05471078
000160 56 72 43 bd 12 c3 d7 bd 30 0b 9d 3d fc 62 c7 3c
       -0.04771646 -0.105352536 0.076681495 0.024339192
000170 84 e1 ba bd d5 e3 c8 bd 4b 9a 5d 3d 05 22 94 bd
       -0.09125045 -0.098090805 0.054102223 -0.07233051
000180 08 67 c3 3c f7 7b e2 3d ea 23 f4 3d 83 ea bd bc
       0.02385284 0.11058801 0.119209126 -0.023183113
000190 cd 49 88 bd 78 bf af 3d 75 1a 8e 3c 01 8b 9b bd
       -0.066547014 0.08581442 0.0173466 -0.07594872
0001a0 24 cb 29 bd cf 44 a4 bd b4 77 5a bd 32 7c 9c 3d
       -0.041453496 -0.08020937 -0.053336814 0.07640876
0001b0 c1 c9 0c 3e d5 38 18 3d bc c3 89 bd 33 c7 b2 bc
       0.13748838 0.037163574 -0.067267865 -0.021823501
0001c0 e6 0e 11 3e 59 2a e2 3d 35 af d2 3c 22 38 02 be
       0.1416584 0.110432334 0.02571831 -0.12716725
0001d0 ef c5 b9 bd d7 d9 48 3d 44 e1 ce 3b 0a 74 2c bd
       -0.09070956 0.049035873 0.006313475 -0.04210285
0001e0 de 17 40 bd 50 68 9f 3d 28 f6 af 3d a4 f2 b5 3c
       -0.04689776 0.07783568 0.085918725 0.022210427
0001f0 56 46 c5 bc fa 6b 83 3c 34 cb a9 3d 0b 83 47 3d
       -0.02408139 0.016042698 0.08290711 0.048708957
000200 04 7e 9e 3d f2 86 29 bd b5 e9 a8 bd 9a 88 70 bc
       0.07738879 -0.04138846 -0.08247701 -0.014681006
000210 7b 41 f3 3c 84 1c 05 3b 14 a9 9a 3d 2b e7 84 bd
       0.02969431 0.0020311186 0.0755178 -0.06489404
000220 77 8c 0d 3d 4c 00 b4 3d ef ee 08 bd 35 e8 33 bd
       0.034557786 0.08789119 -0.03343099 -0.04392262
000230 a7 76 9d bd b7 61 ef 3d cc d7 47 bd f0 10 67 3d
       -0.07688647 0.116885595 -0.048789784 0.056412637
000240 21 26 e6 3d a8 11 e4 3c 09 41 bf 3d d9 0a 9e bd
       0.11237741 0.02784045 0.09338576 -0.07716913
000250 34 9b a6 3d d3 db af 3d 8f ae 3d 3d 69 68 a6 3d
       0.081350714 0.0858685 0.04630905 0.081253834
000260 2d f2 db 3c 40 1c f6 3c 4a a0 d6 3c a1 be d8 bc
       0.026848877 0.030042768 0.026199479 -0.026458086
000270 84 af 41 bc 32 83 85 bd 9f aa aa bb a1 f2 9a 3d
       -0.011821631 -0.06519164 -0.005208328 0.07565809
000280 b6 1e 95 bd 88 f9 30 bd 8c eb ca 3c b2 a6 bb bd
       -0.07281248 -0.04320672 0.02477052 -0.09162654
000290 28 e2 9b bd cf 0a 65 3d f0 f6 15 bc 5e c7 0f 3b
       -0.07611495 0.05591851 -0.009153113 0.00219389
0002a0 70 eb db bd 1c ef 66 3c 2f 60 a5 bd fa 95 3a 3d
       -0.107382655 0.014095094 -0.08074986 0.045553185
0002b0 84 58 36 bc 65 3f d9 bc 04 c6 04 3d 50 f8 bf bd
       -0.011129502 -0.026519487 0.032415405 -0.09373534
0002c0 32 d5 3f 3d 1c 5b b5 bd a3 f8 32 3d f3 f1 c7 bc
       0.04683418 -0.08855268 0.04369415 -0.024407363
0002d0 15 ec a7 bd 8c fe db 3d bb 72 da 3c 6b c3 5d 3d
       -0.08199326 0.1074191 0.026666036 0.054141443
0002e0 a3 a8 39 3c b9 6a 0e 3d db 73 35 3c 98 70 55 bd
       0.01133171 0.034769747 0.011074985 -0.05210933
0002f0 a9 1f 5f bd 1e d6 26 bc 49 cc 5a 3d ff a6 8f bd
       -0.054473553 -0.010182885 0.053417478 -0.07014274
000300 1a b7 e2 bd 3d 5d 77 3c 5f 9e 13 3d 51 05 c4 3d
       -0.1107008 0.015097913 0.036039706 0.095713265
000310 5f 58 d4 bd 06 e4 28 bd 23 1e 40 bd 06 77 b8 3c
       -0.10368418 -0.041233085 -0.04690374 0.022517692
000320 84 24 6c bd de ff 87 3c 1b 58 0d 3e 3a 21 a8 bd
       -0.05765201 0.0166015 0.13803141 -0.082094625
000330 ed 23 21 3d 9f 4a 88 bc 20 2e 84 bd f1 8c ec bc
       0.039340902 -0.016637145 -0.0645411 -0.0288758
000340 dd 7d a5 bc 88 7a 42 bd 8a 2c 56 bd fd 39 33 bc
       -0.020201618 -0.047480136 -0.05228857 -0.010939118
000350 99 27 66 bc 3d fa 92 bd a2 ed 20 bc a7 43 97 bd
       -0.014047527 -0.071766354 -0.009822281 -0.073859505
000360 9a 31 73 3d f1 cf 56 bd 15 79 b2 bc 0f ed 12 3e
       0.059373476 -0.052444402 -0.021786252 0.14348243
000370 90 5a 77 bc 33 3e 41 3e 81 92 da bd b1 01 eb 3b
       -0.015097275 0.18871383 -0.10672475 0.0071718325
000380 62 1e 88 bc df be ff bd cf 29 84 3d c9 c1 ea 3c
       -0.01661605 -0.12487578 0.06453287 0.028656857
000390 a9 27 85 bd 32 61 de 3b 14 bf 38 bd 9a 3a b9 bb
       -0.06501705 0.006786489 -0.0451041 -0.005652738
0003a0 ad 33 80 3d e8 87 03 3d 3b 5d 59 bc 3e bb f7 bc
       0.062598564 0.032112032 -0.013266857 -0.030240651
0003b0 cf b9 61 3d bb 55 34 3d c1 b3 8a 3c ce d9 bd b9
       0.05510884 0.04402707 0.016931416 -0.00036211166
0003c0 1a 4d 8a 3d e9 c3 5c bd 76 04 31 3c 12 e2 9c bd
       0.06752987 -0.053897772 0.010804286 -0.07660307
0003d0 9c 31 9d bc 3c f4 6c 3d 6d 8c 8f bc 0b 40 0b 3e
       -0.019188695 0.057850108 -0.017523015 0.13598649
0003e0 91 67 02 bc f8 ea 76 bd a3 ab 93 3d eb a3 c2 bc
       -0.0079592625 -0.060282677 0.072104715 -0.023759803
0003f0 c3 fa 04 bd b1 c4 2d 3e a5 b1 8f 3d 27 30 27 3b
       -0.032465708 0.16969563 0.07016305 0.0025510879

transformer.layers.0.self_attn.out_proj.bias f4 [64]
000000 0e e7 00 bd db 89 a1 bb 57 8b 63 3c e3 79 a8 3c
       -0.03147035 -0.0049297637 0.013888202 0.020565933
000010 25 a4 45 3c c9 a8 cf 3b 98 03 e2 3a c5 0d 54 bc
       0.012063061 0.0063372594 0.0017243503 -0.012942736
000020 cf 7f 83 3a 4f ef c9 bc 4c fc ef 3a e0 d4 50 3c
       0.0010032597 -0.024650244 0.0018309443 0.012746066
000030 60 5b 18 3d 96 d1 ba 3c fc 30 78 bc 55 71 8e ba
       0.037196517 0.022805016 -0.015148398 -0.0010867516
000040 33 d4 c2 bc 08 5f f8 bc 87 c1 16 bd 3d 7d 4a bb
       -0.023782825 -0.030318752 -0.036805656 -0.0030897402
000050 7c d9 69 bc 0f 08 1e 3a e7 52 63 3c f4 aa 2b 3c
       -0.014273044 0.00060284225 0.013874746 0.01047777
000060 f3 4e 85 3c 86 8a 8b ba 9f a4 cd 3c 65 b4 df bb
       0.016272997 -0.0010646142 0.025102912 -0.0068269246
000070 f5 57 19 ba 33 ba a1 bc 57 2e 7d bc a9 75 3a bb
       -0.00058495934 -0.019742107 -0.015452943 -0.0028451479
000080 4b 81 0f bd a0 10 20 bc 26 7a 76 bc 6d 2f 4d bd
       -0.035035413 -0.009769589 -0.015043771 -0.050094057
000090 4c 71 d8 3c 6a 0f 68 bc 41 22 cc 3b 9b 26 13 3a
       0.026421212 -0.014163831 0.0062296693 0.00056133576
0000a0 4f d4 1e bb d3 a3 c4 bb a8 6c 17 3d a8 f4 cb 3c
       -0.0024235433 -0.0060009747 0.036968857 0.024896935
0000b0 49 7d 89 3c 14 91 f3 3b b1 58 20 bc 7c f3 c5 bc
       0.016783373 0.007433066 -0.009786771 -0.024163954
0000c0 d5 aa ee b9 89 b8 07 bc 58 eb 76 bc ef 4d bb bc
       -0.00045522177 -0.008283743 -0.015070759 -0.02286431
0000d0 ab 58 7b 3c 0d 44 2a 3d 05 e8 9d bb 2e cc bb 3b
       0.015340964 0.041568805 -0.0048189186 0.005731127
0000e0 a1 ab 8e 3c 05 ea 1f 3d ba ba bd 3b 14 46 1d 3c
       0.017415823 0.039041538 0.005790082 0.009599227
0000f0 76 ff e7 bb ec 50 0d 3c de 5a 16 3c 94 70 a0 bc
       -0.007080014 0.00862525 0.009176938 -0.019584931

transformer.layers.0.linear1.weight f4 [128, 64]
000000 c2 8b 90 3d 95 31 05 3e e2 68 5b bd c0 a3 ef 3d
       0.07057907 0.13007195 -0.05356682 0.11701155
000010 95 eb 2c bd 77 f6 dc 3d 07 b3 42 3e 98 01 a9 bd
       -0.042216856 0.10789197 0.19013606 -0.08252257
000020 1a b3 7c be f2 2c 30 3c 1f 65 0d be 9b ec 87 bc
       -0.24677697 0.010752903 -0.13808106 -0.016592314
000030 d5 c5 dc 3c c3 11 b2 bd 32 94 5f 3b 2e b7 59 3e
       0.026949802 -0.08694794 0.003411543 0.21261284
000040 f7 a1 ef 3d 0d 10 d4 3d b2 6c 89 bd d7 45 4d bc
       0.11700814 0.10354624 -0.06710185 -0.012528858
000050 a1 ca 08 3e 4d fa 61 bd 45 a7 23 bd b6 6a 49 be
       0.13358547 -0.055170346 -0.039954443 -0.19669613
000060 3c e5 4b bb 1c 1d 33 bd 7e 24 11 3e f6 52 39 bd
       -0.0031111976 -0.043728933 0.14174077 -0.045245133
000070 51 1f f4 bc 1b cf c3 3c ea 9a b5 3d 16 6b 12 3e
       -0.02980009 0.023902467 0.08867438 0.14298663
000080 a8 83 b6 3d ab ba a1 3d 07 c6 62 3d 38 9a d4 bd
       0.0891183 0.07896932 0.055364635 -0.103809774
000090 28 78 c2 3c 9f 24 b6 bd 38 0c 8d 3c db df 91 ba
       0.023738936 -0.08893704 0.01721774 -0.0011129336
0000a0 a7 c1 80 be ad a4 0a be b3 31 65 be eb 64 d8 3d
       -0.25147745 -0.13539381 -0.2238224 0.105661236
0000b0 e9 7e 40 bd aa 3d 08 be 3d 2d 0b 3d 95 03 10 be
       -0.04699603 -0.13304773 0.03397869 -0.14063866
0000c0 4b d6 17 be a0 08 6b bd 9e a0 18 bd 99 62 8d 3d
       -0.1482784 -0.057381272 -0.03726255 0.06903572
0000d0 b0 c2 34 bd 17 5e 57 3c ea ee d2 3d 53 6a 08 3e
       -0.04413098 0.013144991 0.102994755 0.1332181
0000e0 ea 6d cf 3d 63 34 b9 bd 01 73 a2 bd 82 fd 93 bd
       0.10128386 -0.09043195 -0.079320915 -0.07226087
0000f0 c2 99 de 3d 3b ef a1 bd 41 4a 81 3d ff 81 2c 3d
       0.10869171 -0.07906958 0.06312991 0.04211616
000100 14 d0 ca bc d4 30 5a bd db 11 f6 bc 13 fa f7 bc
       -0.024757423 -0.053269222 -0.030037811 -0.030270612
000110 39 5a f6 3c 03 97 05 3d 8d 7c 00 bd 55 09 0d be
       0.030072318 0.03261472 -0.03136878 -0.13773091
000120 4e d4 c1 be 81 82 16 be 10 64 66 bd 23 db 7e bd
       -0.37857288 -0.14698221 -0.05624777 -0.062220704
000130 16 49 05 bd ba 4a a8 3b 09 79 42 bd e8 0a ed 3d
       -0.032540403 0.005135861 -0.04747871 0.11574346
000140 c9 3c 72 bd 90 28 80 3b ff fb f7 bd 91 f9 d0 bd
       -0.05914 0.0039110854 -0.12108611 -0.10203851
000150 af f7 67 3b eb a5 bb bc 87 63 83 3d 01 34 8c bc
       0.0035395434 -0.022906264 0.06415468 -0.017114641
000160 45 d9 3f 3c 23 91 29 bd 7f e5 0e bc da 95 2f 3e
       0.011709516 -0.04139818 -0.008721708 0.17147008
000170 80 4f c0 bd 80 70 a6 bd 59 6d 83 bc d4 02 3c 3e
       -0.093901634 -0.081269264 -0.016043352 0.18360454
000180 f9 56 b3 bd 53 79 22 3d 5f 17 76 bd e0 37 dc 3d
       -0.08756823 0.039666485 -0.060080882 0.10752845
000190 e7 e7 96 3c 48 69 fd bd f2 52 bb 3c c4 39 3e bd
       0.018421127 -0.123735964 0.0228667 -0.04644181
0001a0 69 52 9a be 93 7e 3c 3c b5 fb 20 be 92 74 aa bc
       -0.30141 0.011504787 -0.15721019 -0.020807538
0001b0 5b 88 18 3e 7d 74 b0 3d 96 0e 77 bd 4c 5f 2c 3d
       0.14895765 0.086159684 -0.060316645 0.04208307
0001c0 ae dc 49 bc 3a 3b f0 3d 43 df 3f 3d e7 64 06 bc
       -0.012320681 0.117300466 0.04684378 -0.008202768
0001d0 20 1d 0f bd e8 79 28 bd 45 90 d9 3d cf b0 1e 3e
       -0.034939885 -0.041131884 0.1062322 0.15497135
0001e0 ea ff d0 bd f2 8b 30 bd a4 f7 0f 3e a8 1d b7 3d
       -0.10205062 -0.043102212 0.14059311 0.08941203
0001f0 81 4f 04 3e 7a 52 ee bd d1 29 ad 3d bb 23 c3 bc
       0.12920953 -0.11636825 0.084552415 -0.023820749
000200 1c ad 62 3e da 85 ac 3c ff 30 00 be 5d f1 4a bd
       0.22136348 0.02105992 -0.1251869 -0.04954659
000210 2d 01 8a 3d ba 3d 3e 3d 16 b9 ca bd 3f 7b 14 3d
       0.067385055 0.046445586 -0.098985836 0.03625035
000220 d2 db a3 bb 8c a5 21 bc 02 e4 c4 bd e9 ff 26 bc
       -0.00500057 -0.00986613 -0.096138015 -0.01019285
000230 e5 9b fe bd 6d ac 5f 3d c4 25 06 bb 9a 24 13 bd
       -0.12432078 0.054607797 -0.0020469287 -0.035923578
000240 a2 d9 49 bd 85 bf e4 3d 0b 13 14 3e 02 26 99 3b
       -0.049279816 0.11169342 0.1446039 0.0046737203
000250 3e 98 52 bc 65 d6 0b 3d 6d a6 05 3e 88 5d 4d 3c
       -0.01285368 0.03414001 0.13051768 0.012534507
000260 15 a6 96 bd 65 bd a7 bd 6e dd 06 3c c7 83 0b bd
       -0.073558964 -0.08190421 0.008231504 -0.03406122
000270 ab bb 8c bd 14 ff f1 bc 32 d0 89 3b da 7f e3 bd
       -0.06871732 -0.029540576 0.004205727 -0.1110837
000280 6c 55 a6 3d 61 25 77 3d ce 18 68 be 43 9e 8c bd
       0.08121762 0.06033838 -0.22665712 -0.068661235
000290 ce 18 0b be f7 aa 59 3c b1 c1 0c 3e 68 c1 2b bd
       -0.13583681 0.01328539 0.13745762 -0.041932493
0002a0 f2 89 b9 bc 5d 82 da 3c 0c 19 8b 3b 12 eb 17 3e
       -0.022648785 0.02667349 0.004244929 0.14835766
0002b0 9d 08 4e bc c2 bb fb bc 65 33 ac 3c 9c ed 46 3b
       -0.012575296 -0.030729178 0.0210206 0.0030354029
0002c0 66 93 1d 3c 81 96 17 3e 57 3c b3 bc 6e 0c 89 3e
       0.009617662 0.14803506 -0.021879358 0.26767296
0002d0 48 85 f1 bd 18 5a 24 3e a9 82 7b bc 58 b8 c2 bd
       -0.117929995 0.16049993 -0.015350976 -0.09507817
0002e0 a9 b5 85 3a f0 87 bc bd c2 c2 33 be 5f 22 b7 bd
       0.0010201234 -0.092056155 -0.17554763 -0.08942103
0002f0 83 cc 6c bd 0f 03 3e bd 74 da ba bd 8c fb 96 3c
       -0.057812225 -0.046389636 -0.09123698 0.018430494
000300 82 80 9e 3c a1 cd 25 3d e1 96 0d bc ac 31 be bd
       0.019348387 0.040479306 -0.008641929 -0.09286818
000310 e8 58 76 3d b0 c5 e2 bb 17 03 32 be a8 4d cd 3d
       0.06014338 -0.006920539 -0.17383991 0.100245774
000320 ce 03 9d 3c b3 92 36 3e 07 e8 2c bd e9 e5 6f 3d
       0.019166853 0.17829399 -0.042213466 0.05856887
000330 fb 46 ed 3b 62 bb a1 3c 4f 19 bd 3c 2d 81 56 3d
       0.0072411275 0.019742671 0.023083357 0.052369285
000340 9f a3 ba bd 82 3a a0 b9 09 da db bc a1 31 f4 bc
       -0.091132395 -0.0003056117 -0.026837366 -0.029808821
000350 27 07 83 be 73 72 7c 3d 19 a2 dc 3b cf 12 85 3d
       -0.25591394 0.061632585 0.0067331907 0.06497728
000360 f2 de b8 3d 33 a4 af bd 74 2a 33 bd b8 0a 00 3e
       0.090268984 -0.085762404 -0.04374166 0.12504089
000370 aa be 67 3e 04 d7 c1 3d 1c 0e 7a bd 1c fc 94 bd
       0.22631326 0.09464839 -0.061048612 -0.072746485
000380 8d 4d 92 3d 2b 1b 43 3d c7 7d a1 bd ce 1e db bc
       0.07143698 0.04763333 -0.07885318 -0.026748087
000390 bc 9e aa bd 05 7c f7 bc 03 7b ee 3d f9 92 87 3d
       -0.083310574 -0.030210504 0.116445564 0.0661983
0003a0 ea 3c 17 be 7b 40 c5 bc 07 4e 00 be 9f 89 af bd
       -0.1476933 -0.024078598 -0.12529765 -0.08571171
0003b0 0d 62 a2 3c 2c da 92 3e 51 9a f8 bc 9f a2 e1 3b
       0.019822145 0.28682077 -0.030347021 0.006885841
0003c0 07 5a a6 bd e5 24 05 3e 9b 2a 00 bc cb c5 6d bd
       -0.0812264 0.13002355 -0.007822658 -0.05804996
0003d0 c4 14 22 3d d0 3e 61 bd 9c 99 cb 3d 74 13 14 3d
       0.039570585 -0.054991543 0.09941408 0.036151364
0003e0 86 c9 9c 3d f1 e2 a2 bd 08 ab 94 bd 37 58 24 be
       0.07655625 -0.07953442 -0.07259184 -0.16049276
0003f0 42 7a 9e 3d f3 f1 fc bd 1d 81 aa bd 3a fc 4c 3d
       0.077381626 -0.12350836 -0.08325408 0.05004523

transformer.layers.0.linear1.bias f4 [128]
000000 2f 0a f3 3a f6 e4 d6 bd 36 e9 5a bd 83 a6 b2 3c
       0.0018542464 -0.104928896 -0.053445064 0.021807915
000010 73 ba b8 bc 2f 49 9a 3d 6e 0b 5a 3d ae 65 40 3d
       -0.022549843 0.0753349 0.053233556 0.04697197
000020 a2 66 91 bd e8 f1 88 bd 0d 93 84 bd 8e 54 c0 bc
       -0.07099654 -0.06686765 -0.0647336 -0.023477819
000030 a7 a4 54 3a 2f dd 61 bc bc 02 f1 bd fd fa eb bd
       0.00081116933 -0.013785644 -0.117681 -0.115224816
000040 53 55 27 be b3 5b ea bc 73 a7 0b be 10 c9 b9 bd
       -0.16341142 -0.028608179 -0.13638096 -0.09071553
000050 ea 6d d6 bd 38 de 5b 3d b5 b5 10 be 10 82 96 bd
       -0.10470183 0.05367872 -0.14131816 -0.07349026
000060 76 2a 2e 3d 87 ad 85 bd 7c 17 f4 3c a6 60 33 be
       0.042520963 -0.06527238 0.029796354 -0.17517337
000070 a9 55 39 3d f8 80 63 3d 25 bc de bd 62 e2 17 bc
       0.045247708 0.055542916 -0.108757295 -0.009270282
000080 75 cd 32 bd bf ec dc bd 1e c9 42 be d0 6b 84 bd
       -0.04365297 -0.10787343 -0.19022033 -0.06465876
000090 54 5f ff bd b1 86 5b bc 22 47 94 3b 6f 85 b4 bd
       -0.12469354 -0.013398812 0.0045250813 -0.08814513
0000a0 c9 c4 01 be b2 30 f4 3c 39 9d dd bc a2 9d 2f bd
       -0.12672724 0.029808376 -0.027052509 -0.04287494
0000b0 8e 16 33 3d f2 37 53 37 87 27 ce 3d c1 88 ea bd
       0.04372268 1.2589606e-05 0.10066133 -0.11451865
0000c0 a6 b1 5f bb e7 08 df 3c be 2c 13 bd 79 d6 b2 bd
       -0.0034132986 0.027225925 -0.03593134 -0.08732314
0000d0 e7 e7 60 3d f0 34 e9 3b c4 c9 33 3d 31 ce 95 bd
       0.05490866 0.0071169063 0.04389359 -0.073147185
0000e0 86 00 9a 3d 70 8e 2f bc 6f cf a7 3d fd 72 db bd
       0.07519631 -0.010715112 0.08193862 -0.10715292
0000f0 68 ce 92 bd fd 0b 90 bd 8e b2 8d 3d 92 20 a2 bc
       -0.07168275 -0.070335366 0.06918822 -0.019790921
000100 88 79 d7 bd 94 ce 32 bd 3c 11 d1 bd c2 f7 1e bd
       -0.10521227 -0.04365404 -0.10208365 -0.0388105
000110 bb 02 34 bd a6 cc 6e 3d 9b 9e 43 be e8 9b 7f 3d
       -0.043947916 0.058300637 -0.19103472 0.062404543
000120 e8 c1 b4 bd 3b 31 d7 bd 39 f0 cf 3d 1a 84 9e bd
       -0.08826047 -0.10507437 0.10153241 -0.0774004
000130 84 45 2d 3b 6c 69 9d bd b1 b2 b1 bd 5a 52 3e be
       0.002643914 -0.07686123 -0.08676661 -0.18586102
000140 a6 b2 74 bc 86 8b 4e 3b 71 f1 43 bc 0c 79 40 3d
       -0.014935171 0.0031516268 -0.01195942 0.04699044
000150 ba b7 44 3d 6f da 0a be 39 bb 5d 3c 69 00 4f bc
       0.048026778 -0.13559888 0.013533407 -0.012634375
000160 19 36 6c 3d e8 02 be 3c c1 e8 fb bd 54 85 c9 bc
       0.05766878 0.023194745 -0.12300254 -0.024599709
000170 cd 36 1f be 30 03 b0 3d be 56 bf bd 4b 56 e6 bc
       -0.15548249 0.08594358 -0.09342717 -0.02811732
000180 1c 6f 15 be 1c 9e ca 3d a1 ff 76 bd 6d 3e 69 3d
       -0.14593166 0.09893438 -0.06030238 0.0569443
000190 f3 66 0d 3d 8c 3f f3 bd a2 d9 c5 bc d0 47 80 3d
       0.03452201 -0.11877355 -0.024151627 0.06263697
0001a0 34 78 0d bd 05 82 a4 3d 23 a2 4e bc 39 15 ea 3c
       -0.034538463 0.08032612 -0.012611899 0.028574573
0001b0 85 c6 bb bd 99 c6 7b bd f7 f4 e6 bd 37 f8 08 3d
       -0.09168724 -0.061468694 -0.11277192 0.03343984
0001c0 c3 13 0d bd 6e b4 8b 3d 37 69 52 bd 36 ac ad bd
       -0.034442674 0.068215236 -0.051369872 -0.08480112
0001d0 ac d8 c5 bc 7e 26 52 bd 94 4d b2 3b 60 85 94 bb
       -0.024151169 -0.05130624 0.005441377 -0.004532501
0001e0 e0 11 0c be 99 3d e5 bd a5 94 75 bc 61 d6 76 bc
       -0.13678694 -0.111933894 -0.014989053 -0.01506576
0001f0 b5 2b 5e bd d7 6f fc bb 8f 4a 17 be 17 87 11 3d
       -0.0542409 -0.007703762 -0.14774536 0.035529222

transformer.layers.0.linear2.weight f4 [64, 128]
000000 b8 e6 89 bd 50 d0 5e 3d 3e 68 db bd ce 76 06 bc
       -0.06733459 0.05439788 -0.10713242 -0.008207036
000010 5f 59 9c bd e2 22 cd 3d b1 09 66 bd 59 ca 18 3b
       -0.07634234 0.10016419 -0.056161586 0.0023313968
000020 a6 c7 9a bc ed 1d 1e bd 0f 7f 11 be bb 2d 42 3d
       -0.018894028 -0.03860276 -0.14208625 0.047406893
000030 2b eb 01 bc 3f 22 79 bc 7b ca 6e bd dd 6c 80 bd
       -0.007929604 -0.015205919 -0.05829857 -0.06270764
000040 35 c6 05 3d ff b4 89 bd d7 c7 ec 3a 83 2a b8 3d
       0.032659728 -0.067239754 0.0018064928 0.089924835
000050 4b 7e d7 bc 05 2f 26 3e 8d f3 b4 bd 7e 15 02 3d
       -0.026305338 0.16228874 -0.08835516 0.031758778
000060 52 e2 b4 bd 86 8b bd bc 9a 86 42 bd 4a 5b 3e bd
       -0.0883223 -0.023137819 -0.047491647 -0.04647378
000070 01 93 d8 bd 7b 49 04 3c 35 39 56 3d 8a fc bc 3d
       -0.10574914 0.00807416 0.05230065 0.092278555
000080 ff 65 01 be 63 d9 e7 3d 1f 40 78 bd f7 33 72 bb
       -0.12636565 0.1132076 -0.060608026 -0.0036957243
000090 61 dd 08 3e f5 a3 1a 3d 9b f6 90 bd 5f 5e c5 3d
       0.133657 0.037754018 -0.07078286 0.096371405
0000a0 19 6d 8d 3d e8 18 8b bd 56 ff 71 bd 40 e4 c6 bd
       0.06905574 -0.0679186 -0.059081398 -0.09711504
0000b0 83 1b 1e 3c cc ae c1 bd ad a7 14 3e 10 65 f2 3b
       0.009650114 -0.09457168 0.14517088 0.0073973015
0000c0 ed 92 c2 3d eb 4f 63 bd 16 2e 04 be 62 1c b4 3d
       0.0950068 -0.055496138 -0.12908205 0.08794476
0000d0 90 92 f2 3c 69 de c1 bc 7e 63 10 bd 90 b1 27 3d
       0.029610902 -0.023665624 -0.035251133 0.04094082
0000e0 ab d8 ed 3b 7f 75 8f 3d 79 88 5c 3d fb db 04 3e
       0.007258495 0.070048325 0.053841088 0.12974541
0000f0 9f 10 34 3d 3f 3f f5 3c a8 5e c2 3d d6 19 cf 3d
       0.043961164 0.029937385 0.094907105 0.1011235
000100 e3 b4 ac 3c 36 28 57 bd 45 70 7a bd 6d 33 13 bc
       0.021082347 -0.052528583 -0.061142225 -0.008984429
000110 92 80 9b 3a 1c c4 05 3e d1 f8 2a bd a6 f3 43 bd
       0.0011863878 0.13063091 -0.041741196 -0.047839783
000120 50 68 64 3d e2 2c b6 bd 94 d4 9a bc ca 27 a4 3d
       0.055763543 -0.088952795 -0.018900193 0.08015402
000130 60 36 ad 3d 04 5e e2 bd 7a 0a 35 be f7 dd e6 bc
       0.08457637 -0.11053088 -0.17679778 -0.028182013
000140 db 12 a7 bd 79 3f e2 bd 02 34 69 3d ee 99 8e bd
       -0.08157893 -0.11047263 0.056934364 -0.069629535
000150 35 d0 ca 3d 07 ad de bd 27 86 25 bd a2 bc c7 bd
       0.099029936 -0.10872846 -0.04041114 -0.09752776
000160 de 5f 0a 3d 43 9f 37 bd 1b 6b d9 bc 02 12 58 bd
       0.033782832 -0.04482962 -0.02654033 -0.05275155
000170 71 5c e1 3d 76 85 1d bd 47 73 b1 bc ff 50 9b 3c
       0.1100396 -0.038457356 -0.021661414 0.01895952
000180 75 62 8c 3d d6 04 3c 3c 68 63 d6 3c fb 9b d2 3d
       0.06854717 0.011475762 0.026170447 0.10283657
000190 7a a9 bc 3d b1 29 4e bb 5f da ff 3c 5a 7a 7e 3d
       0.092120126 -0.0031457955 0.031232057 0.062128402
0001a0 5b 9a a6 bb e2 2a e6 3c 43 7f be bd 56 52 c4 bc
       -0.0050843186 0.02809662 -0.09301617 -0.023965042
0001b0 b8 af ac bc 85 c9 f5 3c 79 ec 95 3d 85 ff 9a bc
       -0.021079883 0.030003319 0.07320494 -0.01892067
0001c0 d8 21 48 bb f7 9b 3e bd 27 88 09 bc a1 79 12 3d
       -0.003053775 -0.04653546 -0.008394278 0.035760526
0001d0 3c 1a ce 3b 92 49 cb bc 0c 7d 33 3c cb 2f dc 3d
       0.0062897485 -0.024815354 0.0109551065 0.10751303
0001e0 99 25 2e 3d ec c1 ae bd 53 b3 20 bd 6b 7d bd bd
       0.042516325 -0.085330814 -0.039233517 -0.09252437
0001f0 a5 a7 b4 3d 10 ef c7 bd e3 d7 c6 bd ff 1e ef 3d
       0.08821038 -0.097623944 -0.09709146 0.11675834
000200 3a e1 1d bd ef 45 1a bd 7e f8 d1 3c 54 2b bf bd
       -0.03854487 -0.03766435 0.025631186 -0.09334436
000210 9b 83 08 3a 8d 35 25 bc 2b 0b 29 3e dc aa ae 3d
       0.0005207599 -0.010083568 0.16508166 0.085286826
000220 d3 61 19 3d 44 a3 2e bd 43 5c a6 3d a0 31 1c 3e
       0.037446808 -0.04263617 0.08123066 0.15253305
000230 8d a4 d9 bd e9 83 38 3c 3b 91 43 bd af 59 a1 bc
       -0.10627089 0.011261919 -0.047745924 -0.019696085
000240 73 c8 ed 3d e1 50 0a 3d a5 64 b2 3d 7a dd c4 bd
       0.11610498 0.03376854 0.08710603 -0.09612556
000250 21 f6 49 3d cf 05 39 be cb 11 58 3d 7e 31 7c 3d
       0.049306992 -0.18068622 0.052751344 0.061570637
000260 8b 35 3b 3d 56 1e 67 3d 18 6f 5c 3c 59 df 1c 3d
       0.04570536 0.056425415 0.013454221 0.03829894
000270 a6 5e b2 bd 1c 0d f5 3d 06 42 89 3d 82 b6 89 3d
       -0.08709459 0.11965391 0.06702046 0.06724264
000280 a1 98 bd bc f9 e1 b8 3d 29 8b 98 3d 1f b4 f0 bc
       -0.023144068 0.09027476 0.07448418 -0.029382763
000290 9b 8d 49 3c 1a c0 c1 bc 1c a7 43 3d f2 41 1c ba
       0.012301828 -0.023651171 0.04776679 -0.00059607544
0002a0 2d 22 d8 bd be 2d 91 3d d7 ad 61 39 cc 2b a6 bc
       -0.105533935 0.07088803 0.00021522433 -0.020284556
0002b0 50 24 7e 3d c6 4f c0 3c 63 1c a2 3d ee 0a 6a bd
       0.06204635 0.023475539 0.079155706 -0.05713933
0002c0 99 8d 13 be 3a b1 2a bd d8 d6 bc 3d 11 0c 3e be
       -0.14409484 -0.041672923 0.09220666 -0.1855929
0002d0 95 39 cb 3c c5 c3 05 bd bc a3 22 3d 24 c0 3c bd
       0.02480773 -0.032657403 0.03970693 -0.046081677
0002e0 bc 13 80 3d 0c 29 41 3e ea 17 05 3d 3e 2b 8a 3d
       0.06253764 0.18863314 0.03249351 0.06746529
0002f0 2a 20 0f bd 3c d0 bc 3d 40 2b 89 3d 56 de 02 3e
       -0.034942783 0.09219405 0.066977024 0.12780127
000300 56 98 5d 3d 96 b3 b4 3d 41 da c8 bc f9 88 10 3d
       0.054100357 0.08823316 -0.024518134 0.035286877
000310 6e 9d 2d bd f7 a5 c7 3d c8 7e c3 3d 90 fa 22 bd
       -0.042386465 0.09748452 0.09545666 -0.039789736
000320 97 c6 0a 3d 25 7b 81 bd 0a cc a7 bd 9f b7 80 bd
       0.033880796 -0.06322316 -0.08193214 -0.06285023
000330 0a 82 62 bd f7 3a 79 3d 28 e7 03 be 52 13 f3 bc
       -0.055299796 0.06084725 -0.12881148 -0.029672299
000340 1e 4b 2a 3c 69 91 16 bc 54 91 87 3d 29 75 b0 3c
       0.010393886 -0.009189942 0.06619516 0.021540241
000350 dd 71 75 3d 8d 90 26 bd d5 6e 9f 3d 56 97 58 bd
       0.05992304 -0.040665198 0.077848114 -0.0528787
000360 27 b8 ad bd 6e 9d 3f 3e 78 7d b8 bd 68 24 b1 bc
       -0.0848239 0.18712398 -0.09008306 -0.021623805
000370 79 34 2d 3d be 43 67 3d 9f 28 0d bd 1a a4 0d 3c
       0.04228637 0.05646109 -0.034462567 0.008645082
000380 26 52 b9 3d 49 91 88 bc b9 b0 5f 3d 60 91 47 bc
       0.09048872 -0.01667084 0.054611895 -0.012180656
000390 be 83 b9 bc 4c 28 53 3d b8 70 6b 3d 8a 03 88 bd
       -0.022645827 0.051552102 0.057480544 -0.066413
0003a0 2a b7 4a 3c d3 3f e8 bc 41 d1 57 bc 1f de 1b 3d
       0.012372771 -0.028350746 -0.013172449 0.038053628
0003b0 ba 22 01 3d 1b 27 da bb 54 fa 3d bc 2f d1 7e 3d
       0.03152726 -0.0066574938 -0.011595327 0.06221121
0003c0 9a 46 3f 3d da 21 cd 3c fa d0 3d bd 21 31 7c bc
       0.04669819 0.025040556 -0.046341874 -0.015392573
0003d0 e0 cf 48 bd b9 c4 54 3a 27 f3 b5 3c 26 97 52 be
       -0.04902637 0.0008116472 0.02221067 -0.20565471
0003e0 1a f1 8e b6 ce 12 a7 3d 83 64 92 bd 15 8f d2 3d
       -4.2599977e-06 0.081578836 -0.07148077 0.10281197
0003f0 dd b8 3c 3d 2e 95 01 be 94 2c 13 bc 24 e3 5e bd
       0.046074737 -0.12654564 -0.008982796 -0.054415837

transformer.layers.0.linear2.bias f4 [64]
000000 f8 44 a1 3d 0d da 52 bc f6 15 89 bc 2d 41 30 bd
       0.07874483 -0.01286937 -0.016734105 -0.043030906
000010 08 0f 25 3d 07 16 b4 3b 69 5d 7a bc ae 8a 1e bd
       0.040297538 0.00549579 -0.01528106 -0.038706474
000020 84 7d 04 bc 61 f8 f5 bb 26 2d e7 3b d7 6b ea 3c
       -0.008086566 -0.0075064157 0.0070549427 0.028615875
000030 c5 b3 81 bd 85 8d 4c 3d 99 b4 5b 3d 0c f0 93 3d
       -0.063331164 0.04993965 0.05363903 0.0722352
000040 9d d9 83 ba 9d 9c 22 3d 58 06 ff 3c 92 cd 25 bd
       -0.0010059361 0.03970014 0.031130955 -0.04047925
000050 2c 5f f6 3c 47 ef 75 3d a6 53 6c 3d 21 6d f4 3c
       0.030074678 0.060042646 0.05769696 0.029837193
000060 65 3f 80 3d f2 07 b0 3c 84 d0 91 3d a6 4d 95 bd
       0.062620915 0.021488164 0.07119849 -0.07290201
000070 86 83 6d bd ef 45 95 bd 44 ca 2f 3d 9b da 34 bc
       -0.05798676 -0.072887294 0.042917505 -0.011038448
000080 ee 92 53 3d 74 b9 13 3d a8 b1 49 bd e2 45 a5 bd
       0.051653795 0.036065534 -0.04924169 -0.0806997
000090 45 00 48 bd c0 8b 41 bc 21 e8 aa bd 2c ae 02 bd
       -0.048828382 -0.011813104 -0.08345056 -0.031904384
0000a0 e4 f8 bc 3d a1 ef 1c 3d ce e7 9c 3b 96 34 ce bc
       0.092271596 0.038314465 0.0047883755 -0.02517156
0000b0 44 34 d5 bc 4d 4a c0 bb 6e 63 be bd e3 cb de 3b
       -0.026025899 -0.0058682323 -0.092963085 0.0067992075
0000c0 f8 51 66 3d 59 bf c8 3c 15 e4 aa bd 9e 13 05 3e
       0.056230515 0.024505304 -0.083442844 0.12995765
0000d0 20 d8 64 3c e7 97 6a 3d 64 bd 89 bc be 90 49 3d
       0.013967544 0.05727377 -0.016813941 0.049210303
0000e0 90 e8 34 bd af 3e 15 bd 71 59 af ba 10 40 fd bb
       -0.0441671 -0.036436733 -0.0013378096 -0.007728584
0000f0 05 19 6d 3d 60 d9 47 bc af b7 d1 bc 17 b0 b7 bc
       0.05788519 -0.012197822 -0.025600282 -0.022422833
