results/StandardScaler/TransformerModel_w500.pth (torch, 422086 bytes, 40 tensors)

input_projection.weight f4 [64, 6]
-0.18649866 0.117238134 0.20567706 0.2661978 0.24194571 -0.34132317 0.11723402 0.26014075
0.122744344 0.12750284 -0.059572283 -0.027558746 0.016698368 0.057077117 0.26623344 0.28141403
-0.08686717 0.31767774 0.3808761 -0.13195668 -0.151765 0.31079483 -0.24926977 -0.04011101
-0.14311782 0.0442868 0.09794819 -0.28578314 -0.4410138 -0.255462 -0.16819145 0.14619151
0.2611182 0.1700226 -0.12742746 0.04832501 0.42951208 -0.31864798 0.023235908 -0.18056896
-0.3732704 0.015169301 -0.064006746 -0.020368414 -0.2907669 -0.37014705 0.19579369 0.31045493
0.28859454 0.13677341 0.30608848 0.26882955 -0.30734646 0.2590232 -0.3426431 0.2687464
0.16846286 0.08003047 0.37856343 -0.111472115 -0.17598356 -0.07012035 -0.37277043 -0.2475172
0.29707792 0.11804003 0.17768028 -0.06172562 -0.19984901 -0.03676678 0.024729468 0.2503961
0.18869577 0.21841875 -0.16179194 -0.2797252 -0.35955822 0.16216917 -0.20936131 0.26398817
-0.03972705 0.28850886 0.18695016 0.25351092 0.42686275 -0.024680158 0.00521386 0.24854346
0.11844939 0.14274026 0.22015803 -0.25713405 -0.27372357 0.16770798 -0.3461686 0.34152174
0.21622922 -0.20721005 0.1241925 -0.43027285 0.36032948 -0.2225936 -0.105882615 -0.28888047
-0.3658877 0.21833721 0.32946417 -0.20905651 -0.094404675 0.3310537 0.061320316 0.14622739
0.3882525 0.029754937 -0.3161014 0.07295414 -0.13780706 -0.32839707 0.20485838 0.08533607
-0.12668748 0.37978348 -0.029258283 0.40819252 -0.39042762 -0.37855035 0.27216482 -0.14941783
0.06418805 -0.10823722 -0.06393588 0.3741034 0.20730458 0.27769035 -0.023710607 0.08404633
-0.21610983 0.21626188 -0.32036802 -0.08817724 0.22889607 -0.3844983 0.19345541 0.27168992
0.05451019 -0.131057 -0.3208912 -0.083974466 -0.1180331 0.0086359605 -0.28471044 -0.007997385
0.05332019 0.23453362 0.26453403 0.1824103 -0.37514338 -0.076073006 0.3440944 0.035863455
-0.18800703 0.36117405 0.08625382 -0.11450005 0.118011735 -0.13090289 -0.3725062 -0.11948203
-0.28252345 -0.2725137 0.13291578 0.21990515 0.11802022 0.036617365 0.10559868 -0.012685004
-0.15422188 0.21084774 0.011603257 -0.36063 0.3995157 -0.14627507 -0.34652457 -0.44329244
0.07192587 0.13703746 -0.41800284 0.04672832 -0.39038563 -0.36710835 -0.43471584 0.4069227
0.082735725 0.016605295 -0.02268369 -0.42706645 0.20469664 -0.09715216 -0.18502067 0.27841082
-0.25303555 -0.3334989 -0.07597651 -0.033384755 -0.011198264 -0.061081477 0.14701656 0.27012825
0.22093666 -0.30160192 0.35945982 0.016431227 -0.061866906 0.32190073 0.04496402 0.29163554
0.015444037 0.12246492 0.30830213 -0.3250753 0.16841182 -0.19011009 0.24733731 0.30834883
-0.1994113 -0.051557902 0.25951567 0.110404305 0.10901123 -0.08924316 0.45145056 0.115580454
0.112706326 -0.045126542 0.10148248 0.2411486 0.052802138 0.09285587 -0.04506309 0.37279782
0.11377677 0.1233675 -0.17778528 0.04171453 0.03177732 0.2142075 0.35920712 0.294232
-0.08804582 0.40469685 -0.1901097 -0.0103228 -0.052754663 0.041585 0.2868065 -0.41603944
00000000: 81f9 3ebe 8c1a f03d 029d 523e 144b 883e
00000010: 9ec0 773e e9c1 aebe 6418 f03d 2b31 853e
00000020: 6361 fb3d 1b90 023e 1102 74bd e1c2 e1bc
00000030: 04cb 883c b2c9 693d c04f 883e 8015 903e
00000040: 6ae7 b1bd a8a6 a23e 3102 c33e a71f 07be
00000050: 4968 1bbe 8020 9f3e 9340 7fbe 714b 24bd
00000060: 7a8d 12be 1366 353d 1099 c83d 2b52 92be
00000070: 90cc e1be eacb 82be 613a 2cbe 3ab3 153e
00000080: 49b1 853e 681a 2e3e 587c 02be 72f0 453d
00000090: 02e9 db3e d425 a3be 3b59 be3c 12e7 38be
000000a0: 4c1d bfbe a988 783c f815 83bd a9db a6bc
000000b0: 66df 94be ea83 bdbe 247e 483e f3f3 9e3e
000000c0: aac2 933e 540e 0c3e a1b7 9c3e 07a4 893e
000000d0: 845c 9dbe b09e 843e eb6e afbe 2199 893e
000000e0: 8781 2c3e 04e7 a33d 11d3 c13e 7e4b e4bd
000000f0: 0935 34be 429b 8fbd c4db bebe 2675 7dbe
00000100: 991a 983e f9be f13d d2f1 353e 01d4 7cbd
00000110: 38a5 4cbe c398 16bd 7495 ca3c eb33 803e
00000120: 7739 413e 2aa9 5f3e c9ac 25be 2438 8fbe
00000130: 0418 b8be ad0f 263e d062 56be 7529 873e
00000140: d5b8 22bd 6fb7 933e dd6f 3f3e 2fcc 813e
00000150: c18d da3e 0b2e cabc 07d9 aa3b 2d82 7e3e
00000160: 9895 f23d 812a 123e 1b71 613e 13a7 83be
00000170: 7f25 8cbe a4bb 2b3e 033d b1be f0db ae3e
00000180: 316b 5d3e df2e 54be a358 fe3d b94c dcbe
00000190: 1b7d b83e 94ef 63be fcd8 d8bd 24e8 93be
000001a0: a255 bbbe ca93 5f3e 87af a83e e912 56be
000001b0: 3d57 c1bd df7f a93e 032b 7b3d a2bc 153e
000001c0: 08c9 c63e a0c0 f33c 0bd8 a1be fb68 953d
000001d0: 4b1d 0dbe a923 a8be 65c6 513e adc4 ae3d
000001e0: 5dba 01be fb72 c23e 11af efbc 9cfe d03e
000001f0: 21e6 c7be 5ad1 c1be 3059 8b3e fd00 19be
00000200: 0675 833d 7aab ddbd d1f0 82bd 7b8a bf3e
00000210: a747 543e 6e2d 8e3e bf3c c2bc 7b20 ac3d
00000220: e54b 5dbe c173 5d3e 4707 a4be 4596 b4bd
00000230: bb63 6a3e f6dc c4be 2d19 463e f11a 8b3e
00000240: 1446 5f3d ce33 06be da4b a4be cefa abbd
00000250: 57bb f1bd d87d 0d3c 91c5 91be 7707 03bc
00000260: 4666 5a3d 9529 703e 0171 873e c4c9 3a3e
00000270: cb12 c0be 2acc 9bbd 242d b03e 8fe5 123d
00000280: ea84 40be ceeb b83e d8a5 b03d 017f eabd
00000290: 23b0 f13d 680b 06be 22b9 bebe ffb2 f4bd
000002a0: eaa6 90be ea86 8bbe 131b 083e d12e 613e
000002b0: 96b4 f13d 17fc 153d 1f44 d83d c3d4 4fbc
000002c0: 57ec 1dbe 78e8 573e 961b 3e3c 7fa4 b8be
000002d0: 528d cc3e 22c9 15be ab6b b1be 3af7 e2be
000002e0: df4d 933d 8c53 0c3e 7804 d6be 3266 3f3d
000002f0: a0e0 c7be a0f5 bbbe 1393 debe 2c58 d03e
00000300: 5971 a93d d407 883c 25d3 b9bc 74a8 dabe
00000310: ff9b 513e b6f7 c6bd 0f76 3dbe dd8b 8e3e
00000320: e08d 81be 5ec0 aabe 9399 9bbd 74be 08bd
00000330: ec78 37bc 9230 7abd 828b 163e 404e 8a3e
00000340: 383d 623e 916b 9abe 1e0b b83e c89a 863c
00000350: 2768 7dbd 2cd0 a43e 312c 383d 4151 953e
00000360: fc08 7d3c e3ce fa3d c7d9 9d3e 4570 a6be
00000370: 2674 2c3e 38ac 42be fe45 7d3e e6df 9d3e
00000380: 7a32 4cbe 612e 53bd 3ddf 843e a71b e23d
00000390: 4841 df3d 1ec5 b6bd 8724 e73e 72b5 ec3d
000003a0: 93d2 e63d 9cd6 38bd 0cd6 cf3d a9ef 763e
000003b0: 0e47 583d 382b be3d 1394 38bd 5bdf be3e
000003c0: cc03 e93d 1aa8 fc3d 580d 36be dbdc 2a3d
000003d0: ef28 023d 3659 5b3e ffe9 b73e 94a5 963e
000003e0: 5e51 b4bd 6d34 cf3e 1eac 42be f620 29bc
000003f0: 4615 58bd 0855 2a3d 4dd8 923e 1f03 d5be

input_projection.bias f4 [64]
0.15513052 0.35815752 0.051512785 0.07141043 0.12825412 -0.021180583 0.048910588 -0.24825694
0.37655354 -0.031161645 0.050262615 -0.06385996 -0.057038356 -0.02174604 0.22158395 0.012148007
-0.33113727 -0.11419307 -0.1867965 -0.036187172 0.09151169 0.0011844194 0.32684734 0.15577541
0.014478989 0.07186174 0.37655905 0.029377077 -0.012183378 -0.016781244 -0.15701278 0.31186053
0.11665525 0.1759599 -0.14169078 0.022197053 -0.24122031 -0.3390695 0.25988948 0.31226385
-0.17804928 0.3738246 -0.21208654 0.09127214 -0.109940074 -0.33699453 0.017788896 0.12137888
0.31293043 -0.08228463 0.011835319 0.33899227 0.24320066 0.26209816 0.37672523 0.35397094
0.011414698 0.2774519 0.30004188 0.06439441 0.23306736 0.16377077 0.23514733 -0.07093598
00000000: 89da 1e3e 6c60 b73e 12ff 523d a23f 923d
00000010: 0c55 033e e782 adbc 7856 483d 1137 7ebe
00000020: a0cb c03e b546 ffbc 2ce0 4d3d 03c9 82bd
00000030: 0da1 69bd c024 b2bc e7e6 623e 6f08 473c
00000040: d38a a9be 0ede e9bd 9547 3fbe 0039 14bd
00000050: 7b6a bb3d 853e 9b3a 8958 a73e 9783 1f3e
00000060: 4839 6d3c 3f2c 933d 59cc c03e 32a8 f03c
00000070: cb9c 47bc d278 89bc f5c7 20be 2fac 9f3e
00000080: f3e8 ee3d d52e 343e 6317 11be 98d6 b53c
00000090: 7502 77be 849a adbe 3c10 853e 0ce1 9f3e
000000a0: 8d52 36be f065 bf3e 372d 59be e3ec ba3d
000000b0: 4328 e1bd 8c8a acbe 05ba 913c 7e95 f83d
000000c0: 6b38 a03e d884 a8bd ede8 413c 6590 ad3e
000000d0: 9809 793e bb31 863e 21e2 c03e ae3b b53e
000000e0: b704 3b3c 2d0e 8e3e 179f 993e 37e1 833d
000000f0: 36a9 6e3e 86b3 273e 76ca 703e e246 91bd

transformer.layers.0.self_attn.in_proj_weight f4 [192, 64]
0.085447036 -0.103966266 -0.14204693 0.02710084 0.014728582 -0.06354304 -0.04056908 0.1583917
-0.09687933 0.07763452 -0.06932892 0.080502786 0.14216164 -0.17119715 -0.16262181 -0.020796029
0.11128194 0.0012598074 0.1581557 0.13563934 -0.1448336 0.10814211 -0.17348133 -0.065650105
0.0070369686 -0.103749864 -0.13383237 -0.082629144 0.006588793 0.16146086 0.070007734 -0.124358915
0.04050623 0.07522287 -0.088737674 -0.037675776 0.16949953 0.08994036 -0.07858503 -0.0015082055
0.0034591737 -0.17195562 0.15627967 -0.033022095 -0.08781269 0.09879776 0.073401526 -0.12000697
-0.21891989 -0.021478571 0.119493395 -0.13255778 0.065821856 -0.060251176 -0.06981634 -0.109553166
0.09418821 0.11696442 -0.120200954 0.07789359 -0.09294613 -0.0359225 0.029054204 0.19142446
0.1239298 -0.09712383 0.023276564 -0.1288668 -0.052081566 -0.0340652 0.082374044 -0.10374772
-0.15238081 -0.08503165 -0.125708 0.13295901 0.0839844 -0.03518904 0.13136785 -0.013961279
0.08210691 0.0152815925 -0.085664876 0.07818485 0.10310207 0.07850024 0.106500044 -0.017745784
0.12308858 -0.08182054 -0.12757976 0.0012610937 -0.14752297 0.036875747 -0.036069307 0.092510544
-0.13414246 0.09040697 0.061406605 -0.15386474 0.08674663 0.07514691 -0.08183632 -0.16493514
0.082328714 -0.07612242 0.13514118 0.07973557 0.105078064 0.09126795 -0.02432656 -0.12590322
-0.0938287 0.16107513 0.111381456 -0.045347493 -0.046427775 -0.040855598 0.10679804 0.12384053
-0.15891284 0.0022469636 -0.054883897 0.018909534 0.058472726 0.14906764 -0.0073511424 -0.051339116
0.06912901 -0.051197343 0.05806741 0.12684324 0.19284327 0.13345829 -0.07958628 0.115276575
0.11808237 -0.01737899 -0.10712751 0.0014526293 -0.05728408 0.05518292 -0.014565469 0.077169426
-0.09744062 0.06031172 0.036991086 0.051567297 -0.038171083 0.1417942 0.050950374 0.08095159
-0.058773123 0.15050767 0.018466 -0.020382099 0.012570848 0.08158466 -0.051083837 0.031961683
0.1238912 -0.09022753 0.024902623 -0.072187915 -0.05044924 -0.048327785 -0.05438544 0.07357224
-0.1857579 0.006558016 -0.016973728 0.08909027 0.0940613 -0.05504489 -0.1569931 0.07184114
0.080153845 -0.04094887 0.1421785 0.042143457 -3.0941363e-05 0.12552847 -0.12144618 -0.13007583
0.039827853 0.06402226 -0.013540527 -0.17855336 0.14555083 -0.031360485 -0.09189946 -0.09817182
-0.07058189 -0.05342189 0.06088438 0.080812335 0.1414404 -0.12842242 0.0706333 -0.051724833
-0.16465315 0.10696034 0.103646226 -0.15611684 0.090506576 0.06381268 0.07255443 -0.010001123
-0.10141396 -0.0043020067 -0.038577676 0.037066974 0.0715527 -0.016205808 -0.1486664 0.04508716
0.10560328 -0.047724616 0.09229746 -0.0039749034 -0.032020584 0.03749456 -0.040575165 0.026937302
-0.1471499 -0.1527518 -0.06020232 -0.12054222 0.06400216 0.09522046 -0.088404626 0.0010581465
0.023117457 0.06266939 -0.03612916 -0.08389608 -0.016257893 0.0020862499 -0.12439894 -0.12993753
-0.057311263 -0.067356504 -0.03778385 0.120121114 -0.1466274 -0.0563313 -0.115004666 0.10304273
-0.050241273 0.0121255 0.11998373 -0.10100314 -0.020378342 -0.0564869 0.040950503 -0.037381966
00000000: dbfe ae3d 44ec d4bd c074 11be 9502 de3c
00000010: 2750 713c da22 82bd c32b 26bd 6f31 223e
00000020: ac68 c6bd d9fe 9e3d 52fc 8dbd a5de a43d
00000030: d292 113e 4e4e 2fbe 5586 26be 6f5c aabc
00000040: c9e7 e33d 1f20 a53a 91f3 213e 0ae5 0a3e
00000050: 424f 14be 9c79 dd3d 17a5 31be 9073 86bd
00000060: 5f96 e63b cf7a d4bd 5a0b 09be 7839 a9bd
00000070: cde6 d73b ff55 253e 3760 8f3d e3af febd
00000080: dce9 253d 730e 9a3d 19bc b5bd ea51 1abd
00000090: 4991 2d3e a732 b83d 30f1 a0bd fbae c5ba
000000a0: 4eb3 623b 2215 30be c707 203e 2d42 07bd
000000b0: 24d7 b3bd 7b56 ca3d 8a53 963d 37c6 f5bd
000000c0: 892c 60be d4f3 afbc f4b8 f43d 3abd 07be
000000d0: 9ccd 863d f0c9 76bd dffb 8ebd 695d e0bd
000000e0: c0e5 c03d 0b8b ef3d eb2b f6bd ad86 9f3d
000000f0: 8a5a bebd 7923 13bd 1503 ee3c c604 443e
00000100: e8ce fd3d dce8 c6bd 7eae be3c a9f5 03be
00000110: 7b53 55bd f387 0bbd b9b3 a83d af79 d4bd
00000120: b709 1cbe 1325 aebd 99b9 00be 6826 083e
00000130: 0300 ac3d 6222 10bd 4b85 063e d9bd 64bc
00000140: ab27 a83d a55f 7a3c 1171 afbd 611f a03d
00000150: 2e27 d33d bcc4 a03d b21c da3d 9b5f 91bc
00000160: de15 fc3d 8791 a7bd 45a4 02be 484b a53a
00000170: 4310 17be 060b 173d 69bd 13bd 2b76 bd3d
00000180: a45c 09be 4a27 b93d 7e85 7b3d b88e 1dbe
00000190: 38a8 b13d a0e6 993d cd99 a7bd c2e4 28be
000001a0: f59b a83d 12e6 9bbd 7362 0a3e 674c a33d
000001b0: 2b33 d73d b1ea ba3d 7e48 c7bc c6ec 00be
000001c0: 4329 c0bd e1f0 243e f61b e43d 4bbe 39bd
000001d0: 0d2b 3ebd 3358 27bd eeb8 da3d 1ba0 fd3d
000001e0: 0cba 22be cb41 133b f0cd 60bd 2be8 9a3c
000001f0: 1981 6f3d 30a5 183e dae1 f0bb f748 52bd
00000200: 8393 8d3d 4eb4 51bd 18d8 6d3d 32e3 013e
00000210: b578 453e 4aa9 083e 22fe a2bd 2016 ec3d
00000220: 2bd5 f13d 625e 8ebc ab65 dbbd 2766 be3a
00000230: b6a2 6abd 7c07 623d 01a4 6ebc 010b 9e3d
00000240: f38e c7bd 6c09 773d f783 173d 3b38 533d
00000250: 4859 1cbd 8032 113e 57b1 503d f2c9 a53d
00000260: 16bc 70bd af1e 1a3e 0246 973c 5cf8 a6bc
00000270: f5f5 4d3c dc15 a73d 493d 51bd 41ea 023d
00000280: abba fd3d 36c9 b8bd 9600 cc3c 42d7 93bd
00000290: dda3 4ebd 5bf3 45bd 44c3 5ebd 0bad 963d
000002a0: 5237 3ebe a0e4 d63b 7d0c 8bbc f674 b63d
000002b0: 36a3 c03d c076 61bd cdc2 20be 7321 933d
000002c0: b327 a43d 01ba 27bd 3e97 113e 9e9e 2c3d
000002d0: 09c7 01b8 898a 003e c6b8 f8bd 9932 05be
000002e0: 8822 233d 1a1e 833d 16d9 5dbc b1d6 36be
000002f0: 470b 153e da73 00bd c935 bcbd 4f0e c9bd
00000300: 3d8d 90bd e9d0 5abd e661 793d f080 a53d
00000310: c1d5 103e 2b81 03be 31a8 903d 6bdd 53bd
00000320: d69a 28be 060e db3d 7944 d43d 18dd 1fbe
00000330: 835b b93d 39b0 823d 6b97 943d c0db 23bc
00000340: 1fb2 cfbd d9f7 8cbb a003 1ebd 8ad3 173d
00000350: 398a 923d 0bc2 84bc 013c 18be 50ad 383d
00000360: 8846 d83d e37a 43bd 7306 bd3d e83f 82bb
00000370: 0428 03bd e593 193d 2532 26bd 9eab dc3c
00000380: 77ae 16be f86a 1cbe b596 76bd d7de f6bd
00000390: 9113 833d f202 c33d 7c0d b5bd 81b1 8a3a
000003a0: d260 bd3c cf58 803d 2cfc 13bd b5d1 abbd
000003b0: 462f 85bc 77b9 083b dfc4 febd 580e 05be
000003c0: 37bf 6abd 35f2 89bd 3dc3 1abd 0f02 f63d
000003d0: 7e25 16be a6bb 66bd 9187 ebbd 1108 d33d
000003e0: cbc9 4dbd 08aa 463c 08ba f53d bcda cebd
000003f0: 7bf0 a6bc cf5e 67bd b7bb 273d d51d 19bd

transformer.layers.0.self_attn.in_proj_bias f4 [192]
-0.03844376 -0.029639449 0.024121936 2.8070717e-05 0.0025582036 -0.038288925 -0.00957352 0.019617258
0.02170233 0.007541969 -0.011957645 0.03352855 0.024913875 0.04081255 0.0060781743 0.0048048217
0.013105216 -0.0062836483 -0.014662953 -0.017539274 -0.0038004632 -0.014729244 -0.014570057 -0.014210972
-0.0031115043 -0.00875916 -0.026302783 -0.012561257 0.020510547 -0.019497128 -0.034131132 -0.02354564
-0.011830618 0.029984955 -0.0052643367 -0.019693935 0.024221072 -0.009211171 -0.0086636795 0.02619864
0.027406683 -0.0025361793 -0.026697975 -0.0094644055 0.041679323 -0.014676892 0.00028600774 -0.021813396
-0.026080752 0.020674106 0.029981965 -0.023895234 0.043061428 -0.008965259 0.051222924 0.03266579
-0.0034345696 0.039382555 0.041115608 -0.0055662165 0.03345337 0.0071807234 -0.06494871 0.032793097
-0.00017591692 0.0008505996 1.6446327e-05 -0.00034350547 0.00016947024 0.00072302285 -0.00010041404 0.000661079
3.263753e-05 -0.00025461087 0.0010765856 -0.0006441242 0.0002574027 -0.00041421413 0.0010359385 0.00027115503
-0.0003329737 0.000923324 0.0011955772 6.984143e-05 -0.0007518444 0.0012517481 0.0011816896 0.0009563164
7.94231e-05 0.00045961497 0.00032839528 0.0015216771 -0.00073589705 2.6227228e-05 -3.2405267e-05 -0.0005192871
-6.065108e-06 0.00015452504 4.4007757e-05 -0.00015647734 0.00027821842 -0.00022232978 -0.00032098434 5.995753e-05
0.00030964124 -0.00015102592 -0.0007061945 2.4895668e-05 0.00013364865 -0.00029205714 0.0001444677 -0.00014210981
-0.0009092956 -0.0004480085 -4.2957334e-05 0.0011120187 -0.0023166165 0.0008567632 -0.0011731997 -0.0027427778
0.0014177007 -0.0021642793 -0.0010741105 -0.0012107698 -0.002571363 0.0015627005 0.0024216205 -0.0007022497
-0.011786632 -0.0038423596 0.012957764 -0.001097458 0.00044897624 0.008791133 0.0031174014 -0.005453126
0.0020904725 0.016308855 -0.008905323 -0.017072398 0.010372915 0.01008478 0.0019529705 0.0034215078
0.003938757 -0.0067933053 0.009100619 -0.0021031157 -0.008409047 0.006027801 -0.020191144 0.005332067
-0.005326676 -0.009113322 -0.019708345 -0.019285137 0.008977782 -0.0008888608 -0.0041164607 -0.004293191
-0.0039407513 0.0066705127 -0.0037537345 -0.0074524474 -0.020850845 0.015240854 -0.0061310246 0.011530839
-0.036960673 -0.015809115 -0.009324498 0.004144077 0.008759554 0.026748303 -0.014607674 0.020706184
0.007236969 0.0023963116 0.005079448 0.0041902107 -0.00734234 -0.0074823448 0.016627768 -0.018744726
0.008867912 -0.018189099 0.016471295 -0.019999607 0.01691978 0.012383149 0.010934523 -0.0010049894
00000000: 3477 1dbd 6ece f2bc 5e9b c53c 6879 eb37
00000010: 89a7 273b d9d4 1cbd 41da 1cbc 5fb4 a03c
00000020: 16c9 b13c 9f22 f73b 00ea 43bc 3c55 093d
00000030: 2f18 cc3c 0f2b 273d 6c2b c73b c471 9d3b
00000040: 43b7 563c 10e7 cdbb e23c 70bc 86ae 8fbc
00000050: 3111 79bb ed52 71bc 40b7 6ebc 23d5 68bc
00000060: 61ea 4bbb 9482 0fbc ef78 d7bc bbcd 4dbc
00000070: bc05 a83c 71b8 9fbc 16cd 0bbd c9e2 c0bc
00000080: 35d5 41bc 02a3 f53c 7580 acbb 2d55 a1bc
00000090: 456b c63c 74ea 16bc 1bf2 0dbc 889e d63c
000000a0: fb83 e03c 0736 26bb b6b5 dabc 9810 1bbc
000000b0: f0b7 2a3d 5977 70bc 4ff3 9539 02b2 b2bc
000000c0: 4da7 d5bc be5c a93c bd9c f53c f0bf c3bc
000000d0: 2e61 303d 06e3 12bc 21cf 513d 90cc 053d
000000e0: 8416 61bb 9a4f 213d d768 283d cf64 b6bb
000000f0: 6706 093d 464c eb3b d403 85bd 0e52 063d
00000100: 5776 38b9 c6fa 5e3a 38f6 8937 8618 b4b9
00000110: d2b3 3139 3e89 3d3a 6195 d2b8 434c 2d3a
00000120: 48e4 0838 4b7d 85b9 381c 8d3a 71da 28ba
00000130: 01f4 8639 e12a d9b9 54c8 873a d029 8e39
00000140: f992 aeb9 3a0b 723a eab4 9c3a d577 9238
00000150: 6c17 45ba b211 a43a ece2 9a3a 4fb1 7a3a
00000160: f48f a638 7af8 f039 782c ac39 0373 c73a
00000170: 37e9 40ba 8b02 dc37 e4ea 07b8 c420 08ba
00000180: e282 cbb6 0008 2239 f894 3838 1114 24b9
00000190: d8dd 9139 3221 69b9 ca49 a8b9 e87a 7b38
000001a0: 5857 a239 b65c 1eb9 e91f 39ba 0ad7 d037
000001b0: 0924 0c39 3f1f 99b9 417c 1739 5003 15b9
000001c0: cb5d 6eba afe2 eab9 162d 34b8 28c1 913a
000001d0: 60d2 17bb 6898 603a 0dc6 99ba 2dc0 33bb
000001e0: 24d2 b93a 95d6 0dbb 2bc9 8cba b1b2 9eba
000001f0: 5084 28bb 87d3 cc3a 0db4 1e3b 2e17 38ba
00000200: b81c 41bc 19d0 7bbb cd4c 543c 94d8 8fba
00000210: 9264 eb39 af08 103c 514d 4c3b 23b0 b2bb
00000220: 4f00 093b 269a 853c a2e7 11bc 6adb 8bbc
00000230: 29f3 293c a23a 253c d1fa ff3a 603b 603b
00000240: b010 813b 609a debb c31a 153c 6dd4 09bb
00000250: 19c6 09bc dc84 c53b e667 a5bc 9fb8 ae3b
00000260: 668b aebb 0b50 15bc 6573 a1bc ddfb 9dbc
00000270: 8c17 133c 7002 69ba 60e3 86bb e5ad 8cbb
00000280: 6b21 81bb 5194 da3b 3701 76bb a933 f4bb
00000290: 64cf aabc c6b4 793c c3e6 c8bb d8eb 3c3c
000002a0: 1364 17bd 1e82 81bc c7c5 18bc 0acb 873b
000002b0: 3b84 0f3c 421f db3c 0755 6fbc 04a0 a93c
000002c0: 1924 ed3b 700b 1d3b 8071 a63b 094e 893b
000002d0: 0398 f0bb 752e f5bb f536 883c 8a8e 99bc
000002e0: b84a 113c 4e01 95bc cfee 863c 37d6 a3bc
000002f0: 5a9b 8a3c b1e2 4a3c b726 333c d9b9 83ba

transformer.layers.0.self_attn.out_proj.weight f4 [64, 64]
0.14450532 -0.025085188 -0.083705015 -0.048542418 -0.10713909 0.021750493 -0.087792695 -0.102144815
-0.063904 0.09611795 -0.015066147 -0.08152994 0.02923464 -0.042898953 0.06607177 0.020234488
0.04748534 -0.14598536 0.11963613 -0.056227133 0.10245504 0.083948165 -0.05613463 0.132882
-0.11607807 -0.041074377 0.1136389 -0.074575976 0.11639369 -0.04787119 -0.0141785545 0.029762566
0.057628933 0.073580645 -0.011997933 -0.043771792 0.0833683 0.012432389 0.0063363435 -0.008968918
0.05625803 -0.045071118 0.024315111 -0.06326045 0.054528143 0.07394537 0.007878724 0.05673973
-0.047027208 0.0638162 0.0010123139 0.10205277 -0.07805047 -0.0125505105 -0.06739086 -0.019775737
-0.06472045 0.064290024 0.084245175 -0.08908105 -0.13049471 -0.10926325 0.14413504 -0.053675782
-0.0370395 0.05537476 -0.04895982 -0.034089353 0.013587161 0.10181625 0.021228118 -0.011176752
0.036302403 -0.06772383 -0.016402733 -0.0013882599 -0.035921022 0.07815646 0.0016943922 -0.09456061
-0.04794157 -0.11600054 0.09200078 0.11353078 -0.036179855 0.09284006 -0.05960483 -0.04147932
-0.057358082 -0.00891633 0.043873206 -0.027549421 0.03195245 -0.10548152 -0.03880326 -0.0004209594
0.12861463 -0.116772585 -0.004437258 0.05681199 -0.0775006 -0.0995136 -0.04039091 -0.09001035
-0.1169653 -0.084262654 -0.006329224 -0.046117697 0.111593485 0.029661633 -0.07812011 -0.052185796
0.025200935 -0.014069649 0.030625897 -0.05417792 -0.080612086 0.05353763 -0.02915046 -0.033560872
0.096721746 0.09461042 0.08372569 0.11488784 -0.047336623 0.06931978 -0.034542803 -0.03375251
-0.008890212 0.021677619 0.0041745193 -0.047095254 -0.014636368 0.037931215 0.09952243 0.08604019
0.03654829 0.060430836 -0.05332916 0.043339398 0.01284363 0.04276557 -0.12099961 -0.077249706
0.09569062 -0.1114428 -0.11649344 -0.0024861677 -0.0906022 0.03515902 0.024104381 -0.007449452
0.020698106 -0.01416669 -0.061145995 0.04906816 0.107449286 -0.1066807 -0.005513865 -0.019778728
-0.079991445 -0.09371441 0.060768336 -0.05606689 -0.007854503 -0.009202078 0.105589435 -0.05649501
0.004858523 -0.041974645 -0.010907869 -0.07616721 0.112631224 -0.11314043 -0.008067372 -0.11818969
0.063950606 -0.0960951 0.03004381 0.10067175 -0.082115985 0.0030901409 0.06618435 -0.09756319
0.07595855 0.035065103 -0.081382774 0.04572632 -0.11649444 0.0726226 0.091072656 0.09436026
0.17673798 0.0055207913 -0.02092277 -0.09872039 -0.059371173 0.07864991 0.06746555 -0.033435684
-0.031944074 -0.054255772 -0.05507934 0.0061279456 -0.12233911 -0.014519287 0.06701576 -0.005263899
-0.015567791 -0.11976904 0.14489621 -0.05610305 0.06116996 -0.122746326 -0.02738975 -0.072307035
-0.0389126 0.015428461 -0.053103548 -8.156561e-05 -0.03282787 -0.10851954 0.0676906 -0.116514675
0.08660483 -0.06977632 0.084978886 -0.060678188 0.0072143385 -0.028664587 0.0989989 -0.049353868
0.07719803 -0.011690863 0.052105755 0.0525096 0.024009904 0.10639511 0.04766431 0.083227664
-0.025370909 -0.08688392 -0.0014814753 0.12148963 -0.110684365 0.09013891 -0.09604782 0.005001829
0.028176295 0.11169011 -0.017199192 -0.056240946 -0.06091324 -0.007982775 -0.028985342 0.04668016
00000000: 34f9 133e 747f cdbc 896d abbd 6ad4 46bd
00000010: bd6b dbbd 172e b23c a8cc b3bd 4d31 d1bd
00000020: 1ae0 82bd 7dd9 c43d 00d8 76bc 2bf9 a6bd
00000030: 7c7d ef3c d0b6 2fbd a350 873d ccc2 a53c
00000040: fd7f 423d 307d 15be ca03 f53d 6c4e 66bd
00000050: f3d3 d13d 04ed ab3d 6ded 65bd 3812 083e
00000060: 57ba edbd 9b3d 28bd 83bb e83d 4abb 98bd
00000070: d15f ee3d 9514 44bd 2b4d 68bc a0d0 f33c
00000080: 510c 6c3d 73b1 963d fa92 44bc 0d4a 33bd
00000090: 00bd aa3d 38b1 4b3c 1aa1 cf3b 5ef2 12bc
000000a0: d26e 663d 7e9c 38bd 7c30 c73c b28e 81bd
000000b0: e758 5f3d ac70 973d c315 013c eb67 683d
000000c0: 9a9f 40bd 11b2 823d 9eaf 843a 0b01 d13d
000000d0: edd8 9fbd a8a0 4dbc 3804 8abd ba00 a2bc
000000e0: 288c 84bd 7daa 833d bc88 ac3d 2070 b6bd
000000f0: 68a0 05be 69c5 dfbd 2398 133e 23db 5bbd
00000100: bbb6 17bd a5d0 623d 188a 48bd 47a1 0bbd
00000110: af9c 5e3c 0a85 d03d 97e6 ad3c b21e 37bc
00000120: d4b1 143d cbb2 8abd 065f 86bc 46f6 b5ba
00000130: ec21 13bd 7e10 a03d 5e16 de3a fea8 c1bd
00000140: 615e 44bd b191 edbd e86a bc3d d382 e83d
00000150: 5431 14bd ee22 be3d 3224 74bd 38e6 29bd
00000160: 4ff0 6abd cc15 12bc 64b4 333d 53af e1bc
00000170: 92e0 023d b206 d8bd 2bf0 1ebd 37b4 dcb9
00000180: 8eb3 033e 7726 efbd 6b66 91bb b0b3 683d
00000190: a2b8 9ebd c9cd cbbd f070 25bd 5957 b8bd
000001a0: 818b efbd e691 acbd 6165 cfbb e9e5 3cbd
000001b0: 208b e43d f4fc f23c 70fd 9fbd c6c0 55bd
000001c0: 3172 ce3c 6384 66bc 29e3 fa3c abe9 5dbd
000001d0: f317 a5bd 464a 5b3d f2cc eebc 2077 09bd
000001e0: 0d16 c63d 1cc3 c13d 6078 ab3d 514a eb3d
000001f0: 0ce4 41bd 87f7 8d3d c17c 0dbd 1240 0abd
00000200: 40a8 11bc 4395 b13c 68ca 883b f4e6 40bd
00000210: 60cd 6fbc c35d 1b3d 6ad2 cb3d d735 b03d
00000220: a9b3 153d 5386 773d ad6f 5abd a784 313d
00000230: 176e 523c f32a 2f3d a5ce f7bd 1835 9ebd
00000240: 72f9 c33d 1f3c e4bd 1d94 eebd f9ee 22bb
00000250: a58d b9bd e802 103d 8d76 c53c 881a f4bb
00000260: 138f a93c 681b 68bc 3974 7abd b2fb 483d
00000270: 5f0e dc3d 697b dabd a7ad b4bb 0007 a2bc
00000280: 8ed2 a3bd 57ed bfbd 38e8 783d 65a6 65bd
00000290: 2cb0 00bc 50c4 16bc 463f d83d 5067 67bd
000002a0: 3f34 9f3b 9bed 2bbd ebb6 32bc 8efd 9bbd
000002b0: 33ab e63d 2bb6 e7bd 032d 04bc 700d f2bd
000002c0: 89f8 823d 82cd c4bd 701e f63c fe2c ce3d
000002d0: 6d2c a8bd f683 4a3b a98b 873d 36cf c7bd
000002e0: 2890 9b3d 6da0 0f3d 03ac a6bd 864b 3b3d
000002f0: a394 eebd 28bb 943d 4d84 ba3d f43f c13d
00000300: cdfa 343e c1e7 b43b 3b66 abbc ea2d cabd
00000310: 302f 73bd 3413 a13d 612b 8a3d dbf3 08bd
00000320: cad7 02bd 4d3b 5ebd e09a 61bd efcc c83b
00000330: ed8c fabd 4ee2 6dbc 8f3f 893d c97c acbb
00000340: 0c10 7fbc 7849 f5bd ac5f 143e 50cc 65bd
00000350: 5a8d 7a3d 6d62 fbbd 7860 e0bc b615 94bd
00000360: d262 1fbd a8c7 7c3c 1b83 59bd 340e abb8
00000370: 8476 06bd 7e3f debd 5fa1 8a3d 3f9f eebd
00000380: e05d b13d e3e6 8ebd 6909 ae3d b189 78bd
00000390: 4266 ec3b ffd1 eabc efbf ca3d 4827 4abd
000003a0: 001a 9e3d 098b 3fbc d86c 553d 4e14 573d
000003b0: 6bb0 c43c aee5 d93d a73b 433d 4473 aa3d
000003c0: a7d6 cfbc 32f0 b1bd 102e c2ba 8ecf f83d
000003d0: 7cae e2bd c09a b83d b8b4 c4bd 62e6 a33b
000003e0: f9d1 e63c c9bd e43d 52e5 8cbc e85c 66bd
000003f0: 2980 79bd 2fca 02bc ab72 edbc b233 3f3d

transformer.layers.0.self_attn.out_proj.bias f4 [64]
0.029488616 0.00408051 0.003265402 0.0020681962 0.008844165 -0.006901553 -0.021558473 0.013718521
0.017075334 -0.034676548 -0.008438765 0.0009223043 -0.004452533 0.006942358 -0.010442084 -0.006193718
-0.0172994 -0.018497411 0.002246044 -0.0010911227 0.010877252 -0.01699329 -0.019414442 0.0051417206
0.006184781 0.013186814 0.028373396 -0.015139218 -0.013722488 -0.0052737263 -0.022056777 8.2508e-05
-0.0060707605 0.021422628 -0.022348147 0.019742731 0.0030895625 0.016295278 0.013209008 -0.014412275
0.011175762 0.005906783 0.01705815 -0.017675312 0.016057722 0.004414592 0.008795703 -0.0022569636
-0.020117726 0.009717887 0.012307896 -0.0143199675 -0.0019910317 -0.0037237073 0.011560823 0.011357124
0.021437049 0.0018069561 -0.018469393 -0.009436294 -0.023161666 0.018982083 -0.0058993166 -0.014898501
00000000: 1c92 f13c cdb5 853b 5b00 563b 938a 073b
00000010: 1ee7 103c 6c26 e2bb 659b b0bc a6c3 603c
00000020: 92e1 8b3c ff08 0ebd bf42 0abc cbc6 713a
00000030: 8ee6 91bb b87c e33b 4615 2bbc acf4 cabb
00000040: 79b7 8dbc e287 97bc 5e32 133b 0104 8fba
00000050: 8036 323c 8335 8bbc 090b 9fbc e17b a83b
00000060: b4a9 ca3b 820d 583c 536f e83c 7c0a 78bc
00000070: 49d4 60bc 39cf acbb 6ab0 b4bc 2508 ad38
00000080: 3bed c6bb 827e af3c 7613 b7bc 82bb a13c
00000090: 427a 4a3b ad7d 853c 986a 583c 7621 6cbc
000000a0: 8b1a 373c b08d c13b 89bd 8b3c d1cb 90bc
000000b0: 7c8b 833c 48a8 903b da1b 103c 91e9 13bb
000000c0: eecd a4bc c637 1f3c 0fa7 493c 4c9e 6abc
000000d0: f87b 02bb 7109 74bb 9b69 3d3c 3b13 3a3c
000000e0: c09c af3c 63d7 ec3a 204d 97bc b09a 1abc
000000f0: 89bd bdbc 5080 9b3c 0e4f c1bb d818 74bc

transformer.layers.0.linear1.weight f4 [128, 64]
0.05599655 -0.09407712 -0.13648841 -0.100026 -0.10803121 0.030933658 0.03487629 0.056224838
-0.046854127 0.09814194 0.089787506 0.08465221 0.06655073 0.11799512 -0.08843852 -0.0067710034
0.077699006 0.104163185 0.07013978 -0.06966283 0.06320083 -0.022088837 -0.16517954 0.0057900962
-0.09388364 0.09359784 -0.017092917 -0.016501723 0.09514182 -0.009925081 -0.058776177 -0.10704853
-0.05120769 0.061196685 -0.040711164 0.01749101 -0.0769316 0.011812666 -0.008245713 -0.04939921
-0.039638586 -0.1606138 -0.016279886 -0.042837646 0.16765928 0.09534527 -0.07573719 -0.17487043
0.049185954 -0.04836742 -0.015925782 0.07284372 -0.09637171 -0.033543836 -0.017022654 -0.04379572
0.036747083 -0.01223117 0.034559753 0.060846273 0.059824362 -0.043039765 0.0889517 0.08947691
-0.089489296 -0.0976322 -0.025006445 0.033799596 -0.0831723 0.057560302 -0.07375375 -0.04855178
-0.036047045 0.12975965 -0.016900798 -0.07738489 0.027968116 -0.052647218 0.09585606 0.13393663
-0.020896628 0.15487053 -0.068352565 -0.031451646 0.056620028 0.009239297 0.055391934 0.105030306
0.03833276 -0.058696922 0.07243324 0.018522983 0.16591221 0.12663662 -0.0077545303 0.118043005
0.06694155 -0.027623355 0.034465715 -0.039618883 0.033684008 -0.03608316 -0.013667682 -0.12635332
0.04089422 -0.10836475 0.12497194 -0.053779382 0.057047497 -0.09998518 -0.12737612 0.093774505
0.10942692 -0.0743047 -0.06922652 -0.05850426 -0.07324476 0.015404552 -0.051404182 -0.025359368
0.079183556 0.05595907 0.017384332 0.039345693 0.058405142 0.092156366 0.10271985 -0.13041306
0.051392533 0.033624195 -0.07651699 0.1265254 -0.07023856 -0.06602183 0.09278734 0.095311105
-0.10600807 -0.003237137 -0.1001077 -0.013638694 0.10268288 0.0028980453 0.10464382 0.07490761
0.0019493178 -0.0055760955 0.1605049 0.021899192 0.07165493 0.017521244 -0.047299743 -0.09477085
-0.032701273 -0.088823706 -0.089389384 0.05818521 0.015849205 -0.07707728 0.10650708 0.00093249517
-0.03409669 0.13756885 -0.03446732 0.0918575 0.13246995 -0.070110746 -0.14178045 0.035867717
0.09262025 0.05627767 0.042112973 0.03824397 -0.096536666 -0.06893624 -0.004556071 -0.07248164
-0.05644492 0.079668306 0.09800288 -0.058167737 -0.064390875 0.051767305 -0.047242645 -0.11129497
-0.014267262 -0.08812976 -0.018195761 -0.11211844 -0.031613313 0.089374535 -0.11249601 -0.013366078
0.05396399 -0.032423094 -0.14075986 0.042525645 0.12425501 -0.079788096 -0.034347817 -0.067019954
-0.0827809 0.1050311 -0.034274977 0.12231082 0.00077946513 -0.13119428 0.08177194 -0.04799571
-0.091909885 0.017530194 -0.11934986 -0.09427664 -0.09954997 0.1163203 -0.11408584 0.012291263
0.15356809 0.09709759 -0.045716718 0.005968882 0.0041909376 0.1318072 -0.053922463 0.09814241
0.029800743 -0.0047887424 -0.06848894 -0.1147207 -0.029635085 -0.08434064 -0.08635881 0.0372343
0.02335553 -0.14760274 -0.036653653 0.05823555 0.0546752 0.054451816 0.034694403 -0.088137895
-0.05356268 -0.0707206 0.053212997 0.06872081 0.0039633675 -0.0005888412 -0.059584633 -0.02600072
0.070445366 0.032947287 -0.031416327 0.04364242 -0.06727556 -0.054648887 0.01735344 0.007511638
00000000: a35c 653d 81ab c0bd 9ec3 0bbe 6eda ccbd
00000010: 783f ddbd 9568 fd3c 71da 0e3d 044c 663d
00000020: 1dea 3fbd a4fe c83d 83e2 b73d 235e ad3d
00000030: c04b 883d 6da7 f13d 411f b5bd 4bdf ddbb
00000040: a820 9f3d 8253 d53d 72a5 8f3d 63ab 8ebd
00000050: 706f 813d a6f3 b4bc d324 29be d9ba bd3b
00000060: 1146 c0bd 39b0 bf3d 7206 8cbc 9f2e 87bc
00000070: b7d9 c23d cf9c 22bc 4abf 70bd 423c dbbd
00000080: 28bf 51bd 60a9 7a3d c0c0 26bd 4e49 8f3c
00000090: 518e 9dbd ea89 413c 0719 07bc d356 4abd
000000a0: 125c 22bd f277 24be 655d 85bc 8776 2fbd
000000b0: e0ae 2b3e 6244 c33d 1a1c 9bbd 3c11 33be
000000c0: 3677 493d ea1c 46bd c976 82bc 172f 953d
000000d0: 885e c5bd 4365 09bd 1873 8bbc 2463 33bd
000000e0: 1c84 163d 3f65 48bc 878e 0d3d f139 793d
000000f0: 640a 753d 774a 30bd 4f2c b63d ac3f b73d
00000100: 2a46 b7bd 64f3 c7bd 51da ccbc 7271 0a3d
00000110: 3d56 aabd 5ac4 6b3d 350c 97bd 3bde 46bd
00000120: 11a6 13bd b7df 043e 8b73 8abc f87b 9ebd
00000130: 641d e53c 9ca4 57bd 2f50 c43d af26 093e
00000140: 682f abbc 6196 1e3e 6efc 8bbd 71d3 00bd
00000150: 67ea 673d 6c60 173c a7e2 623d 211a d73d
00000160: d002 1d3d 2f6c 70bd e157 943d 83bd 973c
00000170: e4e4 293e 08ad 013e b719 febb 88c0 f13d
00000180: a718 893d 604a e2bc ec2b 0d3d 6947 22bd
00000190: 3ef8 093d f0cb 13bd 6aee 5fbc c462 01be
000001a0: b380 273d 57ee ddbd 4af1 ff3d c547 5cbd
000001b0: a3aa 693d 08c5 ccbd e36e 02be d90c c03d
000001c0: 391b e03d 102d 98bd a2c6 8dbd 2aa2 6fbd
000001d0: 5901 96bd 6063 7c3c 318d 52bd 73be cfbc
000001e0: fd2a a23d 5635 653d 9669 8e3c f328 213d
000001f0: 3b3a 6f3d 7abc bc3d c95e d23d 008b 05be
00000200: fa80 523d 86b9 093d f1b4 9cbd e08f 013e
00000210: 3cd9 8fbd 7436 87bd 4a07 be3d 7832 c33d
00000220: c21a d9bd 2626 54bb 4405 cdbd d474 5fbc
00000230: 674b d23d 22ed 3d3b 804f d63d 2969 993d
00000240: 4080 ff3a aeb7 b6bb 665b 243e ef65 b33c
00000250: d2bf 923d b688 8f3c 60bd 41bd 3817 c2bd
00000260: c5f1 05bd 34e9 b5bd c811 b7bd 9d53 6e3d
00000270: 31d6 813c b1da 9dbd 6220 da3d b172 743a
00000280: f9a8 0bbd d9de 0c3e 9b2d 0dbd c91f bc3d
00000290: 34a6 073e 3996 8fbd e52e 11be 07ea 123d
000002a0: b0af bd3d 6a83 663d a77e 2c3d b6a5 1c3d
000002b0: 04b5 c5bd 722e 8dbd 184b 95bb 4171 94bd
000002c0: ca32 67bd 2329 a33d bcb5 c83d 4b41 6ebd
000002d0: 5ddf 83bd f409 543d 8181 41bd 9eee e3bd
000002e0: 3cc1 69bc 607d b4bd 470f 95bc 5a9e e5bd
000002f0: f67c 01bd ff09 b73d 4f64 e6bd 65fd 5abc
00000300: 5809 5d3d 14ce 04bd 5a23 10be 5f2f 2e3d
00000310: 6979 fe3d f167 a3bd 4cb0 0cbd c241 89bd
00000320: 0889 a9bd 8c1a d73d eb63 0cbd 187e fa3d
00000330: 0555 4c3a cb57 06be 0c78 a73d 2697 44bd
00000340: 403b bcbd 7b9b 8f3c b36d f4bd 1c14 c1bd
00000350: dbe0 cbbd 5639 ee3d d6a5 e9bd 4b61 493c
00000360: f440 1d3e 1adb c63d 7441 3bbd 9c96 c33b
00000370: 2254 893b 77f8 063e cddd 5cbd e3fe c83d
00000380: b020 f43c e2ea 9cbb ee43 8cbd b0f2 eabd
00000390: 47c5 f2bc c9ba acbd e3dc b0bd fe82 183d
000003a0: 1954 bf3c 2c25 17be 2422 16bd 6688 6e3d
000003b0: 1af3 5f3d de08 5f3d b81b 0e3d a481 b4bd
000003c0: 8a64 5bbd f6d5 90bd dff5 593d 7fbd 8c3d
000003d0: 23df 813b 775c 1aba 040f 74bd 76ff d4bc
000003e0: a945 903d bcf3 063d 68ae 00bd 65c2 323d
000003f0: c5c7 89bd 83d7 5fbd cd28 8e3c 3024 f63b

transformer.layers.0.linear1.bias f4 [128]
-0.030539406 -0.024814859 -0.05195668 0.044546496 -0.031399373 -0.057851207 0.008493304 -0.07735361
-0.086167544 0.0550355 -0.034630086 -0.06725764 -0.09427227 -0.10235815 -0.0611498 -0.04892627
0.025437072 -0.03113058 0.023546597 0.069572836 -0.078795426 -0.13606724 -0.07982109 -0.12106037
-0.116528705 0.025569612 -0.074227296 -0.113698564 0.05021249 0.06240274 -0.06014766 0.042884614
0.07379414 -0.0041775927 0.013239854 -0.05533605 -0.15248859 0.048671667 0.09221057 -0.11637726
-0.022013197 0.026873333 -0.058238138 0.043208398 0.084801026 -0.12373679 0.080915645 0.012596777
0.048356693 0.066399366 0.08572781 -0.028906323 -0.13068633 0.047478154 0.07858239 -0.10360145
-0.036693446 0.056069426 -0.054559745 0.018992566 -0.076672904 -0.10093974 -0.030429222 -0.082957186
-0.064586654 -0.026065594 0.029731508 -0.022455694 0.0086486135 -0.00686514 -0.058997158 -0.0314374
-0.0077991583 0.0023121259 0.116546094 0.006117953 -0.035462897 -0.12395917 -0.031343915 0.07624345
-0.066134065 -0.08149472 -0.077741526 0.07319468 0.042852473 -0.0678674 -0.0995033 -0.020807033
0.002575992 0.04985007 0.037993062 0.04113744 -0.116173506 0.017744279 -0.11495799 0.0044472422
0.088106975 0.008446058 -0.14690487 -0.061799917 0.013826727 -0.054142024 0.08543966 -0.025404915
-0.13808392 0.028908813 -0.13569136 0.10815361 -0.11627091 -0.14822207 0.06192052 0.09301072
0.030941179 0.062512055 0.084440395 -0.0076616164 -0.07780452 -0.16114113 -0.018262494 0.002330936
0.017675469 -0.0321858 -0.051724184 -0.049463917 0.03442603 0.009472174 -0.05149082 -0.084682584
00000000: c72d fabc 8848 cbbc 87d0 54bd 6376 363d
00000010: a19c 00bd 63f5 6cbd 8027 0b3c 926b 9ebd
00000020: 9c78 b0bd e86c 613d 47d8 0dbd 60be 89bd
00000030: d211 c1bd 26a1 d1bd 3678 7abd ea66 48bd
00000040: 6861 d03c 8f05 ffbc cbe4 c03c 347c 8e3d
00000050: 7f5f a1bd 3655 0bbe 3d79 a3bd 80ee f7bd
00000060: 9aa6 eebd 5d77 d13c 7b04 98bd cbda e8bd
00000070: 9dab 4d3d 049a 7f3d 655d 76bd c7a7 2f3d
00000080: 6221 973d 30e4 88bb f9eb 583c 0ea8 62bd
00000090: f825 1cbe f15b 473d e5d8 bc3d 3357 eebd
000000a0: 0555 b4bc 7725 dc3c 1d8b 6ebd 4afb 303d
000000b0: 29ac ad3d b769 fdbd 1ab7 a53d b662 4e3c
000000c0: ab11 463d 64fc 873d 1092 af3d f4cc ecbc
000000d0: a3d2 05be 7478 423d ceef a03d ff2c d4bd
000000e0: de4b 16bd 0ea9 653d 0a7a 5fbd 4c96 9b3c
000000f0: af06 9dbd 7fb9 cebd b446 f9bc 75e5 a9bd
00000100: 0246 84bd 8387 d5bc 7e8f f33c 01f5 b7bc
00000110: eab2 0d3c f8f4 e0bb 01a7 71bd 81c4 00bd
00000120: 1590 ffbb 0987 173b b8af ee3d 1c79 c83b
00000130: 8b41 11bd 4ede fdbd 7a62 00bd 8725 9c3d
00000140: 4c71 87bd b4e6 a6bd f336 9fbd 18e7 953d
00000150: 1386 2f3d 10fe 8abd 63c8 cbbd 8373 aabc
00000160: f9d1 283b 962f 4c3d 9d9e 1b3d bb7f 283d
00000170: 60ec edbd 735c 913c 186f ebbd 2cba 913b
00000180: 6e71 b43d 5661 0a3c 3b6e 16be e921 7dbd
00000190: 7f89 623c 07c4 5dbd fdfa ae3d f81d d0bc
000001a0: df65 0dbe 2dd2 ec3c adf2 0abe a47f dd3d
000001b0: 711f eebd 87c7 17be 5fa0 7d3d 687c be3d
000001c0: 5b78 fd3c 5206 803d 16ef ac3d 4c0e fbbb
000001d0: fa57 9fbd 2e02 25be 3a9b 95bc 9ec2 183b
000001e0: 25cc 903c 42d5 03bd bddc 53bd ad9a 4abd
000001f0: 4f02 0d3d 2d31 1b3c 0ae8 52bd 106e adbd

transformer.layers.0.linear2.weight f4 [64, 128]
-0.009702982 0.079418525 0.0018668652 -0.085209094 -0.045826312 0.012206499 -0.026838733 -0.0019213037
0.038297128 0.0032113222 -0.0076648477 0.014020616 -0.0252355 0.10692711 0.04389214 -0.037714094
0.014298976 0.0022738467 -0.08433746 0.02948129 0.032099783 0.031535562 0.028618675 0.073003374
-0.076579906 0.058176573 0.018694496 -0.03710125 -0.07486054 0.009231023 -0.052141737 -0.004581894
-0.015243805 -0.0066798986 0.02589268 0.039285216 0.026964376 -0.04070565 -0.021154009 0.110936314
0.015734203 -0.03118472 0.044909727 0.057336204 0.054091156 -0.0104777 0.09479932 -0.03209776
0.054902833 0.027665382 -0.09047124 -0.04373137 0.010632002 -0.047283635 0.045954894 0.013720906
-0.0068630353 -0.05214486 0.048297122 0.020239227 0.00031288268 -0.037791744 -0.027749028 -0.07887992
-0.03130089 -0.044598527 0.0043322737 0.06735378 -0.040332682 0.0055853617 0.0032104745 -0.039490946
0.0141086485 -0.018696938 -0.04924029 -0.09093327 -0.026024316 0.02833519 -0.039508127 -0.0017821004
-0.085042775 0.038702928 -0.10287381 -0.0055101197 0.06273751 0.04285933 0.032478966 0.09831021
-0.061513692 0.025245385 0.019240385 -0.034349017 -0.0320379 0.028696176 0.055303678 -0.005640777
0.062254738 -0.063471735 -0.058444552 0.10036754 0.055269483 0.054213632 -0.035780884 -0.03922325
-0.033694893 0.074038 -0.05596408 0.06617869 0.06295608 0.089573264 -0.009077417 0.038418513
0.03890289 0.07906234 -0.06626096 0.07022198 -0.04923762 -0.029361393 0.057236634 -0.060520314
0.028709494 -0.012697946 -0.06515905 -0.05622555 0.0020270853 0.06489499 -0.060991228 0.053751197
-0.0027507402 -0.0482864 -0.09556849 0.0014436011 -0.108585924 -0.067388475 -0.020120332 -0.09006821
-0.12539138 0.04415879 0.02136648 -0.061270423 -0.077586696 -0.069732636 -0.06896063 0.06504819
0.08197692 -0.006706431 -0.04207153 -0.0762279 -0.076985866 -0.099228494 -0.044744696 0.045994747
-0.02006832 0.035992328 -0.040760893 0.008422299 -0.0414327 -0.019575708 0.06587936 -0.018653596
-0.054868694 -0.08338754 -0.056374915 -0.013653715 -0.01612024 -0.09060122 -0.03506969 -0.010855021
0.018865684 -0.053325016 0.0054257656 0.045856714 0.056059767 0.05981745 -0.028165484 0.04955959
-0.021932848 0.0897218 0.045175977 -0.021378076 0.038766872 0.04292721 0.08659621 -0.06822519
0.029990917 -0.05840148 -0.07493671 -0.08183272 -0.08822723 0.066733 -0.028404962 -0.07378258
-0.063667156 -0.03898317 -0.070201136 0.021051513 -0.028156804 -0.093159065 0.023841295 -0.041842468
-0.05539636 0.06991289 -0.04209804 -0.034386687 0.042758398 0.07789785 0.033199217 -0.14270018
-0.023875441 -0.033237636 -0.0007764003 -0.044921678 -0.029802553 0.0012981133 -0.05445112 0.059030645
0.028118348 0.030621897 -0.0505423 -0.020788928 0.028519567 -0.036722146 -0.052277286 -0.07727907
0.08324211 -0.08065537 -0.11650252 0.034844585 -0.12529992 -0.06188422 -0.022339698 0.050083213
-0.012617454 -0.060775664 -0.04754263 -0.007716342 0.009952281 -0.06735303 -0.08980313 0.038350657
-0.082287654 -0.0049636476 0.028262395 -0.068884395 0.06273535 -0.0018932422 0.011594529 -0.021136548
-0.042362716 0.008193953 -0.05044486 -0.086127825 -0.059569333 0.054886516 0.022157585 0.033115067
00000000: 42f9 1ebc 2ea6 a23d 9ab1 f43a 1b82 aebd
00000010: 5fb4 3bbd c5fd 473c e7dc dbbc 41d4 fbba
00000020: 73dd 1c3d 0c75 523b 6729 fbbb bab6 653c
00000030: aeba cebc 9afc da3d 3fc8 333d 187a 1abd
00000040: 4146 6a3c d104 153b 1eb9 acbd bf82 f13c
00000050: 107b 033d 6f2b 013d b671 ea3c cb82 953d
00000060: edd5 9cbd 8f4a 6e3d 3325 993c 7bf7 17bd
00000070: 7c50 99bd b73d 173c 9392 55bd b623 96bb
00000080: 27c1 79bc 0de3 dabb e31c d43c 89e9 203d
00000090: 65e4 dc3c f8ba 26bd 2c4b adbc 9432 e33d
000000a0: 04e5 803c 1977 ffbc 43f3 373d 5ed9 6a3d
000000b0: b08e 5d3d a9aa 2bbc 2526 c23d f178 03bd
000000c0: cbe1 603d 83a2 e23c fc48 b9bd aa1f 33bd
000000d0: d931 2e3c 7cac 41bd 333b 3c3d a7cd 603c
000000e0: 50e3 e0bb d995 55bd 34d3 453d bccc a53c
000000f0: 670a a439 84cb 1abd ee51 e3bc cc8b a1bd
00000100: 5d35 00bd f2ac 36bd bff5 8d3b c7f0 893d
00000110: e233 25bd 6905 b73b d366 523b 42c1 21bd
00000120: f627 673c 522a 99bc 30b0 49bd 393b babd
00000130: f230 d5bc 331f e83c 46d3 21bd 5e95 e9ba
00000140: e82a aebd f686 1e3d 81af d2bd 3c8e b4bb
00000150: 867c 803d 448d 2f3d aa08 053d dd56 c93d
00000160: c8f5 7bbd 69cf ce3c 039e 9d3c 8eb1 0cbd
00000170: 2c3a 03bd 3e14 eb3c 1c86 623d 44d6 b8bb
00000180: d3fe 7e3d 78fd 81bd 8e63 6fbd 7f8d cd3d
00000190: 4162 623d 1d0f 5e3d fa8e 12bd 8fa8 20bd
000001a0: a803 0abd 3ca1 973d 973a 65bd b188 873d
000001b0: 1eef 803d 3072 b73d 72b9 14bc bb5c 1d3d
000001c0: a358 1f3d 70eb a13d d4b3 87bd 8bd0 8f3d
000001d0: 63ad 49bd 4e87 f0bc f670 6a3d 26e4 77bd
000001e0: 2c30 eb3c 0c0b 50bc 1c72 85bd c34c 66bd
000001f0: d9d8 043b aae7 843d f0d1 79bd 372a 5c3d
00000200: c345 34bb f6c7 45bd 6ab9 c3bd 3737 bd3a
00000210: 4c62 debd f802 8abd 65d3 a4bc af75 b8bd
00000220: 9966 00be d9df 343d c208 af3c b2f6 7abd
00000230: c6e5 9ebd fccf 8ebd 3b3b 8dbd fc37 853d
00000240: 84e3 a73d 9fc1 dbbb 3253 2cbd 601d 9cbd
00000250: c4aa 9dbd 4f38 cbbd 3746 37bd fd64 3c3d
00000260: 5166 a4bc b16c 133d e5f4 26bd affd 093c
00000270: 56b5 29bd 3c5d a0bc c2eb 863d 6dcf 98bc
00000280: ffbd 60bd 16c7 aabd 62e9 66bd d5b3 5fbc
00000290: 980e 84bc 228d b9bd 3ca5 0fbd 42d9 31bc
000002a0: 358c 9a3c 556b 5abd 9fca b13b 40d4 3b3d
000002b0: ed9e 653d 2403 753d 4dbb e6bc fffe 4a3d
000002c0: 84ac b3bc 10c0 b73d 720a 393d 1321 afbc
000002d0: 03ca 1e3d 71d4 2f3d 5b59 b13d a6b9 8bbd
000002e0: 83af f53c 6436 6fbd 6b78 99bd ea97 a7bd
000002f0: 7ab0 b4bd 50ab 883d 86b1 e8bc 521b 97bd
00000300: ed63 82bd d1ac 1fbd 9dc5 8fbd 3974 ac3c
00000310: 19a9 e6bc 2eca bebd d24e c33c 0263 2bbd
00000320: 4be7 62bd 7d2e 8f3d ff6e 2cbd 0ed9 0cbd
00000330: 6e23 2f3d e888 9f3d e7fb 073d ff1f 12be
00000340: 6e96 c3bc 3024 08bd 5887 4bba cbff 37bd
00000350: 7c24 f4bc 7425 aa3a 2308 5fbd 1eca 713d
00000360: 7358 e63c c6da fa3c 7105 4fbd 8b4d aabc
00000370: dea1 e93c f669 16bd b520 56bd 7d44 9ebd
00000380: d77a aa3d a52e a5bd e098 eebd 32b9 0e3d
00000390: 9f4e 00be 4f7a 7dbd be01 b7bc 0e24 4d3d
000003a0: 70b9 4ebc e7ef 78bd 10bc 42bd 5ed9 fcbb
000003b0: e40e 233c 63f0 89bd b4ea b7bd 9415 1d3d
000003c0: 6e86 a8bd 18a6 a2bb 8a86 e73c 4313 8dbd
000003d0: 647b 803d ab26 f8ba fbf6 3d3c 8e26 adbc
000003e0: 8784 2dbd ee3f 063c 459f 4ebd c963 b0bd
000003f0: f9fe 73bd afd0 603d d383 b53c aaa3 073d

transformer.layers.0.linear2.bias f4 [64]
-0.069644734 0.050761282 -0.07129429 0.028506609 0.029774658 0.06888782 0.056758117 0.031947933
-0.042837344 0.070454486 0.05266413 0.02593146 0.0676026 -0.092547946 0.07408894 0.09005894
-0.028863555 0.06696425 -0.023025341 -0.010757287 -0.066643246 -0.03465051 0.0026654822 0.056566793
0.09001063 -0.009571076 0.041207734 -0.04148053 -0.05743718 -0.0033956019 -0.015273231 0.035885416
-0.053508315 0.08207505 0.028984923 0.03718244 0.034482606 -0.008213294 -0.02101071 0.024709834
-0.022953298 0.0111031085 -0.046708483 0.037745945 0.0056697177 0.0015830967 -0.02472135 -0.06463678
0.039812706 0.062191326 0.03779543 -0.038930904 -0.06227089 0.05813127 -0.045441568 -0.031277698
-0.035786998 -0.052652575 -0.042933267 -0.09021891 -0.056135036 0.0009570854 -0.021035917 0.07819712
00000000: e6a1 8ebd 10eb 4f3d be02 92bd b186 e93c
00000010: fce9 f33c 0f15 8d3d 337b 683d d6db 023d
00000020: 3676 2fbd 714a 903d 58b6 573d 376e d43c
00000030: 3b73 8a3d c789 bdbd f1bb 973d d270 b83d
00000040: 4373 ecbc 8d24 893d a49f bcbc 553f 30bc
00000050: 417c 88bd b1ed 0dbd 5faf 2e3b 95b2 673d
00000060: 7e57 b83d 01d0 1cbc 71c9 283d 7de7 29bd
00000070: 4043 6bbd bf88 5ebb 933c 7abc 96fc 123d
00000080: 892b 5bbd f716 a83d ca71 ed3c 9d4c 183d
00000090: a23d 0d3d 0d91 06bc a71e acbc 476c ca3c
000000a0: 8e08 bcbc d0e9 353c 6551 3fbd 7e9b 1a3d
000000b0: 0ac9 b93b e97f cf3a 6e84 cabc 4a60 84bd
000000c0: a612 233d 55bc 7e3d 61cf 1a3d 0376 1fbd
000000d0: c30f 7fbd 0e1b 6e3d f020 3abd 0b1d 00bd
000000e0: 6395 12bd 3aaa 57bd cbda 2fbd b1c4 b8bd
000000f0: daed 65bd eae4 7a3a 8453 acbc d025 a03d

transformer.layers.0.norm1.weight f4 [64]
1.0453128 0.98648286 1.0201093 0.9953355 1.076059 0.98240036 0.9879561 0.986859
1.0270904 0.97352153 1.0017748 0.96226245 1.0012361 1.0273076 0.99876595 1.0014391
1.0148342 1.0331209 0.97426116 0.97429246 0.9858126 0.9947651 1.0054947 0.9885401
0.9913367 1.0092602 1.0286031 0.9965235 1.0050249 1.0248007 1.0001725 1.047634
1.0047932 1.0086869 1.0266583 0.9794899 0.99649256 0.9847976 1.0280073 0.97844476
0.97796506 1.0131359 0.9887545 0.9929976 0.97413087 0.961004 1.0207593 0.9919163
0.99442005 1.004887 1.0153292 0.9728676 1.0127927 0.99060833 1.006627 1.0192724
0.9509989 1.0280443 1.0145845 0.9981942 0.97672826 0.94325686 0.9904336 1.0167946
00000000: cfcc 853f 248a 7c3f f192 823f 4fce 7e3f
00000010: 4dbc 893f 977e 7b3f b1ea 7c3f cba2 7c3f
00000020: b377 833f b538 793f 283a 803f d556 763f
00000030: 8128 803f d17e 833f 20af 7f3f 282f 803f
00000040: 16e6 813f 4e3d 843f 2e69 793f 3b6b 793f
00000050: 375e 7c3f eda8 7e3f 0db4 803f f710 7d3f
00000060: 3ec8 7d3f 702f 813f 44a9 833f 2a1c 7f3f
00000070: a8a4 803f ab2c 833f a705 803f df18 863f
00000080: 109d 803f a71c 813f 8a69 833f dabf 7a3f
00000090: 231a 7f3f b21b 7c3f be95 833f 5b7b 7a3f
000000a0: eb5b 7a3f 70ae 813f 041f 7d3f 1735 7e3f
000000b0: a460 793f 5c04 763f 3ea8 823f 3aee 7d3f
000000c0: 5092 7e3f 23a0 803f 4ff6 813f da0d 793f
000000d0: 31a3 813f 8298 7d3f 27d9 803f 8577 823f
000000e0: aa74 733f f596 833f e8dd 813f a889 7f3f
000000f0: dd0a 7a3f 4879 713f 0e8d 7d3f 5326 823f

transformer.layers.0.norm1.bias f4 [64]
0.01601575 -0.01317305 0.0051066875 0.013680958 0.007251992 0.006499322 -0.022225985 0.012910956
-0.003644608 -0.0037267366 0.010852425 0.008785882 0.0046183737 -0.0018726395 -0.0037183387 0.008465763
0.007392294 0.010559116 0.012011368 0.007944106 0.0040458166 0.015114459 -0.0043152547 0.0046380577
0.014154649 -0.0018847397 -0.0011440727 0.008820084 0.013035899 0.0130299395 -1.569651e-05 -0.015546345
-0.019360928 0.0069569843 0.016571762 0.003025399 0.0019413393 0.011060941 0.007290535 -0.0017655046
0.022901112 -0.0061610304 0.016983977 -0.00990766 0.0061262967 0.009251283 -0.013698257 0.010556602
-0.014877472 0.0030260177 -0.0007263599 -0.0023562012 -0.0070359013 -0.0075575626 -0.0061603496 -0.022518368
0.027378287 -0.009951117 -0.011377464 -0.00027393177 -0.0031852573 0.00804259 -0.006958144 0.008406294
00000000: 7633 833c c7d3 57bc 0056 a73b 1926 603c
00000010: 1ea2 ed3b 44f8 d43b 4513 b6bc 7988 533c
00000020: 60da 6ebb 443c 74bb 5fce 313c a9f2 0f3c
00000030: ba55 973b 5b73 f5ba 5faf 73bb fcb3 0a3c
00000040: 0e3b f23b 2400 2d3c 54cb 443c ff27 023c
00000050: c592 843b a3a2 773c fb66 8dbb d9fa 973b
00000060: e7e8 673c 5f09 f7ba b6f4 95ba 1d82 103c
00000070: 8694 553c 877b 553c 00ac 83b7 19b6 7ebc
00000080: cf9a 9ebc 6af7 e33b 81c1 873c c645 463b
00000090: 8a74 fe3a f338 353c 71e5 ee3b 8168 e7ba
000000a0: 1d9b bb3c 78e2 c9bb fb21 8b3c bd53 22bc
000000b0: 1abf c83b b192 173c a76e 60bc 99f5 2c3c
000000c0: a4c0 73bc 2750 463b 3069 3eba 7f6a 1abb
000000d0: 6b8d e6bb 6ea5 f7bb c2dc c9bb 7178 b8bc
000000e0: 6e48 e03c 030a 23bc 8b68 3abc 809e 8fb9
000000f0: c0bf 50bb 11c5 033c 2401 e4bb 8dba 093c

transformer.layers.0.norm2.weight f4 [64]
1.0275412 0.9677865 1.0180752 0.9990896 1.0097963 0.988275 0.9909969 0.9911474
1.0333757 0.9707002 1.0138009 0.949901 0.99083 0.99874866 1.0187721 1.0021127
0.9980794 1.0303335 0.97695976 0.98606604 0.9966668 1.0271755 1.0137087 0.94368315
1.0139288 1.0143398 1.0202283 0.9942296 1.0091865 1.020277 1.0090008 1.0244949
1.034671 1.0050116 1.0384988 0.9755866 1.0036731 1.0077277 1.0544696 0.96766347
0.99101216 1.0066714 0.9513556 0.98599297 0.97935855 0.9561539 1.0138681 0.9716484
0.9770343 1.0162498 0.977689 0.9954983 1.0136659 0.9990535 1.0214419 1.0340866
0.9702398 0.9992427 1.0336545 1.0018673 0.9721484 0.9558452 1.0097823 1.0218936
00000000: 7886 833f dbc0 773f 4a50 823f 56c4 7f3f
00000010: 0141 813f 97ff 7c3f f9b1 7d3f d6bb 7d3f
00000020: a845 843f cf7f 783f 3ac4 813f b62c 733f
00000030: 09a7 7d3f fead 7f3f 2067 823f 3b45 803f
00000040: 2282 7f3f f8e1 833f 091a 7a3f d36e 7c3f
00000050: 8e25 7f3f 7d7a 833f 35c1 813f 3895 713f
00000060: 6bc8 813f e3d5 813f d796 823f d585 7e3f
00000070: 062d 813f 7098 823f f026 813f a622 833f
00000080: 1970 843f 38a4 803f 87ed 843f 0bc0 793f
00000090: 5c78 803f 39fd 803f dcf8 863f cbb8 773f
000000a0: f9b2 7d3f 9cda 803f 0a8c 733f 096a 7c3f
000000b0: 3eb7 7a3f 81c6 743f 6ec6 813f f3bd 783f
000000c0: eb1e 7a3f 7914 823f d449 7a3f fad8 7e3f
000000d0: cebf 813f f8c1 7f3f 9cbe 823f f35c 843f
000000e0: a361 783f 5fce 7f3f ca4e 843f 303d 803f
000000f0: b8de 783f 45b2 743f 8c40 813f 69cd 823f
