results/StandardScaler/TransformerModel_w100.pth (torch, 422086 bytes, 40 tensors)

input_projection.weight f4 [64, 6]
000000 9a 2f 4a 3e bc c0 d2 3e 88 8b 36 3e 46 e9 88 be
       0.19744721 0.4116267 0.17826664 -0.26740474
000010 e4 dc aa be a1 1d 65 be 5b 1e e6 3c 80 c9 93 be
       -0.3337165 -0.22374584 0.028090646 -0.2886467
000020 87 87 87 bc 7e 9c b5 be 3e f9 bf be ef 2e 34 be
       -0.016544117 -0.35470957 -0.37494844 -0.17596029
000030 d0 8e ed be 69 81 55 3e 7d 47 2d be 71 f7 d3 3d
       -0.4639802 0.20850147 -0.16921802 0.1034993
000040 9b 92 cc be c5 9a ad bd 5d 8a 5f 3e d7 c7 ba be
       -0.399556 -0.084767856 0.21830125 -0.3648059
000050 86 2f 32 3e 6a 60 89 be cb ba 06 bd 1b 16 5f be
       0.17400941 -0.2683137 -0.032892983 -0.21785776
000060 c0 01 54 3e a4 51 37 be 58 02 ba be b5 92 88 be
       0.20703793 -0.17902237 -0.36329913 -0.2667443
000070 7a 65 4b be fe 44 18 bc 47 b1 38 be 80 23 ac 3e
       -0.19862929 -0.009293793 -0.18036376 0.33620834
000080 73 3b 90 be fe da e1 3e 03 c5 af 3e 59 c3 ea 3e
       -0.28170356 0.4411239 0.34329996 0.45852163
000090 5d 8a 2d 3e 35 2c 9a be f6 b3 9d be 11 bb eb bd
       0.16947313 -0.30111852 -0.30801362 -0.115102895
0000a0 be ee be be a5 be ee bd e2 6b c4 be 3b 95 ba 3e
       -0.3729152 -0.11657456 -0.38363558 0.3644198
0000b0 4c 9e 80 be ad 2a 5b 3e 64 17 b6 be 26 0d 41 be
       -0.2512077 0.21402998 -0.3556472 -0.18852672
0000c0 b1 32 18 bd 2a 2b 76 3e 7a 2a 32 be a6 2a 00 be
       -0.037157718 0.24039903 -0.17399016 -0.12516269
0000d0 07 26 84 3e 1b 99 87 3e 66 f9 c9 be 53 9f 0e be
       0.25810263 0.26483998 -0.39448088 -0.13927965
0000e0 d4 be b0 bd 52 32 91 be b1 91 5e bd e8 86 c1 3e
       -0.086301476 -0.28358704 -0.05433816 0.37798238
0000f0 d1 27 3b 3e 8a 71 11 3e 19 fb 12 3e 0a ab df 3e
       0.18276908 0.14203468 0.14353599 0.4368518
000100 48 dc c4 bd 5f 8f bc be de 13 9a 3e 1b aa 0d 3e
       -0.09612328 -0.36828133 0.30093282 0.13834421
000110 03 18 0c be ed 8f ec 3e ca 13 48 bd df d5 89 bd
       -0.13681035 0.46203557 -0.048846997 -0.06730246
000120 79 7b 97 bb 93 35 de 3e 53 c9 57 3e 8a 76 86 be
       -0.0046228734 0.4340025 0.21072893 -0.26262313
000130 59 b1 0d be f0 42 a1 be d1 5a 99 3e a0 fb de 3d
       -0.13837184 -0.31496382 0.299521 0.108878374
000140 20 1c 6e 3d 57 2b 6c be 73 6c a2 3e c4 26 68 bd
       0.05813229 -0.23063408 0.31723365 -0.056677595
000150 ca 50 1c 3e 0d 3f 6b be 5f b3 55 bc ea 36 43 be
       0.15265194 -0.2297327 -0.013043254 -0.19063917
000160 f4 7b 84 3d 48 bf 28 be b4 25 85 be a1 c1 8c 3d
       0.06468955 -0.16479218 -0.26005328 0.06872869
000170 ac c9 ae be 26 67 35 3e cc fc d6 3e 20 85 61 bd
       -0.34138238 0.1771513 0.41989744 -0.0550586
000180 da 1e a0 3e 49 a7 b6 3e c3 8b 12 3c d5 f8 ec be
       0.31273538 0.35674503 0.008944455 -0.46283594
000190 a2 d8 bb 3e 52 c1 68 3e a4 f7 ca be 9c ec 2b 3d
       0.36688715 0.22729996 -0.3964206 0.041973695
0001a0 e8 e7 bc 3b 04 6e da be 57 fa 44 be b6 54 cf 3d
       0.00576495 -0.4266206 -0.19236122 0.10123579
0001b0 fe 9c 89 be 0a e6 ed be f7 73 a8 be 89 8d ee 3e
       -0.26877588 -0.46464568 -0.32900974 0.46592358
0001c0 90 28 a3 bd d9 9d 19 3e 50 47 18 3e e9 05 a4 be
       -0.07966721 0.1500162 0.14870954 -0.3203576
0001d0 90 d4 59 3e fd 4f 52 bd c2 26 b9 3e 89 6f bb bd
       0.21272492 -0.051345814 0.36162382 -0.09152133
0001e0 7e 32 d3 be e6 53 a5 bb c6 58 b3 bd 90 f1 41 bd
       -0.4124946 -0.005045402 -0.087571666 -0.047349513
0001f0 01 3c 6d be 6a 52 b7 3d 4d 5c 46 be 78 18 b9 bd
       -0.23167421 0.08951266 -0.19371147 -0.0903787
000200 4d 39 a4 3e 1e ea bd 3e a7 70 1d be c2 e6 a3 be
       0.32074967 0.3709268 -0.15375005 -0.32011992
000210 30 12 04 be 8f 5f c2 3e b7 a9 2e 3e 21 c3 97 be
       -0.12897563 0.3796353 0.17056929 -0.2964106
000220 94 82 01 be 16 ca 1b be 2f 23 89 be 0d d3 14 3e
       -0.12647468 -0.15213808 -0.26784655 0.14533634
000230 ef a5 34 3e 0d 8e 84 3e 10 6f 26 3e b3 56 62 3e
       0.17641424 0.25889626 0.16253304 0.22103386
000240 05 13 8b 3e 87 70 a4 bd 85 35 9b 3e 3f 43 03 be
       0.27162948 -0.080292754 0.3031427 -0.12818621
000250 c3 df 8b be bf c3 4d 3e 9c 51 e8 3e 85 3c 76 bc
       -0.27319154 0.20094202 0.45374763 -0.015029077
000260 61 11 98 be 1b 66 ba be 7f be 3e be 46 7c 1a bd
       -0.2970076 -0.36406025 -0.18627356 -0.037716173
000270 fc ba b8 3d 21 ee a3 3d 1b 69 b6 be e3 62 0f 3e
       0.090200394 0.08004404 -0.35627064 0.14002566
000280 a9 b6 d5 3c ba dc 11 3e f1 cf 26 be 8b c4 27 bd
       0.026088076 0.14244357 -0.16290261 -0.040958922
000290 ce 52 fb bd b6 f1 40 3e 93 85 01 bb 15 7a d5 be
       -0.12271653 0.18842205 -0.0019763454 -0.41694704
0002a0 95 59 b2 3e 44 81 93 3e 7b 9e 54 3e ec cd 5e 3d
       0.3483397 0.2880956 0.2076358 0.0543956
0002b0 22 6a d2 be 09 3d 68 3e b0 a3 c7 3e 34 1c 32 bb
       -0.41096598 0.22679533 0.3899207 -0.0027177455
0002c0 c5 ce 28 be 00 5e d3 3e 7d 20 54 be 91 99 f8 3d
       -0.16485126 0.41282654 -0.20715518 0.121386655
0002d0 17 30 25 bd 9f 34 04 3e 66 65 54 bd 83 3b be bd
       -0.040329065 0.12910698 -0.051854514 -0.09288695
0002e0 28 14 ca be 3d c5 aa be 8e ed 84 3e df 71 02 3d
       -0.39468503 -0.33353606 0.2596249 0.031846877
0002f0 80 d2 8e be fc 53 c1 be d4 ee 8e be 3d d9 db be
       -0.27894974 -0.37759387 -0.27916586 -0.42939177
000300 37 33 72 3d 37 5b 79 3e 33 73 a4 be 04 3c 7b 3e
       0.059130874 0.24351202 -0.3211914 0.24534613
000310 9f cb 7e 3e a7 9e 5c be 66 38 9f 3e 2a 28 22 be
       0.24882363 -0.21544896 0.31097716 -0.15835634
000320 3a de 2f be 2e 2e 23 be e6 01 a4 3e 4b 45 85 3e
       -0.17174616 -0.15935585 0.32032698 0.2602943
000330 fc 37 12 be e5 f3 1d be 7b d0 ad be 07 1b 7f 3d
       -0.14279169 -0.1542507 -0.3394812 0.062281635
000340 77 8c d4 3e 15 f1 8b be e9 72 db 3d ac 8d 20 be
       0.41513416 -0.27332368 0.10715277 -0.15679044
000350 de 5c b7 be 29 f3 41 be f9 5e 8b be 88 12 b1 be
       -0.3581304 -0.18940414 -0.27220896 -0.3458445
000360 9d 90 25 be f1 39 56 be c7 b5 79 bd 03 ea 1f be
       -0.16168447 -0.2092054 -0.060964372 -0.15616612
000370 1e e4 b7 3e f9 6b 93 be 9c d8 80 3e f2 c3 ff bd
       0.35916227 -0.28793314 0.2516526 -0.124885455
000380 46 51 22 bc 2f 9d e6 3d 31 01 1a be 10 41 f6 3d
       -0.009907072 0.11260449 -0.15039517 0.120241284
000390 7d be d4 be 1c 50 f4 3d db 71 8c 3e 17 4c 88 3e
       -0.4155158 0.11929342 0.27430615 0.26620552
0003a0 fb 25 4a 3e 7e 93 86 bd bf 5d a4 be 54 6c d5 3e
       0.19741051 -0.06571101 -0.32102773 0.4168421
0003b0 57 14 35 be a2 76 c2 be c6 f6 86 3e ff 2a cd be
       -0.1768354 -0.37981135 0.26360148 -0.40071866
0003c0 70 36 9d be d6 4f 92 3e 34 43 ab 3c 38 4c f1 be
       -0.30705595 0.28576535 0.020906068 -0.47128463
0003d0 b8 13 39 3e 06 e1 bd 3e 8c 9d ef bd 5e 08 8e 3e
       0.18073928 0.37085742 -0.116999716 0.2774076
0003e0 a0 3b 1e 3e 3f 70 ea 3e fd 60 f4 bd dc 45 9e bd
       0.15452433 0.45788762 -0.119325615 -0.07728168
0003f0 0b 81 92 be cb d3 66 3e 9c c8 a2 be 0c 00 d3 be
       -0.28614077 0.2254173 -0.31793678 -0.41210973

input_projection.bias f4 [64]
000000 e2 e2 58 3e 87 ff bf bd 2a f1 88 3e ef 68 90 be
       0.21180299 -0.0937491 0.26746494 -0.28205058
000010 01 e3 57 3e b0 51 86 3e 6f 16 34 3e 4f d8 81 3e
       0.21082689 0.26234198 0.17586683 0.25360343
000020 1a 85 17 3e a7 d6 88 3c 80 d4 4f be 9c bb 0c be
       0.14796868 0.016703917 -0.20295906 -0.13743442
000030 a1 9e 44 be a6 6d a9 be c2 a2 be bd c7 e0 36 be
       -0.19201137 -0.33091468 -0.09308387 -0.17859183
000040 5e 69 7f bd b9 15 22 bc c8 29 9c be ba c6 84 3e
       -0.062356345 -0.009892874 -0.30500627 0.25932866
000050 39 db 55 be e5 4e 7b be b6 42 9d 3e a5 2b 7c 3e
       -0.20884408 -0.24541815 0.3071496 0.24626024
000060 0f 5b 97 3d 87 3b b0 3e a8 35 44 3e 2e 8d 1c be
       0.07390415 0.34420416 0.19161093 -0.15288231
000070 cc 9b 0e be 37 56 17 be 29 6f 31 3e 0e 4b cc 3e
       -0.1392662 -0.14778982 0.1732756 0.39901012
000080 a9 91 e1 3d 22 37 88 3e 3c 3d 39 3d 9a fd a9 3d
       0.110141106 0.26604563 0.045224413 0.08300324
000090 6c 2e 4e 3e 7f a0 2b 3e 52 92 ae be 16 cc d3 3c
       0.20134896 0.16760443 -0.3409601 0.025854152
0000a0 b7 e9 03 bd c3 44 db 3d 1e 10 88 be 08 35 68 be
       -0.03220531 0.10706475 -0.26574796 -0.2267648
0000b0 89 ab 59 bd 95 77 0d 3e 08 39 1d 3d d2 b0 73 be
       -0.053142104 0.13815148 0.038384467 -0.2379792
0000c0 c9 3d a8 be 2a 28 98 3e 14 62 75 3d 42 04 20 be
       -0.32859638 0.29718143 0.059907988 -0.15626624
0000d0 64 c6 86 3d 8a 82 71 3e 41 01 bf 3d 5c 8e 3a 3d
       0.06580809 0.23584953 0.09326411 0.04554592
0000e0 94 35 b5 be bd 95 93 3d 0f 86 80 be cb ba c7 3e
       -0.3539244 0.07206295 -0.2510228 0.390097
0000f0 23 f0 2e be 33 95 78 bd 0a 8c 7d be 61 a3 55 3e
       -0.17083792 -0.060689162 -0.24760452 0.20863105

transformer.layers.0.self_attn.in_proj_weight f4 [192, 64]
000000 25 bc 6d 3c af 0c 94 bd 78 7b 23 bd b9 c6 68 3c
       0.014510189 -0.07228982 -0.03991267 0.014207535
000010 58 af e1 3d 9a 58 14 bd 84 01 1a 3e f0 a4 be 3d
       0.11019772 -0.03621731 0.1503964 0.09308803
000020 ec 07 cf bd a6 49 4d be a4 e3 a5 bc d6 ab a6 bc
       -0.10108933 -0.20047626 -0.02025015 -0.02034561
000030 1d 9e 64 3d b0 cd 26 3d e6 8b 36 3b 6a dc b8 3c
       0.05581485 0.040723503 0.0027854382 0.02256604
000040 6a 5e 38 bd af a8 b5 bd 01 29 d6 bd 01 bc 94 3d
       -0.045011915 -0.088700645 -0.104570396 0.072624214
000050 c7 f3 86 be dd 2f cf 3d d2 fc 14 3e 31 b4 b1 3d
       -0.26357862 0.10116551 0.14549568 0.08676947
000060 10 b2 87 3d ce 25 3e 3e 9c 30 5c 3e 39 38 2f 3d
       0.066257596 0.18569109 0.21502918 0.042778227
000070 a0 a7 b1 3d 61 77 ab bd 5d f1 33 3d d0 27 51 3d
       0.0867455 -0.08372379 0.043931354 0.05106336
000080 1c 44 9a 3b 92 73 59 3e 1f 8d b5 bd 2e 92 83 bb
       0.0047078263 0.21235493 -0.08864807 -0.0040152287
000090 d8 8c ab 3d d2 08 cc 3c 5e ea 65 be 95 b8 32 3e
       0.08376473 0.02490655 -0.22452685 0.17453225
0000a0 e0 4e d5 3c 72 db c6 3d 75 4b 2b be 92 95 fb 3c
       0.026038587 0.097098246 -0.16728003 0.03071097
0000b0 1e c4 9a 3d 8f e1 20 3e 34 86 9a 3d 08 24 7a bd
       0.07556938 0.15711044 0.075451285 -0.06106952
0000c0 59 74 80 bc f7 18 63 3e 54 57 29 be d9 81 12 bd
       -0.015680479 0.22177492 -0.1653722 -0.035768364
0000d0 b7 f7 4c 3e 33 e2 34 3e 4f e7 79 3e f0 af e9 bc
       0.2001637 0.17664413 0.24404643 -0.028526276
0000e0 51 7e 1f be f9 ea 5b bd ab 48 c6 bd 0b b9 97 3d
       -0.1557553 -0.053690884 -0.09681829 0.07408341
0000f0 75 e8 69 bd 74 79 b4 3d 5f 97 2c 3c 36 9c b0 3d
       -0.057106454 0.08812228 0.010534137 0.08623545
000100 99 17 54 bd eb ff e0 bd 10 ac 05 3e 04 15 f5 3d
       -0.051780317 -0.109863125 0.13053918 0.11966899
000110 a3 b7 d5 3d 95 5d 67 bc b7 e0 03 3e 39 9a 3f 3d
       0.104354165 -0.014121433 0.1287869 0.046777938
000120 9d 5b 5c bd 85 e7 bb 3c 99 99 4e bd 66 40 d1 3d
       -0.053798307 0.022937546 -0.05043945 0.10217361
000130 19 ec af 3d 7f d2 c7 bd 67 fe 0c 3e 03 fb 81 bd
       0.08589954 -0.09756946 0.13768922 -0.06346705
000140 6e 95 41 be 79 cc c1 3c 12 25 72 3d 62 12 01 be
       -0.18904659 0.02365707 0.059117384 -0.12604669
000150 f5 d8 a9 3d a1 da ac bd d9 5b 08 be dd ac 62 bd
       0.082933344 -0.08440138 -0.13316287 -0.055340637
000160 5c f5 5c bd 36 a7 09 be 96 09 65 bd 2d 08 e3 3d
       -0.05394493 -0.13442692 -0.055917345 0.11085544
000170 02 5c 07 be 7b 22 f9 3c 1d 74 1c be 63 4f 22 bd
       -0.13218692 0.03041195 -0.15278669 -0.03962649
000180 f2 29 06 be bb a8 46 3d 87 fb 8c bb db 7a aa 3d
       -0.13101938 0.048500758 -0.0043024453 0.08324214
000190 a9 a9 a6 3d 7d ca d1 bc db 9a 03 3e 46 e8 50 3d
       0.08137829 -0.02560925 0.12852041 0.051002763
0001a0 f2 0c ac 3d f0 31 a4 bc fc cb 0e 3e 2e 2c 22 be
       0.084009066 -0.020043343 0.13945001 -0.15837166
0001b0 79 21 08 3e 8a dd 21 be db 11 95 bd 3e 5a 4c 3d
       0.13294019 -0.15807167 -0.07278796 0.04989075
0001c0 63 70 b3 3d cb 7a 68 3d 30 5c 2c 3d fb 2f ca bd
       0.087616704 0.05675773 0.042080104 -0.09872433
0001d0 ca fe 01 3e 23 9c 2a be 7c fe ee 3d a9 d1 80 3d
       0.1269485 -0.16661124 0.11669633 0.062899895
0001e0 32 88 a2 3d f3 16 6d 3d ac c3 ed bd 2b 70 b0 bd
       0.079361334 0.057883214 -0.11609587 -0.08615144
0001f0 d1 3d 49 bd a5 c1 1c 3d d1 c7 d9 3d 9a 46 de 3d
       -0.04913122 0.03827061 0.10633815 0.1085331
000200 67 f1 21 be e2 1a 98 3d cb d9 20 3e 67 ae 27 3e
       -0.15814744 0.074270025 0.15708081 0.16375123
000210 86 da 5a 3d 12 9e 48 be 50 50 b3 3d 88 7a 93 bd
       0.053431056 -0.19591549 0.08755553 -0.07201105
000220 75 4a 23 be e0 50 77 bd a5 67 32 3e d0 4e 16 3b
       -0.15946372 -0.060379863 0.1742235 0.002293516
000230 33 5b 5d bd 2b a4 7a 3d 17 76 6d bd 09 71 0a be
       -0.054042052 0.06119172 -0.057973947 -0.13519682
000240 9f 95 2f 3d 06 60 df 3d c9 59 ff bd d7 b9 ca 3d
       0.0428673 0.10906987 -0.12468297 0.098987274
000250 56 35 b2 3c d5 cb 12 3e 8e 3d f9 3b 04 61 45 be
       0.021753948 0.14335568 0.007606215 -0.1927529
000260 ce 26 62 bc 1d 9d dd bc 75 d3 8d 3d 0b 91 c3 3d
       -0.013803197 -0.027052457 0.06925098 0.09549149
000270 19 22 2d be 36 4f c8 bd 40 3a 59 bc 61 da f9 3d
       -0.16907538 -0.09780733 -0.013258517 0.121998556
000280 e4 ed 4f 3d 8b ee ef bd 8a 11 02 3e 7c 96 05 3e
       0.05076398 -0.1171542 0.12702003 0.13045686
000290 bf 72 3c 3e a9 d0 d9 bc eb 21 47 be 0f 38 10 be
       0.18403147 -0.026588755 -0.19446532 -0.14083885
0002a0 03 5a 33 be c7 13 b5 3d ec 5c f7 bd 72 df bc bd
       -0.17514805 0.08841663 -0.1207827 -0.09222306
0002b0 26 e2 8c bc 35 b3 98 bc c1 41 23 bd ac 48 67 bd
       -0.01719768 -0.01864014 -0.03985763 -0.05646579
0002c0 22 27 32 bd 44 ad 85 bd 31 b9 be bc 8c 43 58 bc
       -0.04349435 -0.065271884 -0.023281666 -0.013199698
0002d0 13 6d d4 3d a9 f6 cd 3d 2b f9 1e bd 1f d8 08 be
       0.10372367 0.10056812 -0.038811844 -0.13363694
0002e0 fa a5 d1 bd 69 dc a8 bd 71 da c5 3d 60 88 d1 3d
       -0.10236736 -0.08245165 0.09660805 0.102310896
0002f0 75 d8 4b 3d d1 b8 aa 3d 93 e5 12 be 17 2e 2f 3d
       0.049766976 0.08336032 -0.14345388 0.042768564
000300 dc 32 59 bc 9b e1 25 3e 79 7b e8 3a 14 9f dc 3d
       -0.013256755 0.16199343 0.0017736993 0.10772529
000310 1a e7 ea 3a 36 35 ec bc 4f 67 37 3e a1 19 b0 3d
       0.0017921657 -0.028833967 0.17910503 0.08598638
000320 79 68 af bd 7c 91 f7 3c 79 ef 2d bd ee d1 84 3d
       -0.085648485 0.03022074 -0.042464707 0.064853534
000330 c2 a0 c1 bc 22 3a 15 be 41 71 53 bd e4 2e c8 3d
       -0.023636226 -0.14572957 -0.05162168 0.09774569
000340 1f 57 1e be aa e3 80 bd f1 ae e6 bd 18 63 b0 bd
       -0.15462922 -0.062934235 -0.11263836 -0.08612651
000350 47 5b d3 3c a0 59 8f bd fb cd 30 be ba 06 09 be
       0.02580036 -0.069995165 -0.17266075 -0.13381472
000360 14 dd f7 3d 29 9c 77 bc bd bc 3f be 2a cd 0f be
       0.12102714 -0.015112915 -0.18724342 -0.14043108
000370 cc f1 f3 3d 50 95 a7 bc 03 4d f9 3d 4a 48 71 3d
       0.119113535 -0.02045694 0.12172892 0.05890683
000380 8c 85 e9 bd 36 95 f2 bd b2 0e 82 3b 9c 01 81 bd
       -0.11402425 -0.11844866 0.003969037 -0.06299135
000390 03 67 0c be 26 7f 49 3c 6f 7d ec bd e1 d7 24 be
       -0.13711171 0.012298381 -0.11547362 -0.16097976
0003a0 75 1b 02 be ba a7 10 3d 6b fc d6 3c 31 cd fd bd
       -0.12705787 0.035316207 0.02624341 -0.12392653
0003b0 e5 92 14 bd 7a 43 c7 bd 00 f2 1d be e0 03 07 be
       -0.036272902 -0.09729667 -0.15424347 -0.13185072
0003c0 d0 98 82 bd 5e 9c 01 3e c0 4a 49 3d 35 70 e5 3d
       -0.06376803 0.12657306 0.049143553 0.112030424
0003d0 34 50 d1 3d ec 6c 09 be 9f 24 0a 3d c5 e0 ba bd
       0.10220376 -0.13420457 0.03372633 -0.09124903
0003e0 ba 88 97 3d 6c 78 04 be cc e9 7a bc d8 82 5a 3d
       0.073991254 -0.12936562 -0.015314531 0.05334744
0003f0 47 68 f3 bd ec 20 be bd a0 dd 7a 3d 3e d8 b6 3d
       -0.11885124 -0.09283623 0.061246514 0.08927964

transformer.layers.0.self_attn.in_proj_bias f4 [192]
000000 e1 d3 e0 3d 22 78 a4 bc 3a 6a a1 3c bf 04 8d bc
       0.10977913 -0.020076815 0.019703973 -0.017214177
000010 a2 70 4e bd ca 40 28 3c 55 96 51 39 3d 7e a6 bd
       -0.050400384 0.010269353 0.00019987796 -0.08129547
000020 0f 1f 8d ba 5a 94 ac 3c 91 52 53 3d bb c0 4b 3d
       -0.0010766702 0.021066833 0.051592413 0.04974435
000030 80 57 af bd 13 8e c8 bc 14 0e 67 3c 98 13 9d 3d
       -0.08561611 -0.024481809 0.014102478 0.07669753
000040 7d 01 a5 3c ee 7c a6 bc 39 4a b4 3c f2 22 8b 3c
       0.020142311 -0.020323243 0.022008048 0.016984437
000050 b7 3b 9b 3c cb 70 02 3d 8b bc 10 bd f5 f0 f9 bc
       0.018949373 0.03184585 -0.03533606 -0.030510405
000060 25 68 86 bc 37 bf 6d bd 37 c5 ff 3b 02 d0 fe ba
       -0.016407082 -0.058043685 0.0078054923 -0.0019440653
000070 bc 3c 0c 3c d6 00 81 3d 23 dd 9b bc c0 7b 45 bd
       0.008559402 0.062989876 -0.019026345 -0.04821372
000080 f9 0b 0b bd ab 17 82 bc 3c a2 af bc 59 9f da 3d
       -0.033946965 -0.015880426 -0.021439664 0.106749244
000090 9b 9e 74 bd c3 44 3f 3d de 53 69 3d c1 fb b5 3c
       -0.05972157 0.046696436 0.056964748 0.022214772
0000a0 c2 c6 ab 3c db 05 b3 bd 84 0c 54 bd 14 de a5 3d
       0.020968799 -0.08741351 -0.05176975 0.08098999
0000b0 21 42 84 bd f6 4b 89 bd 71 fa 6a 3c eb 91 2c 3d
       -0.064579256 -0.067039415 0.014341936 0.042131346
0000c0 34 52 45 3c 1f dc 04 bd 01 92 c3 3c fc a3 7e 3c
       0.0120435245 -0.032436486 0.023873331 0.015542027
0000d0 cd 3c d2 3c 25 64 3a 3d de 52 09 bd 0a aa 8c 3d
       0.025663758 0.04550566 -0.033526294 0.0686837
0000e0 c1 0b ea bc 3e 1d 03 3d e5 45 ac bc 40 76 5c bc
       -0.028570058 0.03201031 -0.021029422 -0.013455927
0000f0 61 43 37 3c 61 4d 2a bd 02 5b 18 bd 70 3d 5f 3d
       0.011185498 -0.0415777 -0.037196167 0.05450195
000100 7c c5 18 3a f3 6c 29 bb ce 10 f1 ba 24 f5 7d 3a
       0.00058277673 -0.0025852292 -0.0018391849 0.0009687713
000110 cd a0 4e 3a e3 38 93 3a e0 4f e9 ba ac 60 92 ba
       0.00078822376 0.0011232164 -0.0017800294 -0.0011167726
000120 d7 8d 74 ba 94 3e c4 3a e1 4d 15 bb 67 4b 33 3a
       -0.0009328997 0.0014972263 -0.0022782015 0.0006839544
000130 1b 8d b5 b9 f9 94 d0 39 e9 ce 0a 3a 95 fd 7b ba
       -0.00034628142 0.00039783845 0.0005295114 -0.0009612677
000140 ed 03 d9 3a 82 7a 6d 3a 20 8d 6e 3b 51 99 b5 3a
       0.0016556956 0.00090590876 0.0036400035 0.0013854896
000150 ac c0 14 39 dd f0 3a 3b 36 00 9d b9 07 33 98 ba
       0.00014186156 0.0028524913 -0.0002994553 -0.0011611887
000160 a3 84 62 ba f6 71 24 ba d0 e7 df ba 3e de 93 3a
       -0.000864098 -0.0006273085 -0.0017082635 0.0011281443
000170 13 0b f0 3a 39 48 d7 39 14 6f dd 3a 27 1b 08 bb
       0.0018313847 0.00041061806 0.0016894066 -0.0020768137
000180 8a 55 48 ba e8 29 72 bb a9 67 3d 3a f9 1a 82 39
       -0.0007642141 -0.0036951248 0.00072252244 0.00024815628
000190 d9 02 24 bb 72 12 96 b9 e5 f0 f6 37 b2 61 1a 3a
       -0.0025026111 -0.00028623972 2.943766e-05 0.00058891915
0001a0 1f fb 05 3a b2 da 0f 38 00 41 44 bb 71 2b f7 ba
       0.00051109673 3.4297533e-05 -0.002994597 -0.0018857551
0001b0 db 3d 00 3b de b4 55 3a 7d 8d ae ba b9 40 a3 ba
       0.0019568119 0.00081522565 -0.0013317313 -0.0012455202
0001c0 0a bb 79 3b 99 cb b0 39 10 3b 28 ba fe 61 38 ba
       0.0038105869 0.00033721028 -0.00064174924 -0.0007033645
0001d0 4a 98 cc 3a 4c 4e ce ba 22 b1 a7 ba 7b eb bf ba
       0.001560935 -0.0015739887 -0.0012793879 -0.0014642322
0001e0 4a 18 1a 3b e2 a0 d4 bb 9d 8d 00 bb 79 5b f6 ba
       0.0023513013 -0.0064889053 -0.0019615658 -0.0018795572
0001f0 48 27 46 3b d4 d1 e6 b9 3e 61 a2 3a 3e fa 74 3b
       0.0030235816 -0.00044025353 0.00123886 0.0037380601
000200 e4 6f 3d 3c 0d ad 5f 3c e2 2f ae bc 91 2d 3b 3c
       0.011562321 0.013652098 -0.021263067 0.011424438
000210 b5 96 5d bb 0f a7 6e 3c e0 dd 1a 3c e5 5d 88 bb
       -0.0033811752 0.014566197 0.009452313 -0.0041615837
000220 5a c3 04 3d ab a9 01 bc fc cc 04 bb ca 65 86 bc
       0.032412864 -0.007913987 -0.0020263782 -0.016405959
000230 e7 aa 14 3c 17 38 b3 3a b3 cd db 3b 38 80 93 3b
       0.009073949 0.0013673332 0.006707871 0.004501369
000240 66 02 71 3c f0 6f da bb c3 71 b3 bc 03 42 13 bd
       0.0147100445 -0.006666176 -0.021904832 -0.035951626
000250 cd 68 95 bc 0e f9 a7 3c 74 6d 05 bd e7 1b a7 3c
       -0.01823845 0.0205045 -0.032575086 0.020399047
000260 6b 55 e4 bc d3 3f c7 3c d6 9c 36 3b 25 3a db bc
       -0.027872762 0.024322426 0.0027864478 -0.026761124
000270 a9 1c 07 bc 45 d8 20 bc 20 0b d8 bb bd ed 80 3c
       -0.008246579 -0.009817188 -0.006593123 0.015738362
000280 35 10 56 bc 22 6b 62 3b c8 ca d6 3c 01 1d 42 3c
       -0.0130653875 0.003454872 0.02621974 0.011847735
000290 76 88 0c 3c 25 e1 87 b9 29 3f 76 3c f4 d7 c2 3c
       0.008577457 -0.00025916952 0.015029707 0.023784615
0002a0 0d bb b9 bc bd 45 23 3d bf 01 34 3c 29 90 80 3b
       -0.0226722 0.03986143 0.010986744 0.003923435
0002b0 a2 c7 a4 bc d6 66 48 bb 30 e2 47 3b 0e 4a 09 bc
       -0.020114724 -0.0030578873 0.0030499808 -0.008379472
0002c0 79 6c 94 3a 5f c2 3a ba d2 3a 02 bc 5f 74 6e 3b
       0.0011323831 -0.00071243005 -0.007948594 0.003638528
0002d0 07 e9 3c 3c 75 39 14 3c e6 27 1e bd 3d f1 c2 3b
       0.011530167 0.009046902 -0.03861227 0.005949168
0002e0 28 c3 2b 3c 32 c0 5c bb a9 37 90 3b 7d 77 7a bc
       0.010483541 -0.0033683893 0.0044011665 -0.015287277
0002f0 31 b3 67 3c 62 6d 01 3d aa c5 e7 3b 91 9d ea 3c
       0.014141844 0.031598456 0.007073124 0.028639587

transformer.layers.0.self_attn.out_proj.weight f4 [64, 64]
000000 c3 6a ce bd 02 ba fb 3c b2 86 93 bd 41 30 14 3d
       -0.10078957 0.030728344 -0.072034255 0.03617883
000010 99 a4 a3 3c 89 71 ac 3d 9f 9d 60 bb 91 90 9f bd
       0.019975947 0.084200926 -0.0034273637 -0.07791246
000020 e4 8c a6 3c 90 33 ba 3c 21 b2 5d 3d 65 11 9d bc
       0.020330854 0.022729665 0.054124955 -0.019173333
000030 18 d3 09 be 68 cd c2 3d 2f 15 d1 bd 34 87 b6 3d
       -0.13459432 0.095118344 -0.102091186 0.08912507
000040 1d 26 1c bd 2d c4 84 3c 72 bb f5 3c b4 0a 86 bc
       -0.038122285 0.016206825 0.029996607 -0.016362526
000050 e7 66 94 bd 88 a1 ea bc a6 0f 3e bc cf 16 2c bd
       -0.072461896 -0.028641477 -0.011600411 -0.04201394
000060 52 12 99 bc f3 a4 9c bd c9 76 4f 3d 09 8c b4 bd
       -0.018685494 -0.07648649 0.05065039 -0.08815772
000070 a6 d4 e9 3d 5e 71 88 bd 8a 46 cc 3c 87 7e 39 3d
       0.114175126 -0.06662248 0.02493598 0.04528668
000080 3d 4f d5 3d 88 45 17 bd 95 d9 94 bc 26 6c f1 bd
       0.10415504 -0.036931545 -0.018170157 -0.11788206
000090 0e 83 f5 3d d8 fc 48 bd ec 16 24 be 01 6c c5 3d
       0.11987887 -0.049069256 -0.16024369 0.09639741
0000a0 d5 a0 dc bd 1f 1e b5 3d 79 04 3d bd 3a f2 c4 bd
       -0.10772864 0.08843636 -0.046146844 -0.096165136
0000b0 75 34 7b 3d e9 5c 14 3d 15 24 62 bc b8 21 0e 3e
       0.061329324 0.03622142 -0.013802548 0.1388005
0000c0 85 07 74 bd 2f bf 8a bd 8c a3 06 3b ae 22 a8 bd
       -0.059577484 -0.067747466 0.002054426 -0.082097396
0000d0 b7 dd 53 be 90 0f d2 3d 88 22 33 3c ca d7 ec 3d
       -0.20690046 0.102568746 0.010933526 0.11564596
0000e0 c7 03 b3 bd df d9 07 3c 76 02 bf bd 31 d7 4b 3d
       -0.08740955 0.008291691 -0.09326641 0.04976577
0000f0 1f 78 3e 3b 3d 11 26 bd 62 a5 58 bb 85 a6 11 3c
       0.0029063297 -0.040543783 -0.003305756 0.008889799
000100 00 e3 f4 bd 3c 31 11 3e c7 53 ee 3d f0 64 5b bc
       -0.11957359 0.14178938 0.11637073 -0.013390765
000110 88 78 1c bd ee 36 8c 3d bf a3 91 3d 5c fc 6f bd
       -0.038200885 0.068464145 0.0711131 -0.058590278
000120 6e 8d 07 3d d9 ec cd bd 53 d1 d7 bc c9 fc 19 bd
       0.033093862 -0.10054941 -0.02634493 -0.03759459
000130 d4 f6 ba 3d af 6a b2 bd a7 fa 19 be 72 59 6f 3d
       0.0912911 -0.087117545 -0.15037023 0.05843491
000140 6c 57 a5 3d df 7f 30 3b 4e 1f e8 bd 84 5f 9f bd
       0.08073315 0.0026931686 -0.11334096 -0.0778189
000150 ea f6 5d 3c ec 91 2c bd 85 14 5e 3d da de 2c bc
       0.013547638 -0.04213135 0.054218788 -0.010551179
000160 cd e3 5c 3d a3 c1 5f bc 0d da 30 bd 18 b1 07 3d
       0.053928185 -0.013657006 -0.0431767 0.033127874
000170 e5 6e f7 bc 86 b9 b1 3d c9 88 68 bd b5 8c ca 3d
       -0.030204246 0.08677964 -0.056771073 0.09890119
000180 a7 ed 0c 3c cd 79 b2 bd b9 07 3c bc a3 21 ee 3c
       0.008601583 -0.08714638 -0.011476451 0.029068774
000190 ce 89 c0 3c b0 3d 84 3d 62 90 f5 bd 76 85 99 3d
       0.02350321 0.064570785 -0.119904295 0.07496159
0001a0 9e 9d 78 bc 3d c5 f1 3b 6f e4 20 be 2c f0 a3 3d
       -0.015174298 0.007378249 -0.1571214 0.080047935
0001b0 92 d6 09 3d 49 34 a3 3d 01 13 cf bd da c1 25 3d
       0.033651896 0.07968957 -0.101110466 0.040468074
0001c0 23 37 fd 3c f4 33 be bd 7b db ce bd a7 1f 23 3d
       0.03091008 -0.09287253 -0.10100456 0.039825108
0001d0 fc 36 54 be 71 0f 03 bd ad 50 02 3d 0a 50 a8 bd
       -0.207241 -0.031997148 0.03181522 -0.08218391
0001e0 0c 5f 21 be 2f 5f 24 3d 2c f3 c3 bd 77 05 ba bd
       -0.15758914 0.040129837 -0.09567866 -0.090830736
0001f0 30 b8 66 bc 26 a2 bc 3d 43 48 08 bd ae 74 fc bd
       -0.014082 0.09210615 -0.03327204 -0.123269424
000200 c8 54 29 be 5c 2a b3 bc 8e c5 14 3d 72 74 37 3d
       -0.16536248 -0.021870784 0.036321215 0.044788785
000210 16 c3 77 3c 52 73 86 bd c9 45 b2 3d 8c d9 c6 bb
       0.015122196 -0.06564964 0.08704717 -0.006068414
000220 b7 2b 6e bd 8f 37 45 bd 3d 64 df bc 3e 48 9c 3c
       -0.05814716 -0.048148688 -0.027269477 0.019077417
000230 0b c2 e6 b9 c6 2e 8f bd 09 67 fb bd bb 2a 9f 3d
       -0.00044013592 -0.06991343 -0.12275512 0.07771822
000240 c7 99 a1 bd 59 b6 24 3e 73 35 3f 3c ac 6c 53 3d
       -0.07890659 0.16085185 0.011670458 0.05161731
000250 0e ee ae 3d 4d bc b1 bc 09 5a 31 3c 2d 3a 12 3d
       0.08541499 -0.021696234 0.010824689 0.035700012
000260 85 fe fd 3b 40 9c 1e 3d a9 b2 15 3d 17 fe 0c bc
       0.0077512884 0.03872323 0.036547337 -0.008605502
000270 2b 7c cc bd 27 ad 79 3c ae e6 49 be 3f 49 6c bc
       -0.09984621 0.015239037 -0.19716904 -0.01442176
000280 73 38 4f bd 69 53 b0 3d 0a a6 9b 3c 22 f7 d0 bc
       -0.050590944 0.08609659 0.019000072 -0.025508467
000290 15 9c 3f bc 31 82 62 3d 8b 27 b7 3d 9f 7d 24 3d
       -0.011694928 0.05529994 0.08943089 0.040158864
0002a0 45 70 07 be f9 dd 7a 3d 0b 68 54 3b 66 3f 1b bd
       -0.13226421 0.061246846 0.0032410647 -0.03790226
0002b0 a8 c2 b6 bd 7e 9e 2f bd 86 01 95 3d 11 f0 85 bd
       -0.089238465 -0.04287576 0.07275681 -0.0653993
0002c0 0f 0f 9c bd b0 ca 97 bd ae ce 0b be 5f b7 41 3d
       -0.0762006 -0.074117064 -0.13653061 0.047294017
0002d0 5f 95 4f be de ed 4f bd 39 39 8f 3d e1 35 66 bd
       -0.20271824 -0.050763957 0.06993336 -0.056203727
0002e0 56 18 50 3c 2e 07 44 bc 3d 64 85 3c e8 74 12 be
       0.012701115 -0.011964602 0.016283149 -0.14302409
0002f0 23 a8 e0 3d 46 5b 0b 3c 88 c0 95 3d a6 f9 12 3d
       0.109695695 0.008505648 0.07312113 0.035882615
000300 3b 77 da bd c0 f3 f0 3d 3e 22 f7 bc 70 e6 92 be
       -0.10667273 0.117652416 -0.030167695 -0.28691435
000310 e3 4e ae bd ec 7e fa bd 4b 60 2a be 02 a6 9a 3d
       -0.0851114 -0.1223124 -0.16638295 0.07551195
000320 ed b0 ce bd 93 5c 11 be 21 ca 19 3e 72 e2 8f bc
       -0.1009234 -0.1419547 0.15018512 -0.017564032
000330 55 7c 7e bd 04 ec c3 bd 80 0a 3d bd f8 f7 c7 bd
       -0.06213029 -0.09566501 -0.04615259 -0.09764093
000340 90 e9 57 bb 3e a3 36 bc e9 78 14 be 2d a5 57 bd
       -0.003294561 -0.011147318 -0.14499249 -0.05264776
000350 e7 f6 47 3d 88 da 7e 3d d4 40 61 bd 07 fd 00 be
       0.04881945 0.062220126 -0.054993466 -0.12596522
000360 37 27 03 be b4 b7 bd bd cd 49 99 3b 04 e6 0b bd
       -0.12807928 -0.09263554 0.004677987 -0.034154907
000370 60 1f 78 bd 01 54 0b 3d ca a5 9a 3d 17 eb 88 3c
       -0.060576797 0.03401566 0.07551153 0.016713662
000380 15 42 cd bb c7 20 38 bd 8b 8c c3 ba d9 d1 94 bd
       -0.006263981 -0.044953134 -0.0014919204 -0.07266588
000390 2c d4 fb 3c ed 42 e3 bd 5b e6 68 3d b7 57 71 3d
       0.03074082 -0.110967495 0.05686031 0.058921542
0003a0 dc 22 bd 3d c8 5d d7 3d 47 5d 95 bd f6 93 32 bd
       0.092351645 0.10515934 -0.07293182 -0.043598138
0003b0 0b dc 9a bb 10 ba 1c 3c 42 9b 05 bd 22 0a 1a 3b
       -0.004725938 0.009565845 -0.03261877 0.0023504575
0003c0 32 61 b6 bc c2 f5 8b bd e3 8f 1d bd 38 6f 02 3d
       -0.022263143 -0.06833984 -0.0384673 0.031844348
0003d0 5c 08 ce 3d 01 66 8e bb e7 bb b0 bd 73 56 be 3c
       0.10060188 -0.004345656 -0.086295895 0.023234582
0003e0 cb 00 ed bb 96 0a 94 3d ba 42 94 3d dd b2 7e ba
       -0.0072327605 0.072285816 0.072392896 -0.0009715984
0003f0 46 3a b0 3d b6 10 45 bd e4 3c 89 3d bc ef 95 3c
       0.08604865 -0.04811164 0.06701067 0.01830279

transformer.layers.0.self_attn.out_proj.bias f4 [64]
000000 86 39 6d 3d 3a b4 15 bd 2d 20 18 3c a9 89 4a bd
       0.057916187 -0.03654883 0.009285015 -0.04944769
000010 2c 0e 7b bb b8 10 d9 3c dd 02 0c 3d ee f9 3a bd
       -0.0038308008 0.02649723 0.03418242 -0.045648508
000020 93 14 4f 3d 36 a1 7d 3c f4 6f 4e bd 0f 08 ea bc
       0.05055673 0.01548033 -0.050399736 -0.028568296
000030 bf 93 23 bc 5a e5 e8 bc 13 4f 74 bd b0 6b 1b bd
       -0.009983956 -0.028429676 -0.059645724 -0.037944496
000040 5f d8 0a bd 8a f8 b4 bc 0d f5 bf bc 1a 45 98 3d
       -0.033897754 -0.022091169 -0.023432279 0.07435055
000050 25 08 59 bd 80 4e 1b bd b0 d6 f6 3c 58 2a 12 3d
       -0.052986283 -0.03791666 0.030131668 0.035684913
000060 10 4c a0 bb 9e c3 43 3c 7b f3 a9 38 c4 fa 42 bd
       -0.00489188 0.011948494 8.1039e-05 -0.04760243
000070 b8 74 e0 bc d9 49 4e bd a1 85 07 3d 5f 22 dc 3d
       -0.027399406 -0.050363395 0.033086423 0.10748743
000080 67 10 55 3c 13 3d d5 3c df 27 1c 3c b0 75 ae ba
       0.013004399 0.026030099 0.00953099 -0.001331022
000090 59 47 12 3d e8 7d ec bc 72 df 38 bd 95 40 56 bc
       0.035712574 -0.02886863 -0.04513497 -0.013076921
0000a0 57 19 5d bd 71 0e 00 3d 7a 70 60 bd c0 3e 12 3a
       -0.053979244 0.031263772 -0.054794766 0.00055788085
0000b0 38 9a 12 3d fb 61 46 3d e1 f1 c5 3c 11 56 59 bd
       0.035791606 0.048433285 0.024163188 -0.053060595
0000c0 df 02 9e bd e4 37 a4 3d 35 69 9b 3b 5d 9a ba bc
       -0.07715391 0.08018473 0.0047427663 -0.022778684
0000d0 2b 8c 1c 3c 4a 94 27 3d 45 d3 34 3c 22 9b ee bc
       0.009554903 0.040912904 0.011036699 -0.029126707
0000e0 ad 5b 5f bd a8 c6 83 3c 0b 3c e3 bc 80 65 9b 3d
       -0.05453079 0.016085938 -0.027738592 0.07587719
0000f0 57 62 9b bc ba 3f ce 3b b5 28 ad bc a7 a2 4b 3c
       -0.01896779 0.006294218 -0.021137575 0.012428916

transformer.layers.0.linear1.weight f4 [128, 64]
000000 de bc af bd e5 c7 8f 3d c9 a0 8a 3b 7c 7a bb 3d
       -0.085809454 0.07020549 0.004230593 0.091542214
000010 f8 b0 0a 3d 61 c2 a5 bd f7 1c 18 be e2 8b d8 bd
       0.033860177 -0.080937155 -0.14854799 -0.105735555
000020 75 2b ae bd 2b 70 0e 3e 11 12 2a 3c fe 64 f1 3d
       -0.085043825 0.13909976 0.010380284 0.11786841
000030 bc e1 73 3d 27 23 f2 3c 51 72 3d 3b 0a 11 7c bd
       0.05954145 0.029557778 0.002890725 -0.061539687
000040 79 17 3c 3e 20 b4 88 3e 61 96 f0 3c 60 20 13 3d
       0.18368329 0.26699924 0.029368581 0.035919547
000050 77 3b 22 3e 5a a0 42 3e 56 e1 c2 3c 99 9c c2 bd
       0.15842997 0.19006482 0.02378909 -0.09502525
000060 4c 8b d7 3c 93 a3 46 be 3e f3 37 be 6e 6b f4 bb
       0.02631154 -0.19398336 -0.17963883 -0.0074590957
000070 15 9f 4b bd 78 19 f8 bc 88 f8 af bd 10 98 d8 b9
       -0.04971226 -0.030285582 -0.085923254 -0.00041312026
000080 08 79 10 bd fc 02 e5 bd 99 fd 06 be e0 16 61 3d
       -0.035271674 -0.1118221 -0.13182677 0.054953456
000090 1f bc ba bd 9f 1b 02 bd b5 59 0f 3e b6 5f 2a be
       -0.091179125 -0.031764623 0.13999064 -0.16638073
0000a0 39 9d 7b 3d ad c1 b6 bd 9f c4 d4 bc 28 54 31 3e
       0.061429236 -0.089236595 -0.025972662 0.1731726
0000b0 21 be 58 bd 1b 1f 09 be 88 03 24 bc 44 c8 3d 3d
       -0.052915696 -0.13390772 -0.010010608 0.046333566
0000c0 e4 92 4d bd c3 c6 96 bd 74 00 21 bc 6d c1 ab 3d
       -0.050188914 -0.073621295 -0.009826768 0.083865024
0000d0 d1 85 91 bd b4 1d 33 be c7 5f 54 be 00 1d 8a 3d
       -0.071056016 -0.174918 -0.20739661 0.067438126
0000e0 16 4b 9b bc 5a a2 c2 3c bc 7d 3d 3e 72 80 1a be
       -0.018956702 0.023759056 0.18504995 -0.1508806
0000f0 5c b2 e6 3d 65 e1 53 be 80 a9 b1 3d 86 ed 37 bd
       0.11264488 -0.2069145 0.08674908 -0.044904254
000100 eb 3c 19 be 6b 96 95 bd e4 a5 e2 bd 4f 81 85 3e
       -0.14964645 -0.073040806 -0.110667974 0.26075217
000110 8d 93 c4 3c 41 b1 7d b9 84 8c cf bc b4 49 c3 3d
       0.023996139 -0.00024193992 -0.025335558 0.09535542
000120 41 0a ec bd 93 a9 2c be 71 b7 ea 3d 03 ae 06 bd
       -0.11525393 -0.16861562 0.1146077 -0.032880794
000130 a4 9b 10 3e 1f 99 03 3e 2d 77 4a 3e b7 fa 55 3c
       0.14121872 0.1285138 0.19772024 0.013060263
000140 02 38 e0 bb 02 59 07 3e e0 eb a2 bd 0d 0c 3f bc
       -0.006842614 0.13217548 -0.07955146 -0.011660588
000150 83 7c 00 bc 65 c9 fb bb a1 fd 2b be fa a3 d9 bd
       -0.007842186 -0.00768392 -0.1679597 -0.10626979
000160 2a ba e8 3c 5d f1 c7 3b b7 73 04 bc da 56 b7 bd
       0.028409082 0.006101771 -0.008084229 -0.089521125
000170 c7 1e 8f bb 10 eb d6 3d cd 5a 08 be ee 32 56 3c
       -0.0043676826 0.10494053 -0.13315888 0.013073666
000180 b6 12 03 3e f6 8a 3d bd 00 37 67 bd 05 72 46 3d
       0.12800106 -0.0462751 -0.056448936 0.04844858
000190 ac 85 89 bc 5a 97 0a be cb 0b f2 3c f9 09 18 3d
       -0.016787373 -0.13534299 0.029546639 0.037118886
0001a0 c4 e9 ff bd 8e 9b ad 3c 9e d3 05 bd c3 94 70 3d
       -0.12495759 0.021192338 -0.032672517 0.05873562
0001b0 39 b7 50 3d cd d7 67 be 16 9c e5 bd d0 6a cf 3d
       0.050955985 -0.22640915 -0.11211412 0.10127795
0001c0 cc 7b 1a 3e e6 8d 0c bd 85 1d 93 3c 1c fb 73 bd
       0.15086287 -0.034315012 0.017958412 -0.05956565
0001d0 ab 9c 6c bd 74 f0 09 be a4 71 1f bd e7 8c 99 bc
       -0.057766598 -0.13470632 -0.038926736 -0.018743945
0001e0 17 c2 0a bd d1 ec ab bc 4b 46 9f bd d3 d9 32 be
       -0.033876505 -0.020986946 -0.07777079 -0.17465906
0001f0 e4 20 9c 3c 60 db 22 3d 0a 28 2f 3e 37 b5 b7 bd
       0.019058652 0.039759994 0.17105117 -0.08970111
000200 c8 56 27 be ce 0a b7 3c 0d da 16 3d 12 53 b9 3d
       -0.16341698 0.02234402 0.036829043 0.090490475
000210 cc c0 3f bd 72 ae 16 be 9b 95 a1 bc 6c f9 31 3e
       -0.046814725 -0.14714983 -0.019724658 0.17380303
000220 55 0c ed 3c e2 e2 1d be e9 b7 32 3e 10 87 17 3d
       0.028936544 -0.1541858 0.17452969 0.03699404
000230 db 9e d6 3b 75 79 0f 3d 81 d3 d8 3c 66 dd df 3b
       0.0065496988 0.03502794 0.02646804 0.0068318127
000240 8b c7 b1 3d 26 d9 24 3d c0 77 ab 3d 98 e3 86 3d
       0.08680638 0.04024615 0.0837245 0.06586379
000250 5c 2d d4 3d 7b 40 0d 3e b4 53 60 bd 48 e6 4e 3d
       0.10360214 0.13794129 -0.054767326 0.050512582
000260 04 6f b1 bd 3f 0f 51 be 85 94 3e 3b e8 43 d3 3d
       -0.08663753 -0.20415972 0.0029080224 0.103156865
000270 83 02 40 3d ca 53 9d bd 32 00 f4 bd 8f ff 01 bb
       0.046877395 -0.07681997 -0.119141 -0.0019836163
000280 1c f2 cc 3d 23 b4 3b be 82 e4 d1 bd a2 8b 99 bd
       0.10007116 -0.18330435 -0.102486625 -0.07497336
000290 03 c4 bc 3d e4 f7 16 bc 32 fa d1 3d 70 68 d2 3d
       0.09217074 -0.009214375 0.10252799 0.10273826
0002a0 fc f8 a2 bd bc 9f b4 3d 62 ab 0f be d3 ff ea 3d
       -0.07957646 0.088195294 -0.14030221 0.11474576
0002b0 cb 1c 61 3d dd d9 95 bd 8d 1d fa 3c 47 0c 14 3d
       0.0549591 -0.07316945 0.030531669 0.03614452
0002c0 7d e9 ec 3d 8a 50 1d be 11 9e 86 3d 5a 1b c5 3c
       0.11567972 -0.15362754 0.065731175 0.024060894
0002d0 00 da e4 3c a5 b0 c4 bd ee 4f f5 3d eb f8 0a bd
       0.027935982 -0.09604005 0.11978136 -0.033928793
0002e0 4e fb f2 3c 06 58 e8 bd 4b 04 f8 3c 17 5c 9b 3d
       0.029660847 -0.11344914 0.030275485 0.07585924
0002f0 6e 18 ab 3d fd 8f 51 bd 0d 0a 8c 3d 85 2f 84 bd
       0.08354269 -0.05116271 0.068378545 -0.06454376
000300 4a 30 a1 3c 6c 99 04 bc 1a c2 0d 3e a0 e8 14 3e
       0.019676346 -0.008093219 0.13843575 0.14541864
000310 0b d9 a4 3c 7a 84 3e 3d 0d 3f 59 bc b5 55 b0 ba
       0.020123025 0.04651306 -0.013259661 -0.0013453277
000320 4a 91 52 be 86 fb 64 be 30 6a 6e 3d 8e 10 e3 3d
       -0.20563236 -0.22361574 0.058206737 0.11087142
000330 a8 4e 35 3e 30 e6 9d 3c bd e4 92 3d 00 b2 19 3e
       0.17705786 0.019274801 0.071725346 0.15009308
000340 24 d2 0f bd d5 6c 56 3c 6d 6f 59 bd 17 61 a6 bd
       -0.035112515 0.013087471 -0.05308478 -0.08123987
000350 ee fd fb 3c 52 48 db 3d d4 9f 3f be 6c 02 bd bd
       0.030760732 0.107071534 -0.18713313 -0.092289776
000360 c5 0f 08 be b8 ac 33 bd e4 9d 68 bc 4b 26 1d 3e
       -0.13287266 -0.04386589 -0.0141978 0.15346639
000370 7b 5d dc 3c d5 e9 99 3d c8 fe e9 bc 5a 9a be 3d
       0.026900044 0.07515303 -0.028563872 0.09306784
000380 14 70 03 3e b6 52 15 be 7c 20 76 bd af e5 b1 3d
       0.12835723 -0.14582333 -0.060089573 0.08686387
000390 77 54 eb bc 3f a6 f4 bd c2 6d 44 3c 67 e1 20 3e
       -0.0287268 -0.119457714 0.011989059 0.15710984
0003a0 70 16 21 3d 66 d8 6d bd 07 f6 76 3d 8a 33 65 3e
       0.03932804 -0.0580677 0.060293224 0.22382942
0003b0 fc 12 f6 3d 94 b4 83 be 1c 6c 80 be 4b a4 26 3e
       0.1201534 -0.25723708 -0.2508248 0.1627361
0003c0 c5 dd af bc 7e ff 72 bc 01 63 47 3d 3d b1 09 3c
       -0.021468053 -0.014831422 0.0486784 0.008404073
0003d0 c4 b6 1f 3d 04 29 99 bd 1a bf d7 3d 8c 85 c8 bb
       0.03899266 -0.07478526 0.105344966 -0.0061194357
0003e0 02 59 8d 3d 61 22 df bd 8a 83 eb bc 5b 2b 03 be
       0.069017425 -0.10895229 -0.028749246 -0.12809508
0003f0 e3 57 b5 bc 17 2a 74 bd da 19 56 3d 00 fd ad 3d
       -0.022136634 -0.059610453 0.052270748 0.084955215

transformer.layers.0.linear1.bias f4 [128]
000000 8c 24 95 bd 18 1e d4 bd 59 75 18 3c bd e8 36 be
       -0.072823614 -0.103573024 0.009305322 -0.1786222
000010 b3 41 ff bd 5f fc db bb 74 0f 00 be dc b8 ec bc
       -0.12463703 -0.0067134346 -0.12505895 -0.028896742
000020 59 33 9c 3d 66 71 ab bd 2d f8 01 3d 14 a4 62 bd
       0.07626981 -0.083712384 0.03173082 -0.05533226
000030 d0 93 9b bd a3 d5 53 3c 99 17 c7 3c 0b a4 60 bd
       -0.07596552 0.012929353 0.024303244 -0.054843944
000040 3a bf 03 be 4a 31 8d bc 38 b0 1f be e5 0a 15 bd
       -0.12865916 -0.017235417 -0.15594566 -0.036387343
000050 9c fb ba bd 48 aa 10 bd 43 a4 94 3c 78 26 c0 bd
       -0.09130022 -0.035318643 0.018144732 -0.09382337
000060 c3 d4 0a be 7b 96 05 be 83 50 04 be 96 c2 9a bd
       -0.13557725 -0.13045685 -0.12921338 -0.075566456
000070 28 5d 81 bb a3 3b 11 be 70 6a a6 bd 2a 26 5b bb
       -0.0039478727 -0.14182906 -0.0812577 -0.0033439496
000080 c2 a8 1f be 68 27 b8 bd 53 4e ed bc 7b 66 1a 3d
       -0.1559172 -0.08991891 -0.028968012 0.03769539
000090 a3 71 30 be 3a 37 d9 bd 68 8a 16 be 5c 26 0e be
       -0.17230849 -0.10606237 -0.14701235 -0.1388182
0000a0 28 48 6f bc 17 4b 6e bd 07 c2 05 3d 31 9d 29 be
       -0.014604606 -0.05817708 0.032655742 -0.1656387
0000b0 dd c9 c8 bd 51 8a 05 be cf 11 96 3d f4 11 1a 3b
       -0.09804127 -0.13041045 0.073276155 0.0023509236
0000c0 3f bd 52 bd cb b9 b7 bd 3a 4d 81 3c 1f ec 1c bd
       -0.05145001 -0.08970984 0.015783895 -0.03831112
0000d0 55 e1 cd bd a5 29 8d bd d6 6e e0 bb 2e 56 4b bd
       -0.10052744 -0.06892709 -0.00684915 -0.049642734
0000e0 99 2e dc bd 3e 40 13 bd f2 0e 59 3c 84 b7 82 bd
       -0.10751075 -0.035949938 0.013248192 -0.06382659
0000f0 f9 c1 e1 bd e2 35 39 be 5a d1 24 3d 82 b2 07 be
       -0.110233255 -0.18086961 0.040238716 -0.13251689
000100 ec a4 41 3d cd 47 c1 bc 0d 8e 38 3d c2 45 1a bd
       0.047276422 -0.023593808 0.045057345 -0.037664182
000110 4e 5d b3 bd 3a 7b cf bd 66 cc ff bd 3c b1 0b be
       -0.08758031 -0.101309255 -0.12490158 -0.13641828
000120 0a 0f 49 bd dc 6b 47 bb ae 80 a7 bd 4c 26 84 bd
       -0.049086608 -0.003042928 -0.081788406 -0.06452617
000130 d3 b9 3f be 2d e2 05 bd 30 aa a8 3d c0 3a 82 3c
       -0.1872323 -0.0326864 0.08235586 0.015897155
000140 89 d3 d0 3c 34 e9 b1 3c e4 53 03 bd 2a b9 a1 bd
       0.025491493 0.021717645 -0.032062426 -0.07896645
000150 44 10 e1 bd 8f 99 86 bc 71 d5 0a bd 1a ca 23 bd
       -0.109894305 -0.016430644 -0.03389496 -0.03998766
000160 45 c8 14 be 7e 7b 86 bd 2c 03 17 bc f0 55 ce bd
       -0.14529522 -0.06566523 -0.009217065 -0.10074985
000170 3e 57 0b 3b b1 96 c6 bd 83 c4 da 3c 76 64 20 be
       0.0021261717 -0.09696711 0.026705032 -0.15663323
000180 85 54 16 be 05 60 f9 bd 16 29 1a 3d bd 24 66 3d
       -0.14680679 -0.121765174 0.03763684 0.05618738
000190 99 fc bc bc c1 45 83 3c ba 0c 4b be 58 67 4f bd
       -0.023069667 0.016024472 -0.19829074 -0.050635666
0001a0 77 d9 9a bd 44 6a 0a be 92 4f 11 be ec 8e 1a be
       -0.075610094 -0.135171 -0.1419051 -0.15093583
0001b0 69 56 66 bd 3e 0c 36 be f2 98 41 3d 35 be 02 be
       -0.05623475 -0.17778108 0.047265 -0.1276787
0001c0 77 5c f0 bd 3f 99 9b 3c 45 64 4a be a4 b7 9f bd
       -0.11736386 0.018993972 -0.19764812 -0.077986985
0001d0 42 6d 85 bd 79 c8 be bd 54 69 46 bc 2b 4f af bd
       -0.0651498 -0.09315581 -0.012110073 -0.08560022
0001e0 b2 0f f1 bd bd 61 d2 bd 2b 23 7c 3d 11 f3 0d be
       -0.11770572 -0.10272548 0.061556976 -0.13862254
0001f0 74 9e 2b 3d 11 e3 37 bd 91 32 15 3c 19 93 20 bd
       0.04189916 -0.04489428 0.009106294 -0.039202783

transformer.layers.0.linear2.weight f4 [64, 128]
000000 24 5c 0a bd 51 79 88 bd c0 a6 f5 b9 90 f9 81 bc
       -0.03377928 -0.06663764 -0.0004685428 -0.015866071
000010 2d 91 04 3e 64 9d 83 bd 72 b6 98 bc 9e 0f 23 be
       0.12946005 -0.06426504 -0.018641684 -0.15923926
000020 92 55 c2 bc 2f 30 13 bd e5 ea 82 3d c2 0c ca bd
       -0.023722444 -0.035934623 0.06392459 -0.098657146
000030 b3 d8 ab bc 48 6d 21 3d e2 1b d0 3d 49 1d c1 3d
       -0.020977354 0.03941086 0.10161568 0.09429414
000040 f3 9a 33 3c 88 82 5e bd c3 f3 42 3d c0 bb 7b bd
       0.010962236 -0.054323703 0.04759575 -0.06145835
000050 c6 97 31 bd c0 fb 9b 3d 0d 8a 9b 3d 2b 74 98 3c
       -0.043357633 0.07616377 0.075946905 0.01861008
000060 52 00 32 bc 80 bb 21 bb 90 20 57 bd 1c 30 27 3e
       -0.010864334 -0.002467841 -0.05252129 0.16326946
000070 89 22 79 bd 8f 1a 08 3e b1 42 ec bd bd 38 be 3d
       -0.06082395 0.13291381 -0.11536158 0.09288166
000080 ee b9 81 bd f8 a1 91 bc a4 1c cb bd 5c 3e 53 be
       -0.063342914 -0.017777428 -0.09917572 -0.20629257
000090 97 cb ec bd 55 09 e0 3c db 15 a5 3c 2b 2f 0c 3c
       -0.11562269 0.0273482 0.020152023 0.008556168
0000a0 18 e7 a6 bd 7a fa 21 3e 24 d4 32 3e 18 e8 a0 3d
       -0.081495464 0.15818205 0.17463738 0.07856768
0000b0 be 81 b3 3d 48 7d 90 bd 80 47 c2 bc db 98 63 bc
       0.08764981 -0.070551455 -0.023715734 -0.013891424
0000c0 78 ef 42 3e 48 c9 74 3c 26 0d 1d bb 9e ef 13 bd
       0.19036663 0.014940567 -0.0023964136 -0.03611719
0000d0 ca f4 e8 3c e0 ca 21 bc 32 2b cb 3d ea 8c 16 be
       0.028437037 -0.009875029 0.09920348 -0.14702192
0000e0 47 98 f6 3d 1a a0 7d 3d 03 fe 5a 3d e8 67 b8 bc
       0.12040763 0.061920263 0.0534649 -0.022510484
0000f0 f5 7d ae 3d 84 fe 34 be c4 e1 56 bc dd bf 2d 3e
       0.08520118 -0.17675215 -0.01311535 0.16967721
000100 c0 9a ff 3c 72 3d 27 bd 75 be 7c 3d 37 1a 1e bd
       0.03120172 -0.040830083 0.06170507 -0.03859922
000110 23 69 56 bd 5e 65 7d 3b 8b d4 14 be 77 c6 bc 3d
       -0.05234636 0.0038665156 -0.14534204 0.09217542
000120 1f cb 01 3d dc 1a 4b 3d 23 cc f4 3d c3 08 d1 bc
       0.031687852 0.049586162 0.119529985 -0.025516873
000130 04 89 32 be 9a 1a 35 be 34 72 2c bc fa 86 03 be
       -0.1743508 -0.17685929 -0.010525275 -0.12844458
000140 b6 99 4d 3d 1a 9f 77 bd 5f 6a 22 3c 87 77 eb 3d
       0.05019542 -0.060454465 0.009913056 0.114974074
000150 cc 10 09 3e ca af 83 3d 79 18 32 3a 25 f4 93 bc
       0.13385314 0.064300135 0.0006793808 -0.018060753
000160 fe ef 2d 3e b3 d8 a6 bd 81 fd d1 bd 45 89 6c bc
       0.16986081 -0.08146801 -0.1025343 -0.0144370245
000170 ce 8f ec bd 51 e8 6e bd 0d 9f 1d be ee 39 cf 3d
       -0.11550866 -0.058327023 -0.15392704 0.10118471
000180 42 2c 8a bd 0f bd f1 bd 97 73 46 3e a4 7d 81 bd
       -0.06746723 -0.11803638 0.19380032 -0.06322792
000190 39 a0 01 3c 75 51 42 bc 79 13 61 bd 18 0d 2c bd
       0.007911735 -0.011860241 -0.05495021 -0.042004675
0001a0 b3 43 cd bc 0f 42 42 3e 1e 86 04 3d 4b f4 9e 3d
       -0.025056696 0.18970512 0.032354467 0.07761439
0001b0 1a 9d 8e 3c b5 ee 86 3d 04 65 d0 3d 9b f3 19 3d
       0.017408896 0.065884985 0.10175517 0.037585836
0001c0 b5 9d 7d bc 47 1f 49 3e 32 f5 9b bd bb b9 58 3c
       -0.015479495 0.19640838 -0.07615127 0.013227875
0001d0 36 84 07 3e 10 e7 b9 bc 2d 1f 11 3d 58 b8 cf bd
       0.13234028 -0.022693187 0.035430122 -0.10142583
0001e0 06 c6 9c bc b7 19 92 3d 9b 65 1c bd 44 bb a9 bd
       -0.019137394 0.07133811 -0.038182836 -0.08287671
0001f0 91 ec 0b bd 3d 87 a9 3c 01 14 ea bd ea 1f ad 3d
       -0.034161154 0.02069437 -0.11429597 0.08453353
000200 4c cc 63 3d 82 07 95 bd 38 9b 0f 3d ee c0 7d bd
       0.055614755 -0.072768226 0.035060138 -0.06195157
000210 d4 b8 a4 bd 0e 81 9a bc 1e 4e 09 3d 00 39 36 bd
       -0.08043066 -0.018860366 0.033521764 -0.044487953
000220 73 6c 5e 3d c4 92 bd bd 29 1c 7e bd 58 c8 52 3b
       0.054302644 -0.09256509 -0.062038574 0.0032162871
000230 01 c3 a0 bc 53 63 56 bd 3f 84 21 bd 96 34 8b bd
       -0.019624235 -0.052340817 -0.03943276 -0.06797139
000240 2a 76 ad 3d cb b3 33 3c f1 93 cd 3b 04 c8 dc 3c
       0.08469804 0.010968159 0.0062737395 0.026950844
000250 03 b7 2b 3d 2b d6 b5 bd 2d 85 1b 3c 9e e5 e4 bb
       0.04192258 -0.0887874 0.009492201 -0.0069853803
000260 94 13 2e 3b 3f 15 45 bc cc b2 08 3e f4 13 81 bd
       0.0026561962 -0.012028991 0.13349456 -0.06302634
000270 db 51 a8 bc 4b 0b ea 3d 08 a6 dc 3d ff e5 d8 ba
       -0.020546844 0.11427935 0.107738554 -0.0016548036
000280 23 2d d2 3c f4 f3 6c 3a 3c ab 32 bd 24 31 d9 3d
       0.025656288 0.00090390374 -0.043620333 0.10605076
000290 2f af f4 3d 69 cf 42 bc 69 b9 65 3c 61 6c 60 bc
       0.11947476 -0.011890271 0.014021256 -0.013697715
0002a0 c8 e3 91 bd 16 25 07 be d0 61 c7 bd 3a 4c 3a 3d
       -0.07123524 -0.13197741 -0.09735453 0.04548285
0002b0 c1 12 46 bd 13 c7 18 3d 98 47 c4 bd 37 fe d3 3c
       -0.04835773 0.037299227 -0.09583968 0.025878055
0002c0 ef e3 92 bd 50 7f 73 3d 7d 7b 9e 3c 3e dd 8e 3d
       -0.07172381 0.059447587 0.019345993 0.06975792
0002d0 74 ff 9b 3d 86 32 21 3d a0 cf ff bb ca 1b 2e ba
       0.07617083 0.039354824 -0.0078067333 -0.0006641714
0002e0 51 ec 9c bd ed de f7 bd 8b 3d 07 bd 95 a9 c3 bc
       -0.07662261 -0.121030666 -0.033017676 -0.023884574
0002f0 30 b4 56 bd 7c c7 29 3d dc 89 ab ba 20 54 b3 3d
       -0.052417934 0.04145001 -0.001308735 0.0875628
000300 98 cf d5 3d 1d 59 1a 3e 59 ee 88 bd 89 65 ab bb
       0.10439986 0.15073057 -0.06686086 -0.00523061
000310 d4 0e b6 bd 5c 82 85 bd 52 26 52 bd 14 a1 5e 3c
       -0.08889547 -0.06519005 -0.051306076 0.013588209
000320 9e 83 4b 3d ae 2c 43 bc 50 87 51 bd ce f0 c3 3c
       0.049686067 -0.011912508 -0.051154435 0.023918536
000330 96 01 1a bd a4 51 46 3d 97 4f b7 bd 81 81 2a 3d
       -0.03759917 0.048417702 -0.089507274 0.04162741
000340 1a df 74 3d 4a 5d 87 bb 1c b0 cc bc f5 b9 18 3c
       0.05978308 -0.004130994 -0.02498632 0.009321679
000350 fe 21 ce bd 38 47 49 bd fd ea c8 bd eb 87 d8 3d
       -0.10065077 -0.049140185 -0.098104455 0.10572799
000360 34 d7 ec bd a1 d1 f2 3c ca cb 1a 3d eb 5d a6 bc
       -0.11564484 0.029640974 0.037792005 -0.020308455
000370 9c 46 9e 3b e2 b2 0c 3e b3 2e da bd 47 5f 94 3d
       0.0048301946 0.13740113 -0.106534384 0.07244735
000380 69 b3 c4 3d 0d 96 bb bc e7 ab 64 3b 0f 8b 70 bd
       0.09604532 -0.022898698 0.00348925 -0.058726367
000390 6a 01 51 bd 10 91 a0 3c 07 a1 d4 3d 48 b9 e0 bc
       -0.05102674 0.019600421 0.10382276 -0.027432099
0003a0 da f6 19 bd 6c 10 4d bd 37 82 84 bd b5 69 97 3d
       -0.03758893 -0.05006449 -0.06470149 0.07393209
0003b0 05 63 8d 3d b8 0a cd 3d 4b 87 e1 3c 1a 64 84 bd
       0.06903652 0.1001181 0.027530333 -0.06464405
0003c0 40 e4 04 3c bc 33 ab bd 98 8a 7f 3d f4 e9 57 bd
       0.00811106 -0.08359477 0.062388033 -0.05271335
0003d0 08 0c ab bd b8 e2 f1 3b c7 03 66 3d 9f 83 00 3d
       -0.08351904 0.0073817633 0.056155946 0.031375524
0003e0 ed 35 e1 bb 8d 78 c0 bd 3d 4d 58 3a d1 77 b4 3d
       -0.0068728835 -0.09397993 0.00082512555 0.08811916
0003f0 f3 8b f8 b9 5f aa 8e 3c 1c 95 31 3c 5a 1a c6 bc
       -0.00047406516 0.017415224 0.010838773 -0.024182487

transformer.layers.0.linear2.bias f4 [64]
000000 50 02 1c 3d bd 67 ca 3d b5 0f 74 bd 80 46 19 bd
       0.038088143 0.09883068 -0.059585292 -0.03742075
000010 ff 2c 2c bd 22 67 43 3d b2 be 05 3d 6b 01 73 bd
       -0.0420351 0.047705777 0.032652564 -0.059327524
000020 aa 16 b2 bd d8 33 58 3d e5 87 80 3d d0 21 95 3d
       -0.08695729 0.052783817 0.0627592 0.0728184
000030 c4 6b 51 3c 8c c7 72 bb 73 e2 aa 3d 25 4a a5 3b
       0.012782041 -0.0037045209 0.08343973 0.005044239
000040 8f b0 0a 3c ef 76 ab 3d 3c 85 3e 3d 58 1f 9d 3c
       0.008464946 0.08372294 0.04651378 0.019179985
000050 52 d5 72 bd 32 c2 93 bd a9 f4 a3 bd ec 65 25 3c
       -0.05928547 -0.07214774 -0.080056496 0.010095101
000060 1a d6 00 3d 83 af 95 bd c1 10 80 bd 47 e9 9e 3d
       0.031454183 -0.07308867 -0.062531956 0.07759338
000070 3c 1f 8e bd 9a 80 6f 3c d9 20 e0 bd 72 99 9c bb
       -0.06939551 0.014618063 -0.10943765 -0.0047790343
000080 68 3c 31 bd e5 48 17 3c e8 02 d5 bc d8 d4 43 3c
       -0.0432705 0.009233688 -0.026002362 0.011952601
000090 0f 95 58 3c c5 e0 3d 3d ee d1 e7 3d e9 04 84 3c
       0.013219132 0.046356935 0.11319338 0.016115623
0000a0 c1 25 70 bd c1 a0 7f bd 20 4b 8a 3d b6 0c 8f 3d
       -0.058629755 -0.062409166 0.0675261 0.06984846
0000b0 f5 89 c9 3c c9 06 e9 3c 70 dc 91 bd 35 c5 8e 3d
       0.024601916 0.028445618 -0.07122123 0.06971208
0000c0 4e 6c 51 3d 79 ad 06 3c 0e 44 c7 bc 92 c6 80 3d
       0.051128678 0.00822007 -0.024324443 0.06287874
0000d0 8f a7 e5 3d 5d 2b b1 bd 88 71 5d 3d ba 9d 1e bc
       0.112136 -0.08650849 0.05406335 -0.00968116
0000e0 57 42 d6 3c bb 65 19 3d 89 8c 00 bd d9 13 28 bd
       0.02615468 0.037450533 -0.031384025 -0.041034553
0000f0 60 49 de 3c ba f9 92 bd 8d cd b9 bb 0a 40 31 3d
       0.027134597 -0.07176538 -0.0056702555 0.043273963
