results/StandardScaler/TransformerModel_w50.pth (torch, 422042 bytes, 40 tensors)

input_projection.weight f4 [64, 6]
0	0xbe31c589	-0.1736051
1	0xbd208afa	-0.03919504
2	0x3e366d80	0.17815208
3	0xbd8323d9	-0.06403322
4	0x3e96e52c	0.2947172
5	0x3eafc66b	0.34331068
6	0xbd579f4b	-0.052642148
7	0x3e567d89	0.20946325
8	0x3bc0051b	0.0058599836
9	0x3ea353fe	0.31900018
10	0xbd91609c	-0.07098505
11	0x3ed469c3	0.4148694
12	0xbe582955	-0.21109517
13	0xbd4c2e50	-0.049848855
14	0xbc705094	-0.014667649
15	0xbd16dca4	-0.036831513
16	0x3e4686e5	0.19387396
17	0x3d68ce76	0.05683752
18	0xbe1751f9	-0.14777364
19	0xbdb24932	-0.08705367
20	0x3e0e2880	0.13882637
21	0x3e256dd9	0.16155185
22	0xbf1262f1	-0.5718222
23	0x3ebe4fa9	0.3717015
24	0xbeef84c2	-0.46780974
25	0x3c3930e6	0.011303162
26	0xbea2826f	-0.31740138
27	0xbea3481c	-0.31890953
28	0x3ed1278d	0.40850487
29	0xbee7ae83	-0.4525033
30	0x3ece5643	0.40300187
31	0xbec49af3	-0.38399467
32	0xbec24549	-0.37943485
33	0x3eb0c114	0.34522307
34	0xbc97ccca	-0.018530268
35	0x3dc7ff9b	0.0976555
36	0x3c7566b5	0.014978101
37	0xbea63932	-0.32465512
38	0xbeeaa028	-0.45825315
39	0x3edf2830	0.43585348
40	0xbea76112	-0.32691246
41	0xbcbbc452	-0.022920761
42	0x3c173dae	0.009231014
43	0x3eaa0593	0.33207378
44	0xbe64b030	-0.22332835
45	0x3e963cd7	0.29343292
46	0x3e324d1f	0.17412232
47	0xbe5b92b0	-0.21442676
48	0x3df9006c	0.121582836
49	0x3eac82f5	0.33693662
50	0xbe836ed1	-0.25670484
51	0xbe5638f1	-0.20920159
52	0x3dba2d2d	0.09090648
53	0x3e37939a	0.179274
54	0x3ec66885	0.38751617
55	0xbed3a3fa	-0.41336042
56	0x3cb8883a	0.022525895
57	0xbe809591	-0.2511411
58	0xbec1f519	-0.37882307
59	0x3c0a2f5b	0.008434142
60	0x3ec82a06	0.3909456
61	0x3e18be0e	0.1491625
62	0x3d136efe	0.035994522
63	0xbe76d032	-0.24102858
64	0x3e88a8f1	0.26691392
65	0xbeb7c593	-0.35892925
66	0x3ed4632b	0.4148191
67	0x3ec07591	0.37589696
68	0xbe10483d	-0.14090057
69	0xbd9b66e2	-0.07587983
70	0xbd15ad49	-0.03654221
71	0x3e9ce5ec	0.30644166
72	0xbeb6e90f	-0.35724685
73	0x3dd7f919	0.105455585
74	0xbea2e1df	-0.3181295
75	0xbe90e42d	-0.28299084
76	0xbe14634e	-0.14491007
77	0x3e4c5cf1	0.1995733
78	0x3ddefc90	0.10888016
79	0x3d7024a0	0.05862868
80	0x3eb7bd2b	0.3588651
81	0xbe638063	-0.22216944
82	0xbdfe2a41	-0.12410403
83	0x3e9a50e0	0.30139828
84	0xbec3de5f	-0.38255593
85	0xbcadf315	-0.021234075
86	0xbda118e2	-0.07866074
87	0xbd93dbde	-0.07219671
88	0x3e8e965d	0.27849093
89	0x3e4cba70	0.19992995
90	0x3e790478	0.24318111
91	0xbea697ce	-0.32537693
92	0xbd8846cb	-0.06654128
93	0xbe8dc40c	-0.27688634
94	0x3e488084	0.19580275
95	0x3d54acf6	0.05192276
96	0x3e4e1476	0.20124993
97	0x3ca4c851	0.02011505
98	0x3e2e0271	0.16993119
99	0x3dbde6c2	0.09272529
100	0x3d6705db	0.05640207
101	0xbe88bc54	-0.26706183
102	0x3dff4524	0.124643594
103	0x3d59e64a	0.053198136
104	0x3e1da192	0.15393665
105	0x3e933e8a	0.2875865
106	0xbec8f3d9	-0.3924854
107	0xbe709762	-0.23495248
108	0x3ead6f64	0.33874047
109	0x3ec20ad0	0.37898874
110	0xbeb8d5eb	-0.36100706
111	0xbe2c7f6f	-0.16845487
112	0x3ee597f6	0.448425
113	0x3dbb9653	0.091595314
114	0xbde80fab	-0.113311134
115	0x3e6084b8	0.21925628
116	0xbda93696	-0.082623646
117	0x3df53888	0.11973673
118	0xbd19ece3	-0.03757943
119	0x3db10fff	0.08645629
120	0xbdf110c5	-0.11770777
121	0xbea17891	-0.31537297
122	0xbde700de	-0.11279462
123	0xbeb905dd	-0.36137286
124	0xbe760130	-0.2402389
125	0x3ea200a0	0.31641102
126	0xbdef90da	-0.1169755
127	0x3d875159	0.06607313
128	0x3d37fef1	0.044920865
129	0xbed7b915	-0.42133394
130	0xbdd1b61b	-0.10239812
131	0xbe706a70	-0.23478103
132	0xbec4bdd5	-0.3842608
133	0xbcaf9ecd	-0.021438027
134	0xbe6cd132	-0.23126677
135	0x3e9f7727	0.31145594
136	0x3e8cf4fe	0.27530664
137	0x3e7f326f	0.24921583
138	0xbcb71598	-0.022349164
139	0x3d3cd40e	0.04610067
140	0x3e070367	0.13184892
141	0xbeeab861	-0.45843795
142	0xbe23a5f7	-0.1598128
143	0x3e9f294b	0.31086192
144	0x3f0f53ee	0.5598744
145	0x3e89d6bc	0.26921642
146	0x3c61cffe	0.013782499
147	0x3ed38410	0.41311693
148	0xbe510053	-0.2041028
149	0x3eab1731	0.3341613
150	0x3eafe3fe	0.34353632
151	0xbd9cd07d	-0.076569535
152	0xbe8aa25f	-0.27077004
153	0xbd97c20b	-0.07410058
154	0xbe192380	-0.14954948
155	0x3c0a7228	0.0084500685
156	0xbe942493	-0.28934154
157	0x3d40c7ac	0.047065422
158	0xbe154318	-0.14576375
159	0x3e667a92	0.22507694
160	0x3e518d31	0.20464016
161	0x3e6a99a1	0.22910167
162	0x3ea45309	0.320946
163	0x3ec53a83	0.38521203
164	0xbdc132ed	-0.094335414
165	0x3be827f5	0.0070848414
166	0x3edf9805	0.4367067
167	0x3d566948	0.052346498
168	0xbe837e7c	-0.25682437
169	0x3e06c448	0.13160813
170	0x3e3931da	0.18085423
171	0x3ecf15f0	0.40446424
172	0xbe9f92df	-0.3116674
173	0x3db71188	0.08938891
174	0xbe382d2f	-0.17985986
175	0xbdb307a0	-0.08741689
176	0xbec4b9ee	-0.38423103
177	0x3df3932f	0.118933074
178	0xbd4d64ca	-0.050144948
179	0xbe7d8355	-0.2475713
180	0x3e11319d	0.14179082
181	0xbe644629	-0.22292389
182	0xbe871895	-0.26385942
183	0xbe975e91	-0.29564336
184	0x3ce3f5f7	0.027827246
185	0xbddadcbf	-0.10686635
186	0xbc09fee0	-0.008422583
187	0x3ea3c468	0.31985784
188	0x3e941d37	0.2892854
189	0xbe9c9454	-0.30581915
190	0xbebc7234	-0.3680588
191	0x3e2cc918	0.16873586
192	0x3ea335af	0.31876895
193	0x3daa21e4	0.083072454
194	0x3aed5e6e	0.0018109807
195	0xbeac8ff6	-0.33703583
196	0xbe5c0e60	-0.21489859
197	0xbdd74443	-0.10511067
198	0xbe593ad8	-0.21213853
199	0xbd8204e8	-0.06348592
200	0xbd6d4094	-0.057922915
201	0x3e681740	0.22665119
202	0xbebfa7ee	-0.37432808
203	0x3e0f1014	0.13970977
204	0xbeb258bf	-0.34833333
205	0xbe995cec	-0.29953706
206	0x3e631014	0.22174102
207	0xbd451044	-0.048111215
208	0x3e6b8553	0.23000078
209	0x3ed7997a	0.4210928
210	0x3e5bc459	0.2146162
211	0xbe647e9c	-0.22313923
212	0x3e575472	0.21028307
213	0x3e4336c8	0.19063866
214	0x3e9fd5b5	0.31217733
215	0x3e824592	0.25443703
216	0xbeeb7f39	-0.459955
217	0x3ea53276	0.3226506
218	0xbe82c929	-0.25544098
219	0x3e1f0264	0.15528256
220	0xbe1bde59	-0.15221538
221	0x3d9907d6	0.07472198
222	0x3d94270b	0.07234009
223	0xbe0b28e9	-0.13589825
224	0xbecb495c	-0.39704406
225	0x3e6f406c	0.23364419
226	0x3e245774	0.16048986
227	0x3e8a0f34	0.26964724
228	0xbe6999d9	-0.22812594
229	0xbecffdfa	-0.40623456
230	0x3d716dff	0.05894279
231	0xbe4770b3	-0.19476585
232	0xbe9036a0	-0.28166676
233	0x3c933882	0.017971281
234	0xbf126e3f	-0.5719947
235	0x3e736d07	0.2377206
236	0x3be135d5	0.0068728724
237	0xbee0812d	-0.43848553
238	0xbe431976	-0.19052681
239	0xbe819794	-0.25310957
240	0xbf157d26	-0.58394086
241	0x3e2bf466	0.1679245
242	0xbd0b7a3d	-0.034052122
243	0xbd6a7e7d	-0.057249535
244	0xbebe88e9	-0.3721383
245	0x3ec20d64	0.3790084
246	0xbe1f95ce	-0.1558449
247	0x3c926f91	0.017875465
248	0x3e17963f	0.14803408
249	0x3d2ad87e	0.04171037
250	0x3eb1ee01	0.34751895
251	0xbe69f674	-0.2284792
252	0xbedad40f	-0.42739913
253	0x3e00509e	0.12530753
254	0xbc101032	-0.008792924
255	0x3e29d66b	0.165857

input_projection.bias f4 [64]
0	0xbe24bf1f	-0.16088532
1	0xbe16274d	-0.1466343
2	0x3c4ea1fe	0.012611864
3	0x3e3b74d5	0.18306287
4	0xbe422652	-0.1895993
5	0x3e28d8bd	0.16488929
6	0x3e204062	0.1564956
7	0x3e3deb63	0.18546824
8	0x3e49e6f0	0.19717002
9	0xbdb9ae2f	-0.09066426
10	0x3e4d0034	0.20019609
11	0x3eaf4792	0.3423429
12	0x3d3e7f8e	0.046508364
13	0x3de04e60	0.10952449
14	0xbdfae178	-0.12250036
15	0x3e2914c2	0.16511825
16	0xbc1768fc	-0.009241339
17	0xbc6bb606	-0.0143866595
18	0xbc4015ec	-0.011723977
19	0x3d1e78ae	0.038689308
20	0xbc13b45d	-0.00901517
21	0x3d7ec203	0.062196743
22	0x3e26a1cc	0.16272658
23	0x3e14ab26	0.14518413
24	0xbd0ae904	-0.033913627
25	0xbdd9d732	-0.106367484
26	0xbde0358b	-0.109477125
27	0xbac1e864	-0.0014793989
28	0xbdf7eebd	-0.121060826
29	0x3e11ae2e	0.142266
30	0x3d7d9989	0.061914
31	0x3ea025c5	0.31278816
32	0x3e61df88	0.22057927
33	0xbe5696e8	-0.20956004
34	0x3d503e1b	0.05084048
35	0xbd41f9e4	-0.047357455
36	0xbe05f446	-0.13081464
37	0x3e174bfb	0.14775078
38	0xbe80691e	-0.25080198
39	0xbc12b504	-0.00895429
40	0x3e20d317	0.15705524
41	0xbe625295	-0.22101815
42	0xbd1663c3	-0.036716234
43	0x3d846334	0.06464234
44	0xbc8fe241	-0.017563941
45	0x3e686def	0.22698186
46	0x3e662886	0.22476396
47	0xbd81f1b6	-0.06344931
48	0xbdc42aa6	-0.09578447
49	0xbca746be	-0.020419475
50	0xbe8d3f12	-0.2758718
51	0x3e285271	0.16437699
52	0xbe4a8465	-0.19777067
53	0xbe8766d9	-0.26445654
54	0xbdc02b60	-0.09383273
55	0xbdf62a2b	-0.12019762
56	0xbe569af3	-0.20957546
57	0xbe574cb7	-0.21025358
58	0xbdd79311	-0.105260976
59	0xbe17c05d	-0.14819475
60	0x3e64f8c6	0.22360525
61	0xbe39cd5f	-0.18144749
62	0xbe9035d0	-0.28166056
63	0x3e4b1d8f	0.19835494

transformer.layers.0.self_attn.in_proj_weight f4 [192, 64]
0	0xbdfb57ae	-0.12272583
1	0x3c7a1f04	0.015266184
2	0xbdf1b8ce	-0.11802827
3	0xbd50af44	-0.050948396
4	0x3d1e1a39	0.038599227
5	0xbd7b9a14	-0.061426237
6	0x3d8fbf06	0.07018857
7	0x3d4256c6	0.047446035
8	0xbe09abc9	-0.13444437
9	0x3df5ff42	0.12011577
10	0xbe6563df	-0.22401379
11	0xbe2b9543	-0.16756158
12	0xbd4a1edd	-0.04934584
13	0xbc9b3efd	-0.018950934
14	0x3da7b6e3	0.0818918
15	0x3db3ba68	0.087757885
16	0xbc38b757	-0.01127418
17	0xbd65e0ba	-0.05612252
18	0xbd5c2833	-0.053749274
19	0xbe21f8ba	-0.15817538
20	0x3d63b116	0.055588804
21	0xbe1fbaf7	-0.15598665
22	0xbdaf45ef	-0.08558261
23	0xbcf49a7e	-0.029858824
24	0x3d1296a3	0.03578819
25	0x3e6b4e5b	0.22979109
26	0xbe0efe0c	-0.13964099
27	0xbdeabcb0	-0.114617705
28	0xbc90d3e9	-0.017679172
29	0x3d96cbe6	0.07363109
30	0x3e1fc033	0.15600662
31	0x3d859233	0.06522026
32	0x3db4b876	0.08824246
33	0xbd63e84b	-0.055641454
34	0xbdc8b492	-0.09800066
35	0x3d54f202	0.05198861
36	0x3e25352f	0.16133569
37	0x3cb44bed	0.02200886
38	0x3df833af	0.12119233
39	0xbd1d1fb4	-0.038360313
40	0xbde745a2	-0.11292578
41	0xbd1890ae	-0.037247352
42	0xbd35b1fd	-0.044359196
43	0xbb83eb6b	-0.0040258667
44	0xbd9a7bab	-0.07543119
45	0x3b9693c2	0.004595251
46	0xbce87769	-0.028377252
47	0x3de81ea0	0.11333966
48	0x3d623e30	0.055235088
49	0xbd941f83	-0.07232573
50	0xbda75660	-0.081707716
51	0xbcae0ac8	-0.021245375
52	0x3e026000	0.12731934
53	0xbe5ff52e	-0.21870872
54	0xbc85bf17	-0.01632647
55	0x3e439802	0.19100955
56	0x3de2e5d3	0.11078992
57	0xbd48e362	-0.049044974
58	0xbda13657	-0.07871693
59	0x3d8daf38	0.06918186
60	0xbe71d6c2	-0.2361708
61	0x3c93e041	0.018051269
62	0x3e05dc46	0.13072309
63	0xbe2f1b19	-0.1710018
64	0xbca9196a	-0.020642001
65	0xbd8e094f	-0.06935369
66	0x3c167ce6	0.009185052
67	0x3d943156	0.072359726
68	0xbde18975	-0.11012546
69	0xbd430a52	-0.047617264
70	0xbd77e315	-0.060519297
71	0xbd62c746	-0.055365823
72	0xbcdd48dc	-0.027012281
73	0xbe112142	-0.14172843
74	0x3dde738e	0.10861884
75	0x3dc08ad6	0.09401481
76	0x3dafac6f	0.08577811
77	0x3d6e7c56	0.058224045
78	0x3c1f30d1	0.009716229
79	0x3d4c8411	0.049930636
80	0xbc8b2b63	-0.016988462
81	0xbd966c5c	-0.07344887
82	0x3d9436d8	0.07237023
83	0xbdb66e34	-0.08907738
84	0xbd881e7f	-0.06646442
85	0x3cdda7e6	0.0270576
86	0xbd6a2fc8	-0.057174474
87	0xbe14fac1	-0.1454878
88	0xbb5cc2b6	-0.0033685393
89	0x3d932225	0.07184247
90	0x3dc49f0d	0.09600649
91	0xbe3cfbe2	-0.1845546
92	0x3e27a71e	0.16372344
93	0xbd09a375	-0.03360315
94	0x3daec1e6	0.08533077
95	0xbdc42542	-0.09577419
96	0xbc294851	-0.010332183
97	0x3d61e76a	0.055152334
98	0xbd40ce62	-0.047071822
99	0x3d99845e	0.0749595
100	0xbdd38748	-0.10328537
101	0x3df28083	0.11840918
102	0x3d4f04f9	0.05054185
103	0x3dbdc296	0.0926563
104	0xbe36d5a6	-0.17854938
105	0x3dff3f23	0.12463214
106	0x3dd30904	0.10304454
107	0x3e1e79ae	0.15476105
108	0x3dfd9b4b	0.123831354
109	0xbdc37956	-0.09544627
110	0x3dab27bd	0.08357189
111	0x3d343813	0.04399879
112	0x3d0705f7	0.032964673
113	0xbc9b6b24	-0.018971987
114	0xbcfd6a48	-0.030934468
115	0x3d2ddc0f	0.042446192
116	0xbba2b6db	-0.0049656457
117	0x3c916ce7	0.017752124
118	0xbdb5badf	-0.088735335
119	0x3b1111eb	0.0022135924
120	0x3baa97a3	0.005206065
121	0xbdbfd986	-0.09367661
122	0xbd3c1222	-0.04591573
123	0x3bfbb2d4	0.00768123
124	0xbe199318	-0.14997518
125	0x3e522bc5	0.20524509
126	0x3defc876	0.11708157
127	0x3d9a5b34	0.07536927
128	0x3e552a5f	0.20816945
129	0x3da3071e	0.07960342
130	0x3e107f10	0.1411097
131	0xbe4e90b7	-0.20172392
132	0x3d0f93e1	0.035053138
133	0x3da6be22	0.08141734
134	0xbe4b4ac8	-0.19852746
135	0xbe4bda3d	-0.1990747
136	0xbd08c0a1	-0.03338683
137	0x3e4d1b49	0.2002994
138	0x3d171ef2	0.036894746
139	0xbc82903b	-0.015937915
140	0x3e533500	0.20625687
141	0xbbec8e7e	-0.007219135
142	0x3e964216	0.29347295
143	0xbdd968db	-0.10615703
144	0xbdad8d50	-0.08474219
145	0xbdb9d380	-0.090735435
146	0x3e21ec6c	0.15812844
147	0x3cf2d810	0.029644042
148	0x3d7e5275	0.062090356
149	0xbd1a32b9	-0.03764603
150	0xbd913afb	-0.07091328
151	0xb97704d2	-0.00023557551
152	0xbd90975c	-0.070601195
153	0x3d6a4a22	0.057199605
154	0x3e593d33	0.21214752
155	0x3e046b57	0.12931572
156	0xbe71ed62	-0.2362571
157	0xbe04a52b	-0.12953632
158	0xbd2e9e5f	-0.042631503
159	0xbd19fb97	-0.03759345
160	0xbe119a6f	-0.14219068
161	0x3e137143	0.14398675
162	0xbde52fd7	-0.11190765
163	0x3dee4f3e	0.11636208
164	0xbd6ce1c9	-0.057832513
165	0x3e1c0dae	0.15239593
166	0x3dd64468	0.10462266
167	0x3e419f46	0.18908414
168	0x3d3bd0c9	0.04585341
169	0x3e1f5e79	0.15563382
170	0xbdce8351	-0.1008364
171	0x3ddfd0d3	0.10928502
172	0xbd8b88dc	-0.06813213
173	0xbdaf9205	-0.08572773
174	0xbd1ac32e	-0.037783794
175	0x3d632201	0.05545235
176	0xbe559a12	-0.20859554
177	0x3c765c00	0.015036583
178	0x3dd55156	0.10415904
179	0xbe1143ef	-0.14186071
180	0x3cb0c1ad	0.021576727
181	0xbda29917	-0.07939356
182	0x3e2605cd	0.1621315
183	0x3e842640	0.25810432
184	0xbdab286c	-0.08357319
185	0x3e05beee	0.13061115
186	0xbe4b4404	-0.19850165
187	0x3de4cbe9	0.11171705
188	0xbddb56a0	-0.10709882
189	0x3cf3e826	0.029773783
190	0x3dabb6cd	0.08384476
191	0xbe585c28	-0.21128905
192	0x3dd55e61	0.10418392
193	0xbe3b0a90	-0.18265748
194	0x3e26898b	0.16263406
195	0xbdce5aa8	-0.10075885
196	0x3e44a764	0.1920448
197	0xbdb86129	-0.09002907
198	0x3ba55854	0.00504593
199	0xbd3a8903	-0.04554082
200	0xbdee9df3	-0.1165122
201	0x3cfbb635	0.030726532
202	0x3dceedbb	0.10103937
203	0xbdd612d1	-0.10452808
204	0xbde5326a	-0.11191256
205	0x3d5a3ff1	0.053283636
206	0x3d77e3b3	0.060519885
207	0x3e2457c7	0.1604911
208	0x3dbba4be	0.091622815
209	0xbe288cdc	-0.16459984
210	0x3c97cd88	0.018530622
211	0xbd102cf7	-0.03519913
212	0x3d5b5afa	0.05355356
213	0x3d1e791c	0.038689718
214	0x3e44d406	0.19221506
215	0x3d9faf34	0.07797089
216	0xbe31de9c	-0.17370075
217	0xbd93192a	-0.07182534
218	0x3dba8de4	0.09109095
219	0x3ca630cb	0.020286938
220	0xbd613287	-0.054979827
221	0xbda2724b	-0.07931956
222	0x3d96fc86	0.07372384
223	0xbb771275	-0.003770021
224	0xbd90a76e	-0.07063185
225	0x3db8bbce	0.09020196
226	0xbd7c9630	-0.061666667
227	0xbe1f8dd8	-0.15581453
228	0xbd42062e	-0.047369175
229	0xbd039310	-0.03212267
230	0x3e082765	0.13296278
231	0x3e52028d	0.20508786
232	0xbe2814b4	-0.16414148
233	0x3c899d12	0.01679853
234	0x3c5e2caa	0.013560453
235	0x3d44172a	0.047873653
236	0x3c26ea61	0.010187716
237	0x3dbb5431	0.091469176
238	0xbd41e77e	-0.04733991
239	0x3d05e0e9	0.032685194
240	0x3dab44ce	0.08362733
241	0xbe48ebd9	-0.19621219
242	0xbe185f60	-0.14880133
243	0xbd19647d	-0.03744935
244	0x3dde2e15	0.10848633
245	0x3e28adb6	0.16472515
246	0x3d7d3d57	0.061826076
247	0xbdbf6adb	-0.09346553
248	0x3e1f1e38	0.15538871
249	0x3d5222ac	0.051302597
250	0x3e8f88e3	0.28034124
251	0x3d93f551	0.07224525
252	0x3cdd3751	0.027003916
253	0x3cebea60	0.028798282
254	0x3e132c6b	0.14372413
255	0x3db2c560	0.087290525

transformer.layers.0.self_attn.in_proj_bias f4 [192]
0	0xbd478046	-0.048706315
1	0xbd030caa	-0.0319945
2	0xbdd80e12	-0.10549559
3	0xbcb7aa96	-0.022420209
4	0x3c97da24	0.018536635
5	0xbd50ad20	-0.050946355
6	0xbd24dcb7	-0.040249553
7	0xbd4bac82	-0.049725063
8	0xbd1c17bd	-0.038108576
9	0x3d3ada8d	0.045618583
10	0x3dfa61b0	0.12225664
11	0xbd72f20d	-0.05931287
12	0x3d951874	0.07280055
13	0x3d47db30	0.048793018
14	0x3c84baab	0.016202291
15	0x3d046e25	0.032331605
16	0x3d18db73	0.037318658
17	0x3d953852	0.07286133
18	0x3d2edc70	0.042690694
19	0x3c3f0d5b	0.011660899
20	0x3c40764d	0.011746955
21	0xba685ed7	-0.000886423
22	0xbdbd2da3	-0.0923722
23	0x3ca5102b	0.020149311
24	0xbcb60c1f	-0.022222577
25	0xbc0e8f86	-0.008701211
26	0x3bf9f678	0.0076282583
27	0x3d56e761	0.052466754
28	0xbdc2b746	-0.09507613
29	0x3d5acfed	0.05342095
30	0x3d6dfbd2	0.058101483
31	0x3d698f6f	0.057021555
32	0xbce58039	-0.028015243
33	0x3db51771	0.08842362
34	0xba219be7	-0.0006164894
35	0xbca0b20a	-0.019616146
36	0xbce4a1d2	-0.027909193
37	0xbc3bdaf5	-0.011465778
38	0xbabd4115	-0.0014438952
39	0x3d34f16e	0.044175558
40	0x3c2c19e4	0.01050422
41	0x3d03b3b4	0.0321538
42	0xbdaafac8	-0.08348614
43	0xbd8ba69d	-0.06818888
44	0xbd08d118	-0.033402532
45	0xbd842802	-0.064529434
46	0xbce750df	-0.028236805
47	0xbda97eb6	-0.08276121
48	0x3dd714a6	0.10501985
49	0x3d8eb307	0.069677405
50	0x3b01d92c	0.0019813282
51	0x3d26fcbd	0.040768374
52	0xbd0b2fe3	-0.033981215
53	0x3c232d6e	0.009959562
54	0x3d0887a1	0.03333247
55	0xbcf56b40	-0.029958367
56	0xbd8220d9	-0.063539214
57	0xbd8b9cf0	-0.06817043
58	0x3d6af0de	0.057358615
59	0x3d215cf2	0.03939528
60	0xbd136b9b	-0.035991292
61	0x3d74c908	0.05976203
62	0xbc598d18	-0.013278268
63	0x3d73f0e9	0.05955592
64	0x3c010436	0.007874539
65	0xb87e9517	-6.069717e-05
66	0xbc625df3	-0.013816345
67	0xbba3bc6b	-0.0049968264
68	0x3c1ce369	0.009575703
69	0xba831f50	-0.0010003839
70	0xbc120251	-0.008911685
71	0xbc13ddaa	-0.009025017
72	0xbb27812f	-0.0025559177
73	0x3c2bb9df	0.010481327
74	0x3c244d65	0.010028218
75	0xbc41746d	-0.011807543
76	0x3c811fc7	0.015762223
77	0x3c9b6e50	0.0189735
78	0x3acf0964	0.0015795645
79	0xbac3719f	-0.0014911181
80	0xbb46658e	-0.0030272934
81	0x3a325f97	0.0006804405
82	0xbb75a34f	-0.0037481373
83	0x390bfbea	0.00013349918
84	0x3c4bd46f	0.012440785
85	0xbb21cccf	-0.0024688726
86	0xbb029c08	-0.0019929428
87	0x3bf9c9cf	0.0076229344
88	0x3b4e076c	0.003143753
89	0xbb0b2063	-0.002122902
90	0xbc017297	-0.0079008555
91	0x3b90a158	0.004413765
92	0xbbdd1b8a	-0.0067476677
93	0x3bdd0f13	0.0067461818
94	0xbbe64b14	-0.007027993
95	0xbb2d2071	-0.0026417042
96	0xbadd25fc	-0.0016872282
97	0x3ca35d9d	0.0199421
98	0xbb84bb3c	-0.0040506404
99	0xbc097959	-0.008390748
100	0xbbae5108	-0.0053197183
101	0xb87bcdb3	-6.0034636e-05
102	0xbadeb4b9	-0.0016991115
103	0x3c8806d9	0.016604828
104	0xbb9dd3c5	-0.0048165047
105	0x3c8484e3	0.016176647
106	0xbc3aabf1	-0.011393533
107	0xbc42e7e7	-0.01189611
108	0x3c211ebd	0.009833989
109	0xbc539a48	-0.0129152015
110	0xbc4cfadd	-0.012510982
111	0xba464e20	-0.0007564742
112	0x3a22acdc	0.00062055676
113	0xbb863a21	-0.004096285
114	0x3b58c072	0.003307369
115	0xb5e83ec8	-1.7303619e-06
116	0x3a498ced	0.0007688541
117	0x3b4954bd	0.0030720674
118	0x3b69e156	0.003568729
119	0x3ae79788	0.0017669061
120	0xbad5c862	-0.0016310329
121	0x3ad4acd6	0.0016225826
122	0x3a888fa3	0.0010418784
123	0x3b8cccd4	0.0042968784
124	0xba76edda	-0.0009419598
125	0x39ae2170	0.0003321278
126	0xbb2393fe	-0.0024960036
127	0x39592f62	0.00020712384
128	0x3ba5b901	0.0050574546
129	0xbc2002b1	-0.009766267
130	0xbcd8c4e3	-0.02646107
131	0xbd0f9f08	-0.035063773
132	0xbbec8521	-0.0072180186
133	0x3cc98949	0.024601595
134	0x3bb1eca4	0.005429821
135	0x3a14c79f	0.0005675498
136	0x3adcfa65	0.0016859291
137	0x3cab5818	0.02091603
138	0xbc916ecd	-0.01775303
139	0xbc20cad1	-0.00981398
140	0xb9b7adf7	-0.00035034094
141	0xbca3fa6e	-0.020016875
142	0x3cafedb6	0.021475654
143	0x3d16f2ff	0.036852833
144	0xbb8f75bc	-0.0043780487
145	0x3bdb84b1	0.0066991677
146	0x3cc0a326	0.023515295
147	0x3a94855e	0.001133125
148	0x3c92ea1f	0.017933903
149	0x3be967a7	0.007122952
150	0x3c23c39d	0.009995368
151	0xbcb94a28	-0.022618368
152	0xb934fe96	-0.00017260978
153	0xbcfc0d21	-0.03076798
154	0xbaefdab7	-0.0018299435
155	0x3c844a6f	0.016148774
156	0xbc3963f4	-0.011315335
157	0xbd01890e	-0.031624846
158	0x3c2590c6	0.010105317
159	0xbd1c9611	-0.038229052
160	0xbc891136	-0.01673184
161	0x3c412db8	0.011790685
162	0x3d25f2e0	0.040514827
163	0x3c711907	0.01471544
164	0x3c210515	0.009827872
165	0xbc6191b0	-0.013767645
166	0x3c3b88a0	0.011446148
167	0x3c3604a2	0.011109503
168	0xbb1beaf3	-0.0023791164
169	0xbc1ac245	-0.0094457315
170	0xbb464709	-0.0030254743
171	0x3beb98c3	0.0071898415
172	0xbcc14517	-0.023592515
173	0xbd34715b	-0.044053417
174	0xbc0eafa8	-0.008708872
175	0x3c37ff53	0.011230308
176	0xbc85caba	-0.01633202
177	0xbc820c76	-0.015875082
178	0x3cc848c0	0.024448752
179	0xbca196fa	-0.019725312
180	0x3c2fa56f	0.010720595
181	0xba86658a	-0.001025365
182	0x3b84450f	0.0040365527
183	0x3a0c6971	0.0005356288
184	0x3b3f801c	0.0029220646
185	0xbbf2239d	-0.0073894993
186	0xba4a4a08	-0.000771672
187	0xbcde2380	-0.027116537
188	0xbc372d58	-0.011180244
189	0x3b8fb1fb	0.0043852306
190	0x3d1a05b8	0.03760311
191	0x3c829fdf	0.015945373

transformer.layers.0.self_attn.out_proj.weight f4 [64, 64]
0	0x3dcf3b02	0.10118677
1	0x3dcb42a7	0.09924822
2	0x3d5abad8	0.053400844
3	0xbd70d624	-0.05879797
4	0xbce6b985	-0.028164634
5	0xbde3a7ba	-0.11115976
6	0xbdb00763	-0.08595159
7	0x3d4e0d02	0.050305374
8	0x3e3c907a	0.18414488
9	0xbd421940	-0.04738736
10	0x3d1a1cc0	0.037625074
11	0x3beb0fdc	0.0071735214
12	0x3d64bd40	0.055844545
13	0xbc17fb80	-0.009276271
14	0xbe24a322	-0.16077855
15	0xbd43a209	-0.04776195
16	0x3cc5de9a	0.024153996
17	0x3d06c290	0.032900393
18	0x3e3542ec	0.1770131
19	0xbd0dfe8d	-0.034666587
20	0xbdb46b93	-0.08809581
21	0xbe0aee39	-0.13567437
22	0x3c88700f	0.016654996
23	0x3e7ea2a8	0.24866736
24	0xbe57c0a5	-0.21069582
25	0xbc84489a	-0.0161479
26	0xbe016b19	-0.12638511
27	0xbe16bdde	-0.14720866
28	0x3b46bbe0	0.0030324385
29	0x3c9cfc36	0.019163232
30	0xbd9f66e4	-0.07783297
31	0xbbe7932d	-0.0070671053
32	0x3d230df2	0.03980822
33	0x3cb384e8	0.02191396
34	0x3e1a5198	0.15070188
35	0x3c94c5b1	0.018160673
36	0x3c7c7921	0.015409739
37	0xbdb029c7	-0.086017184
38	0xbc33771d	-0.010953692
39	0xbcb40101	-0.021973135
40	0x3d931b3a	0.071829274
41	0xbd46f12a	-0.048569836
42	0x3aca3461	0.0015426987
43	0x3d094329	0.033511315
44	0x3c8e2cc5	0.017355332
45	0xbe0abe84	-0.13549238
46	0xbdd450bf	-0.103669636
47	0x3da51c7d	0.08062074
48	0xbd747770	-0.059684217
49	0x3dcfa673	0.101391695
50	0xbd39dffd	-0.045379627
51	0x3d54a78c	0.051917598
52	0x3e09b8da	0.13449422
53	0xbde68431	-0.11255682
54	0xbe548663	-0.2075439
55	0x3daa132a	0.083044365
56	0xba154054	-0.00056934846
57	0x3d189daa	0.037259735
58	0xbd991148	-0.07473999
59	0xbc6dfca8	-0.01452557
60	0xbde64afd	-0.11244772
61	0xbe19fd04	-0.15037924
62	0xbd105770	-0.035239637
63	0xbdeb11cd	-0.114780046
64	0xbd316b12	-0.043315
65	0x3df86a0d	0.121296026
66	0xbdcaf98b	-0.09910878
67	0x3e15b292	0.146189
68	0x3b40fac5	0.0029446345
69	0x3ded794e	0.11595403
70	0xbd70ece3	-0.058819663
71	0xbc9d6cd5	-0.019216934
72	0xbd5c01d8	-0.053712696
73	0xbda5db17	-0.08098429
74	0xbbecf9c3	-0.0072319224
75	0xbc9be180	-0.019028425
76	0x3c7fcc0c	0.015612613
77	0xbd2b03d3	-0.041751694
78	0x3c521680	0.012822747
79	0xbd118449	-0.035526548
80	0xbde5d267	-0.11221772
81	0x3bf264e1	0.0073972796
82	0xbc4860d4	-0.012230117
83	0x3c854c8b	0.01627185
84	0xbb72fc78	-0.0037076753
85	0x3c2f6b35	0.0107067125
86	0xbd1e1605	-0.03859522
87	0xbd5472a5	-0.051867146
88	0xbde5e2e2	-0.11224915
89	0xbba5fecd	-0.005065775
90	0xbdbcf078	-0.09225553
91	0x3d662f33	0.056197356
92	0xbbd38b06	-0.006455782
93	0x3dc5dd07	0.09661298
94	0x3d435bbe	0.047694914
95	0x3b82803d	0.0039825724
96	0xbc9fbb06	-0.01949836
97	0x3c7b9082	0.015354278
98	0x3da51ac0	0.08061743
99	0xbe0fd603	-0.14046483
100	0x3bb2dff1	0.005458825
101	0xbdd9a179	-0.106265016
102	0x3e02aa36	0.12760243
103	0xbc287744	-0.010282341
104	0x3d1bc443	0.038028967
105	0x3c580a2d	0.01318602
106	0xbda19705	-0.07890133
107	0xbda32af2	-0.079671755
108	0x3ac6144d	0.0015112251
109	0x3dbaef10	0.09127629
110	0xbdd9f894	-0.10643116
111	0x3c4a44d7	0.012345514
112	0xbd529cbf	-0.051419016
113	0xbd13d125	-0.036088128
114	0xbc3b5528	-0.011433877
115	0x3da4f024	0.08053616
116	0xbd48cb6e	-0.04902213
117	0x3d5f129b	0.054461103
118	0x3d79284b	0.060829442
119	0x3de9979f	0.114058726
120	0xbd72a825	-0.059242386
121	0xbd8d526e	-0.06900488
122	0xbb998206	-0.0046846895
123	0x3d9e89b0	0.077411056
124	0xbdd4119e	-0.10354923
125	0x3e16a8e5	0.14712866
126	0x3daaaa75	0.08333293
127	0x3d2be143	0.041962873
128	0x3d37ea9b	0.04490147
129	0xbd20bc12	-0.039241858
130	0x3d12b629	0.035818253
131	0x3d8ba071	0.06817711
132	0x3dc1e302	0.094671264
133	0x3d12a95b	0.03580604
134	0x3d8d9ab5	0.06914274
135	0xbd999540	-0.0749917
136	0x3d199daa	0.037503876
137	0xbd19ba13	-0.03753097
138	0x3dc4e0de	0.096132025
139	0xbe0be76b	-0.13662498
140	0xbddbd982	-0.10734846
141	0xbdd7ae7a	-0.10531326
142	0xbd8897b1	-0.06669558
143	0x3d5e1ce2	0.054226764
144	0xbbaa1529	-0.005190511
145	0xbd3b99ec	-0.04580109
146	0xbe1af652	-0.15133026
147	0xbd63f11d	-0.055649865
148	0x3d1800c9	0.037110124
149	0x3cee01ce	0.029053595
150	0x3cb851de	0.022499975
151	0xbdbd570b	-0.09245118
152	0x3da2786d	0.07933126
153	0xbddba9f1	-0.10725773
154	0x3d243759	0.040091846
155	0x3e376bbe	0.17912194
156	0xbda7d314	-0.08194557
157	0x3d44c2e9	0.048037443
158	0xbbe34f5e	-0.0069369515
159	0xbcae91cc	-0.021309756
160	0x3ca61336	0.020272832
161	0x3dd45c2e	0.103691444
162	0xbe4c1704	-0.19930655
163	0x3aef8a00	0.001827538
164	0xbd1f999c	-0.038964853
165	0x3dc1b132	0.094576254
166	0xbc976fd6	-0.018485945
167	0x3d3a4156	0.045472465
168	0x3df4a243	0.119450115
169	0x3c6f2582	0.014596345
170	0xbc2f8268	-0.010712244
171	0x3cb02d7e	0.021506067
172	0xbc9b38e8	-0.018948033
173	0xbd99cccf	-0.07509767
174	0xbcbcfa3e	-0.023068544
175	0xbd814adb	-0.06313106
176	0xbb1dfbd9	-0.0024106412
177	0x3db6270d	0.08894167
178	0x3cd97db2	0.026549194
179	0x3cf38b59	0.029729532
180	0x3e26a2fe	0.16273114
181	0xbdfd29a5	-0.12361459
182	0xbd7b2ed9	-0.061323974
183	0x3d104cd4	0.03522952
184	0xbe4f9c7f	-0.20274542
185	0x3cc0a980	0.023518324
186	0x3c009e24	0.007850204
187	0xbd3f1485	-0.04665043
188	0x3e0b7720	0.13619661
189	0xbe48adcc	-0.19597548
190	0xbd2e3a7f	-0.042536255
191	0xbc6571d7	-0.014004192
192	0xbdb283d6	-0.08716552
193	0x3d1b85bb	0.037969332
194	0xbd6e863d	-0.05823349
195	0xbbb41b96	-0.0054964526
196	0x3e212d15	0.15739854
197	0xbc07e3f2	-0.0082940925
198	0xbd05e995	-0.032693464
199	0xbde1dd81	-0.11028577
200	0x3cbb6169	0.022873597
201	0x3d7c15fa	0.061544396
202	0x3d923c1f	0.071403734
203	0xbc3cbb56	-0.011519274
204	0xbda1f39c	-0.07907793
205	0x3c7d7a5c	0.015471067
206	0xbd5e464d	-0.054266263
207	0xbe0006d7	-0.12502609
208	0xbd6fefb8	-0.058578223
209	0x3da361eb	0.07977661
210	0x3e0248c0	0.12723064
211	0xbd7bbc85	-0.061459083
212	0x3d53681a	0.05161295
213	0xbdf927fc	-0.121658295
214	0x3db3903c	0.08767745
215	0xbc3d8b2d	-0.011568827
216	0x3d7e2b6d	0.062053133
217	0x3de8f1df	0.11374258
218	0xbe05703b	-0.13031094
219	0xbd6a352d	-0.05717962
220	0xbceac9e3	-0.02866072
221	0x3db7232d	0.08942256
222	0xbce1cdc9	-0.027563946
223	0x3d300a30	0.042978466
224	0x3cacfbb9	0.021116124
225	0x3c163a7b	0.009169216
226	0xbde793aa	-0.113074616
227	0xbb836c0d	-0.0040106834
228	0xbd2032f6	-0.0391111
229	0x3ddf6b48	0.10909134
230	0x3d0d2316	0.03445729
231	0xbdcff3c6	-0.10153918
232	0xbd1cf0cf	-0.03831559
233	0xbd9e1bda	-0.07720156
234	0x3d30478f	0.043036994
235	0x3d3e23c3	0.046420824
236	0xbe06d8a0	-0.13168573
237	0xbdd9a7f0	-0.10627735
238	0xbcc64022	-0.024200503
239	0x3d0beb49	0.034159932
240	0x3deae4ab	0.11469396
241	0x3d0e232d	0.034701515
242	0xbc6d96e1	-0.014501304
243	0x3dbd660e	0.09247981
244	0xbd162061	-0.036651973
245	0x3c8aba78	0.016934618
246	0xbd4b6d62	-0.049664862
247	0xbd99d439	-0.075111814
248	0x3ddc0fe6	0.1074522
249	0x3d53ac27	0.05167785
250	0x3e18b17e	0.14911458
251	0x3b757bfb	0.0037457931
252	0x3dae48ca	0.08509977
253	0x3dc46bc5	0.09590868
254	0x3da44c97	0.08022421
255	0x3db251f0	0.087070346

transformer.layers.0.self_attn.out_proj.bias f4 [64]
0	0xb922de9f	-0.00015532457
1	0xbdb42ec9	-0.08797986
2	0x3c700ba2	0.014651211
3	0x3dd1ae8a	0.10238369
4	0xbd4a5297	-0.04939517
5	0x3cfcb3fe	0.030847546
6	0x3d9c25df	0.07624411
7	0x3d6761fa	0.056489922
8	0x3defb1b6	0.117038175
9	0xbda44528	-0.08021003
10	0x3d6e9395	0.058246214
11	0x3dc8e853	0.09809937
12	0x3d2814c7	0.04103544
13	0xbc8b6c27	-0.017019344
14	0xbd9055ad	-0.07047591
15	0x3ddc2a21	0.10750223
16	0xbcb44688	-0.022006288
17	0xbd0e26d6	-0.034705006
18	0xbd76f9c7	-0.0602968
19	0xbc968c46	-0.018377434
20	0x3d6f222a	0.05838219
21	0x3ce4cd7a	0.02793001
22	0x3e03d54e	0.12874338
23	0x3d37223a	0.044710375
24	0xbd956501	-0.072946556
25	0xbcf85c7c	-0.030317537
26	0xbd7a7906	-0.061150573
27	0xbc0eb910	-0.0087111145
28	0xbcadc1d4	-0.021210589
29	0x3d835509	0.064127035
30	0x3d36800c	0.04455571
31	0x3e177b0c	0.14793032
32	0x3d93c757	0.072157554
33	0xbe017c2c	-0.12645024
34	0x3d6503d3	0.05591185
35	0x3b08c66c	0.0020870222
36	0xbdcf325d	-0.10117028
37	0x3ca47cd8	0.020079061
38	0xbdd9d40e	-0.10636149
39	0x3d452147	0.04812744
40	0x3d91400c	0.07092294
41	0xbde2f05b	-0.110810004
42	0xbbfca7b4	-0.0077104215
43	0x3d731470	0.059345663
44	0x3d03ac38	0.032146662
45	0x3def4f48	0.116850436
46	0x3cda1f75	0.026626328
47	0xbb9a2b2f	-0.004704855
48	0xbd9e490c	-0.07728776
49	0xbd03f1a4	-0.03221287
50	0xbdeb1df2	-0.11480321
51	0x3e1556b8	0.14583862
52	0xbcf985d9	-0.030459331
53	0xbd9759fd	-0.07390211
54	0xbdd82548	-0.10553986
55	0xbdc78af3	-0.09743299
56	0xbd8e92f4	-0.06961623
57	0xbdbf150d	-0.09330187
58	0xbd0a22a4	-0.033724442
59	0xbd079cf1	-0.033108655
60	0x3e0b454b	0.13600652
61	0xbd860c55	-0.06545321
62	0xbdf1b7e6	-0.11802654
63	0x3d1aefac	0.037826225

transformer.layers.0.linear1.weight f4 [128, 64]
0	0xbcf38eac	-0.029731117
1	0x3d469a3f	0.048486944
2	0xbe785b9f	-0.242537
3	0xbe621de9	-0.22081722
4	0x3e07d075	0.13263114
5	0xbdbd7217	-0.092502765
6	0xbd8e0f11	-0.069364674
7	0xbe01273f	-0.12612627
8	0xbe717f30	-0.23583674
9	0x3d67071d	0.056403268
10	0x3e27f3a7	0.1640154
11	0xbe6143c5	-0.21998508
12	0xbdca5d35	-0.09881059
13	0xbdfe37f0	-0.12413013
14	0x3d459230	0.04823512
15	0xbd1e68aa	-0.038674034
16	0xbdda955c	-0.10673019
17	0xbe050125	-0.12988718
18	0xbd19df89	-0.037566695
19	0xbe4c1f0e	-0.19933721
20	0x3cfd5d24	0.030928202
21	0x3e126bad	0.14298888
22	0xbe38c56e	-0.18044063
23	0xbe92575b	-0.28582272
24	0xbd9dfd3e	-0.07714318
25	0x3eba5ac5	0.36397377
26	0x3dccbaed	0.09996591
27	0xbd1bc865	-0.038032908
28	0xbe230634	-0.15920335
29	0x3d1cae7f	0.03825235
30	0x3e251219	0.16120185
31	0xbe5c80a2	-0.21533445
32	0x3d212d55	0.039349873
33	0xbd9dedd5	-0.077113785
34	0xbe183e63	-0.14867549
35	0x3de71822	0.112839
36	0x3d2dd2a1	0.0424372
37	0x3dd341ac	0.1031526
38	0xbd2d3279	-0.042284463
39	0xbdbaa902	-0.09114267
40	0xbf0b8b64	-0.5450957
41	0x3e941d39	0.28928545
42	0xbe474f87	-0.19463931
43	0x3df5dc7a	0.12004943
44	0x3e0d46c7	0.1379653
45	0xbe0321dc	-0.12805885
46	0x3df97741	0.12180949
47	0x3da9938c	0.082800955
48	0x3dba7ced	0.09105859
49	0xbd26644f	-0.040623005
50	0x3db1b00e	0.08676158
51	0xbd911716	-0.070844814
52	0x3e29cc49	0.16581835
53	0xbc75a5e4	-0.014993165
54	0xbd56069f	-0.052252408
55	0xbdbe9b7f	-0.09307002
56	0xbd788d68	-0.06068173
57	0x3e34bcab	0.17650096
58	0x3bc8f0c2	0.006132216
59	0x3e15bd30	0.1462295
60	0xbe330a7c	-0.17484468
61	0xbcc3509f	-0.023842154
62	0x3e800ba0	0.2500887
63	0xbe812e58	-0.2523067
64	0x3a6ab2e2	0.0008953047
65	0x3e079567	0.13240586
66	0xbc985e03	-0.018599516
67	0xbe571e3a	-0.21007624
68	0x3d044074	0.03228803
69	0xbe772586	-0.24135408
70	0xbe274580	-0.16335106
71	0xbd82ec2f	-0.06392705
72	0x3ced7dca	0.028990645
73	0x3dc1ecb0	0.09468973
74	0x3d53c9ad	0.051706005
75	0xbd45cf68	-0.0482935
76	0x3e39810f	0.18115638
77	0xbc89a8b5	-0.016804079
78	0xbd96106b	-0.0732735
79	0xbe52e2e0	-0.20594358
80	0xbd32e1d6	-0.043672405
81	0xbe038b13	-0.12846021
82	0x3e4f329d	0.20234151
83	0x3e0b6be8	0.13615382
84	0x3de17a68	0.11009675
85	0x3d64ee2e	0.05589121
86	0xbe22f9e5	-0.1591564
87	0xbc8d0513	-0.017214334
88	0xb94cf471	-0.00019546018
89	0x3e3d4a82	0.18485454
90	0x3d348c9f	0.04407942
91	0xbc9215ee	-0.017832723
92	0xbd188d56	-0.037244163
93	0xbd6d9249	-0.058000837
94	0xbc9720e1	-0.018448295
95	0x3e14fa40	0.14548588
96	0xbdb27663	-0.08713987
97	0x3dc8d842	0.09806873
98	0xbe241a13	-0.16025572
99	0xbe9e3653	-0.3090082
100	0x3d9c32b9	0.07626862
101	0xbd36fdc8	-0.04467562
102	0x3bbb8284	0.005722346
103	0x3e1ff752	0.15621689
104	0x3dd05c83	0.10173895
105	0xbd92d7b4	-0.07170048
106	0x3d7cbe38	0.061704844
107	0xbe0d1bc0	-0.13780117
108	0xbe06b8fb	-0.13156502
109	0xbdb5236b	-0.08844646
110	0x3e1b6a17	0.15177189
111	0x3dd17f12	0.10229315
112	0xbd3c285b	-0.045936923
113	0x3dd4c4b6	0.10389082
114	0xbe0f8736	-0.14016423
115	0xbe0a868f	-0.13527893
116	0xbdfb0599	-0.12256927
117	0xbe4a77e7	-0.19772302
118	0x3e516261	0.20447685
119	0x3e7a4303	0.24439625
120	0xbcd1217f	-0.025528667
121	0xbd553c47	-0.052059438
122	0xbd8203a6	-0.06348352
123	0x3d28b2fa	0.04118631
124	0xbe39de57	-0.18151222
125	0xbdd35243	-0.103184246
126	0x3cc39866	0.02387638
127	0x3df48a45	0.11940435
128	0xbdd28941	-0.10280085
129	0xbe4187a9	-0.18899406
130	0x3d852616	0.06501405
131	0xbe7be872	-0.2460039
132	0x3eac6b08	0.33675408
133	0xbce85e52	-0.028365288
134	0x3d35ab46	0.044352792
135	0x3c9a4359	0.018830942
136	0xbdeba480	-0.11505985
137	0x3bc60ef9	0.0060442653
138	0xbcc86608	-0.024462715
139	0xbe9d9e7e	-0.30784982
140	0x3bc3f7ef	0.0059804837
141	0xbeac3264	-0.33632195
142	0x3dde14fc	0.10843846
143	0x3de6b40f	0.11264812
144	0xbd8b0963	-0.067889
145	0xbe2accbf	-0.16679667
146	0x3d20d8ac	0.039269134
147	0xbe2177e7	-0.15768395
148	0xbb3f2bb0	-0.0029170327
149	0x3e1ee4d9	0.15516986
150	0x3b839338	0.0040153526
151	0xbe203ec2	-0.1564894
152	0xbe5946ab	-0.21218364
153	0x3e34d3d1	0.17658927
154	0x3e25866e	0.16164562
155	0xbdd31632	-0.10306968
156	0xbe83f572	-0.25773197
157	0x3e257c91	0.161608
158	0x3de52990	0.11189568
159	0xbee7e243	-0.45289811
160	0x3c039ecf	0.008033468
161	0x3d9b057d	0.07569406
162	0xbd4001fc	-0.046876892
163	0xbe4980f4	-0.19678098
164	0x3c408efc	0.01175284
165	0x3db5b48d	0.08872328
166	0x3e006a91	0.12540652
167	0x3d269a18	0.0406743
168	0xbe9a66be	-0.3015651
169	0x3dee4ea8	0.11636096
170	0x3d2f64b7	0.04282066
171	0x3d3d8312	0.046267577
172	0x3e74f5af	0.23921846
173	0xbe38fbfe	-0.18064877
174	0x3d90001d	0.070312716
175	0xbd93b5a9	-0.07212383
176	0x3b516d5d	0.0031956055
177	0xbdac9076	-0.08425991
178	0xbc4ece1b	-0.012622382
179	0x3d773a46	0.06035831
180	0x3e66fe3b	0.22557919
181	0x3cd02263	0.025407022
182	0x3d5563f6	0.052097283
183	0x3e21ede3	0.15813403
184	0xbdbd17b5	-0.092330374
185	0xbde3b44b	-0.111183725
186	0x3d3395f9	0.043844197
187	0x3cbeb2b0	0.023278564
188	0x3d301a1d	0.042993654
189	0x3d470d99	0.048596952
190	0x3e814bb5	0.25253072
191	0xbda3b4e4	-0.079934865
192	0x3e081662	0.13289788
193	0xbd9ef405	-0.07761387
194	0xbd9c7b2b	-0.0764068
195	0x3c81f361	0.015863122
196	0x3e15462f	0.14577554
197	0x3c8307f4	0.015995003
198	0xbd247cf1	-0.040158216
199	0x3d33a092	0.043854304
200	0xbd98daf0	-0.07463634
201	0x3ba50bf3	0.005036825
202	0xbdf07fd0	-0.11743128
203	0xbc5af0b8	-0.013363056
204	0x3ce0595c	0.02738636
205	0xbe61f73c	-0.22066969
206	0x3ce20d0f	0.027594117
207	0xbde88404	-0.11353305
208	0x3e3192a5	0.17341097
209	0x3d5f943f	0.054584738
210	0x3d9d6df4	0.076869875
211	0xbdc8ce4c	-0.09804973
212	0x3dbb53cb	0.091468416
213	0xbd8c4994	-0.068499714
214	0xbe03ba52	-0.12864044
215	0x3cad74ba	0.021173824
216	0xbd2218dd	-0.039574493
217	0xbd842b9a	-0.06453629
218	0x3ddcc867	0.10780411
219	0x3d0c4467	0.03424492
220	0x3d7aafca	0.0612028
221	0xbcc0a3de	-0.023515638
222	0xbc384e4d	-0.011249137
223	0xbd02a520	-0.031895757
224	0xbe31ca11	-0.17362238
225	0x3d9fa4b3	0.07795086
226	0x3cb1fd56	0.021727245
227	0xbdd7e011	-0.10540784
228	0xbb59919d	-0.0033198365
229	0xbd540366	-0.051761054
230	0x3da5a0bd	0.08087299
231	0xbd9d6397	-0.07685011
232	0x3d392587	0.045201804
233	0x3e836c15	0.25668398
234	0x3cd7c408	0.026338592
235	0x3b8cdf60	0.0042990893
236	0x3e3b0c3b	0.18266384
237	0xbe9029ee	-0.2815699
238	0x3d8f46ff	0.06995963
239	0x3da572c5	0.08078531
240	0xbd181004	-0.03712465
241	0x3d6cde8a	0.057829417
242	0x3cf56809	0.029956834
243	0xbdde045a	-0.10840674
244	0xbcabb0f5	-0.020958403
245	0x3c44b412	0.012005823
246	0x3d173763	0.036918055
247	0x3dd2c7a0	0.10291982
248	0x3c9224a6	0.017839741
249	0x3e188d3f	0.14897631
250	0xbd596c35	-0.05308171
251	0xbdd5c293	-0.10437503
252	0xbd84eda7	-0.06490641
253	0x3c43598b	0.011923204
254	0x3e01f786	0.12692079
255	0x3d92a9c9	0.0716129

transformer.layers.0.linear1.bias f4 [128]
0	0xbdc2aa8a	-0.09505184
1	0xbe9092fd	-0.28237143
2	0xbd0c7680	-0.034292698
3	0xbe418007	-0.18896495
4	0xbd0bd4a2	-0.03413833
5	0xbe3985cb	-0.18117444
6	0xbc13bc43	-0.009017053
7	0xbe49562f	-0.19661783
8	0xbe00deb9	-0.12584962
9	0x3e1a60a9	0.15075935
10	0x3ca943b1	0.02066216
11	0x3b5c2af5	0.003359494
12	0xbe548bf7	-0.20756517
13	0xbe4e2fd2	-0.2013543
14	0xbe91d818	-0.2848518
15	0xbe536484	-0.20643812
16	0xbe858363	-0.26076803
17	0xbe142dcb	-0.14470594
18	0xbcd7690f	-0.026295213
19	0xbdb2f80e	-0.08738719
20	0xbe798516	-0.24367175
21	0xbe0c9ed5	-0.13732465
22	0xbe8fcc8d	-0.28085747
23	0xbe9c196a	-0.3048814
24	0xbe37c67d	-0.17946811
25	0xbce320ef	-0.027725665
26	0xbddfdc24	-0.1093066
27	0xbda7a081	-0.081849106
28	0xbcac8ddc	-0.021063738
29	0xbe5af500	-0.21382523
30	0xbe520eb1	-0.20513417
31	0xbcb01957	-0.021496458
32	0xbdcfa2df	-0.10138487
33	0xbe54189b	-0.20712511
34	0xbe088870	-0.13333297
35	0xbd80d335	-0.062902845
36	0xbe61bdd2	-0.22045067
37	0xbe5530ec	-0.20819443
38	0xbc804875	-0.01565955
39	0xbe8104a5	-0.25198856
40	0xbe2183d8	-0.1577295
41	0xbe32214d	-0.17395516
42	0xbe0e175c	-0.13876098
43	0xbd80c460	-0.062874556
44	0xbe602b3c	-0.21891493
45	0xbe67dbbe	-0.22642419
46	0x3d24fbb3	0.0402791
47	0xbe0be0e6	-0.1366001
48	0xbe3b11a9	-0.18268456
49	0xbd8739fe	-0.06602858
50	0xbe71f8cf	-0.23630069
51	0xbca340d2	-0.01992837
52	0xbe6f4874	-0.23367482
53	0xbe09fbc3	-0.13474946
54	0xbe006fe2	-0.1254268
55	0xb93d9da1	-0.00018083166
56	0xbe16b5ef	-0.1471784
57	0xbd45978b	-0.048240226
58	0xbdce4b1b	-0.10072919
59	0xbe3e745d	-0.18599077
60	0x3c9be869	0.01903172
61	0xbda7d479	-0.08194823
62	0xbe735d0f	-0.23765968
63	0xbe5c50db	-0.21515219
64	0xbb6880cd	-0.0035477162
65	0xbe990460	-0.2988615
66	0xbdd75ef8	-0.10516161
67	0xbe94ab3d	-0.29036894
68	0xbe442777	-0.1915568
69	0xbe532443	-0.20619301
70	0xbcbe7743	-0.023250228
71	0xbdebf6bb	-0.115216695
72	0xbe4c6760	-0.1996131
73	0x3c3eeaae	0.011652632
74	0xbe82bb97	-0.25533745
75	0xbc1fe371	-0.009758816
76	0xbe2ae91c	-0.16690487
77	0xbdefbc50	-0.1170584
78	0xbdfc9bc4	-0.123343974
79	0xbd915f7d	-0.07098291
80	0xbe0f871c	-0.14016384
81	0xbe71266a	-0.2354981
82	0xbe274c63	-0.16337733
83	0xbe6518de	-0.22372767
84	0xbe81131e	-0.25209898
85	0xbe109c61	-0.14122154
86	0xbe4628dc	-0.19351524
87	0xbdbb89b5	-0.09157125
88	0x3c69b444	0.01426417
89	0xbe8f2c86	-0.27963656
90	0xbe884fe9	-0.26623467
91	0xbe378b47	-0.17924224
92	0xbdbec99c	-0.09315798
93	0xbd7d0f23	-0.061782014
94	0xbe571f15	-0.2100795
95	0xbdb11624	-0.08646801
96	0xbde938da	-0.11387797
97	0xbdde5b9d	-0.108573176
98	0xbe04b518	-0.12959707
99	0xbd65bf78	-0.056090802
100	0xbe0f40e1	-0.13989593
101	0xbe420239	-0.1894616
102	0xbda8b2a2	-0.082371965
103	0xbe092bf6	-0.13395676
104	0xbe643fab	-0.22289912
105	0xbda8690f	-0.08223163
106	0xbdec2525	-0.11530522
107	0xbe52039a	-0.20509186
108	0xbdaadf9b	-0.083434306
109	0xbe83d3f7	-0.25747654
110	0xbceb3c42	-0.028715257
111	0xbe60ce23	-0.21953635
112	0xbe2ffc25	-0.1718603
113	0xbc2fbc9c	-0.01072612
114	0xbe7f1a9b	-0.24912493
115	0xbe80cb25	-0.25154987
116	0xbdc9e043	-0.09857228
117	0xbe31dfb0	-0.17370486
118	0xbd77ee49	-0.06052998
119	0xbcd2dc22	-0.025739733
120	0xbe5ba63a	-0.21450129
121	0xbd879649	-0.066204615
122	0xbd22caa7	-0.039744046
123	0x3c889254	0.016671337
124	0xbe715d6b	-0.23570792
125	0xbd985901	-0.07438851
126	0xbe58dc26	-0.2117773
127	0xbe67e1fa	-0.22644797

transformer.layers.0.linear2.weight f4 [64, 128]
0	0xbb033197	-0.0020018572
1	0xbd050f9d	-0.032485593
2	0xbdac96d0	-0.08427203
3	0xbd0d0731	-0.034430686
4	0x3e1abf64	0.15112072
5	0xbe0d9fde	-0.13830516
6	0x3d552d5f	0.052045222
7	0x3bd0000a	0.006347661
8	0xbe6806f4	-0.22658902
9	0x3e104034	0.14086992
10	0x3b32a8b9	0.002726121
11	0xbe3ad6bd	-0.18245979
12	0x3c848001	0.016174318
13	0x3e1281ae	0.14307281
14	0x3dc2f656	0.09519641
15	0x3c5f3bf9	0.013625138
16	0x3d794eea	0.060866274
17	0x3e062ed8	0.13103807
18	0x3da60a24	0.08107403
19	0x3e721e0a	0.23644271
20	0xbd0001e1	-0.031251792
21	0xbe468525	-0.19386728
22	0x3d657f8a	0.056029834
23	0xbdafbe11	-0.08581174
24	0xbe807080	-0.2508583
25	0x3c89c4b1	0.016817423
26	0x3e143f5a	0.14477292
27	0x3d6cdb0f	0.057826098
28	0x3e2088da	0.15677205
29	0xbe99670b	-0.29961428
30	0xbdc4a7ec	-0.09602341
31	0xbde3e975	-0.11128513
32	0xbde468b2	-0.111527815
33	0x3e3f3715	0.18673356
34	0x3d39b9aa	0.04534308
35	0xbd958015	-0.0729982
36	0x3d1660e3	0.036713492
37	0x3ba440d5	0.0050126114
38	0x3d14ef12	0.036360808
39	0x3dde8b3c	0.108664006
40	0xbe07c7e7	-0.1325985
41	0xbd91be8e	-0.071164235
42	0x3d4f7ccf	0.050656136
43	0xbe887322	-0.2665034
44	0x3d824637	0.06361049
45	0xbe03f785	-0.1288739
46	0xbdc41c86	-0.09575753
47	0xbc8954de	-0.0167641
48	0xbd3027dd	-0.043006767
49	0xbd05c446	-0.032657884
50	0x3d8b2cf5	0.06795684
51	0x3ddf10ec	0.108918995
52	0xbcb92aa8	-0.022603348
53	0x3d2f163c	0.042745814
54	0x3d459d55	0.048245747
55	0x3aa7d441	0.0012804345
56	0xbe1a3831	-0.15060498
57	0x3c1ffe0f	0.009765162
58	0x3e1e2fd3	0.15447931
59	0x3d81523e	0.063145146
60	0xbdfe793f	-0.124254696
61	0x3dbd2ed3	0.09237447
62	0x3e2020fd	0.15637584
63	0xbe2e7600	-0.17037201
64	0xbd291430	-0.041279018
65	0x3d9cfdba	0.07665582
66	0xbe486146	-0.19568357
67	0xbd26d6fd	-0.040732373
68	0xbe261b42	-0.16221336
69	0x3dc28fba	0.0950007
70	0x3d65a455	0.056064922
71	0xbdffa04f	-0.12481748
72	0x3d23eeb4	0.040022567
73	0xbd27a631	-0.040929977
74	0x3d3fd53e	0.046834223
75	0x3d573be3	0.052547347
76	0x3ca271b0	0.019829601
77	0xbc87b419	-0.01656537
78	0xbdaab890	-0.08335984
79	0x3de5980f	0.112106435
80	0x3e5c9b11	0.21543528
81	0xbdce6e43	-0.100796245
82	0xbd1d96f2	-0.03847403
83	0xbde3e28f	-0.11127197
84	0xbdefdb5f	-0.117117636
85	0xbe028bfe	-0.12748715
86	0x3de09e23	0.10967662
87	0x3d3aecef	0.045636114
88	0xbd95396f	-0.07286345
89	0xbe49684c	-0.19668692
90	0xbce2769e	-0.027644452
91	0x3ce06162	0.027390186
92	0xbd7e3daf	-0.062070545
93	0xbd8e85f0	-0.0695914
94	0xbe6c8cf3	-0.23100643
95	0xbc1034b8	-0.008801632
96	0xbd491abe	-0.04909777
97	0x3e8afb99	0.2714508
98	0xbddaa817	-0.10676592
99	0xbd849c90	-0.064751744
100	0xbda2e14f	-0.079531305
101	0xbd907833	-0.07054176
102	0xbe8309c2	-0.25593382
103	0x3e1bd059	0.15216197
104	0x3c8e4788	0.017368093
105	0x3bf9c020	0.00762178
106	0xbd02de4f	-0.03195029
107	0xbdda9315	-0.10672585
108	0xbdd4122d	-0.10355029
109	0xbe73b258	-0.23798501
110	0x3e16eedb	0.14739554
111	0x3d994f58	0.07485837
112	0x3cb5ece2	0.022207681
113	0x3d0d5a58	0.034509987
114	0xbd42d8c2	-0.047569998
115	0xbd0e50d0	-0.034745038
116	0x3dba4639	0.09095425
117	0xbc9ae706	-0.018908989
118	0x3e6314d9	0.22175921
119	0xbdd28ca1	-0.10280729
120	0x3d592c42	0.053020723
121	0x3e223467	0.15840302
122	0xbdd66278	-0.10468
123	0x3c6f46a9	0.014604249
124	0x3c58f03e	0.013240872
125	0xbe263620	-0.16231585
126	0x3d90b040	0.07064867
127	0xbe254b13	-0.1614192
128	0x3da27a56	0.0793349
129	0xbdcf1a22	-0.10112406
130	0x3e8f7393	0.28017864
131	0xbe0d370c	-0.1379053
132	0xbbb62c1f	-0.005559459
133	0x3e2e45c0	0.17018795
134	0x3dd9bbff	0.106315605
135	0xbe3f191a	-0.18661919
136	0x3e4f6438	0.20253074
137	0x3d3193f6	0.043353997
138	0x3e463ec5	0.19359882
139	0x3e86e4dd	0.26346484
140	0xbb8de7c5	-0.0043306076
141	0xbe890eba	-0.26769048
142	0x3e6ed066	0.23321685
143	0x3c9351bd	0.017983312
144	0x3dbd4275	0.09241191
145	0xbdf7df3d	-0.12103126
146	0x3e6e4984	0.23270231
147	0x3e199bc0	0.1500082
148	0x3d7e6bfa	0.062114693
149	0x3e268e3d	0.16265197
150	0x3e004dce	0.1252968
151	0x3d7c0880	0.061531544
152	0x3e4c3fa6	0.19946155
153	0x3dcdcf47	0.10049301
154	0x3e0ace9b	0.13555376
155	0x3e16e655	0.14736302
156	0xbc8d3d8e	-0.017241266
157	0x3e0b21d9	0.1358713
158	0x3e9f483c	0.31109798
159	0x3e8726e9	0.26396874
160	0x3dd3bae3	0.1033838
161	0x3d5d5238	0.054033488
162	0x3dbf2189	0.09332568
163	0xbd44eee8	-0.0480794
164	0x3dac3052	0.08407654
165	0x3d3296ca	0.043600835
166	0x3db748a0	0.08949399
167	0xbda34330	-0.079717994
168	0x3ddd002c	0.107910484
169	0x3e9f36aa	0.31096393
170	0x3da70e20	0.08156991
171	0xbc780163	-0.015137049
172	0x3deabcc5	0.11461786
173	0xbd7842fb	-0.060610753
174	0x3d0c6cf3	0.03428359
175	0xbd23ba35	-0.039972503
176	0x3d4757c4	0.048667684
177	0xbe3c93fa	-0.18415824
178	0xbdcd03e3	-0.10010507
179	0x3ccff421	0.025384964
180	0x3d4d61d8	0.05014214
181	0x3c8a1645	0.016856322
182	0xbb8eda1b	-0.0043594963
183	0xbe49844d	-0.19679375
184	0xbe6b3c82	-0.229723
185	0x3de03b10	0.10948765
186	0x3db12d4b	0.08651217
187	0x3c244e96	0.010028502
188	0xbde3b0e7	-0.11117726
189	0xba1feec9	-0.00061009504
190	0x3db68f1e	0.08914016
191	0x3d90cbc9	0.07070119
192	0x3e29691e	0.16544005
193	0xbcdacdc0	-0.026709437
194	0xbd393bed	-0.045223165
195	0xbc20d323	-0.009815964
196	0xbe39d208	-0.18146527
197	0x3d1fcab7	0.039011683
198	0xbdaf8d24	-0.08571842
199	0x3d88acd2	0.06673588
200	0xbde60368	-0.112311184
201	0xbc613a61	-0.013746829
202	0x3c989f74	0.01863072
203	0x3d036fdd	0.032089103
204	0xbd790f94	-0.060805872
205	0xbe325bb6	-0.17417797
206	0x3c2667a1	0.010156543
207	0xbd4a8a63	-0.049448382
208	0x3d80a208	0.06280905
209	0x3dfc6944	0.12324765
210	0x3d9537cb	0.07286032
211	0x3d4bebc3	0.049785387
212	0x3e2f7e7e	0.17138097
213	0xbc9bb901	-0.019009115
214	0x3e1d45b1	0.15358616
215	0xbbadb6d3	-0.0053013354
216	0xbd0df7d5	-0.03466018
217	0xbd1f8d65	-0.038953204
218	0x3ccd5bb0	0.025068134
219	0xbcca56b5	-0.024699548
220	0x3dfb486f	0.12269675
221	0xbd7bc6cc	-0.061468884
222	0x3e082d1f	0.13298462
223	0xbd9886c7	-0.07447582
224	0xbd76cf60	-0.060256362
225	0xbcfb694e	-0.030689862
226	0x3e1dabf8	0.15397632
227	0x3da12f99	0.07870407
228	0x3b61dd1c	0.0034464067
229	0x3e831932	0.2560516
230	0x3df4a284	0.1194506
231	0x3d4aabbd	0.04948019
232	0xbd665083	-0.056229126
233	0x3e4bc3a5	0.19898851
234	0xbd42525f	-0.047441836
235	0xbe1e986a	-0.15487829
236	0x3e8c4e7d	0.27403632
237	0x3bb22525	0.005436557
238	0x3db55644	0.088543445
239	0xbe117f3d	-0.14208694
240	0x3d914f6e	0.07095228
241	0x3be0e087	0.0068627032
242	0xbc488511	-0.012238757
243	0x3ce2069c	0.027591042
244	0x3dd367ef	0.10322558
245	0xbdb3356a	-0.08750422
246	0xbd90f237	-0.07077449
247	0xbc595257	-0.01326426
248	0x3d7df5b8	0.062001914
249	0xbe1ec640	-0.15505314
250	0x3dc0ea59	0.09419698
251	0x3d402cd0	0.046917737
252	0x3d6d556c	0.057942793
253	0x3c2fe316	0.010735294
254	0x3d505f57	0.050872173
255	0x3ce23316	0.02761225

transformer.layers.0.linear2.bias f4 [64]
0	0x3d7887f0	0.060676515
1	0x3d20291d	0.03910171
2	0xbdbc5e98	-0.0919773
3	0x3ce6cd81	0.028174164
4	0xbce89410	-0.028390914
5	0xbdbcfaed	-0.09227548
6	0x3da36999	0.079791255
7	0x3d67eb43	0.056620847
8	0x3d60f23a	0.054918505
9	0xbd70092b	-0.058602493
10	0x3c523c22	0.01283172
11	0xbd78f81c	-0.06078349
12	0x3b408db1	0.002938133
13	0xbd70a0c1	-0.058747057
14	0xbdd99729	-0.10624535
15	0xbd863d58	-0.06554669
16	0xbd47739d	-0.04869424
17	0xbcf42939	-0.029804813
18	0xbce986c7	-0.02850665
19	0x3da01404	0.07816318
20	0x3c9665e1	0.018359127
21	0xbd801692	-0.06254305
22	0x3ca23c29	0.019804077
23	0x3ad0a306	0.0015917725
24	0x3d49fd39	0.049313758
25	0xbc17815c	-0.00924715
26	0xbc3973fb	-0.011319156
27	0x3ce38ea6	0.027777981
28	0xbd14b30b	-0.03630356
29	0xbdbd35ad	-0.092387535
30	0x3d5c752a	0.053822674
31	0xbdc971fa	-0.098361924
32	0xbdc636cc	-0.096784204
33	0xbd6fc0a1	-0.058533315
34	0xbdc78b12	-0.097433224
35	0x3d443d86	0.047910236
36	0x3d13f48f	0.0361219
37	0xbd3ef187	-0.046617057
38	0x3c9dd1e3	0.01926512
39	0xbd8a5e56	-0.067562744
40	0x3d63e3f6	0.055637322
41	0x3e2ff5fb	0.17183678
42	0xbc593a28	-0.013258494
43	0xbd534c1f	-0.051586267
44	0x3ca0d964	0.01963491
45	0x3d2de0a8	0.042450577
46	0xbc47847b	-0.012177582
47	0x3ac51ca1	0.0015038439
48	0x3dc3ca0d	0.095600225
49	0x3d3764c6	0.04477384
50	0xbc78608c	-0.015159737
51	0x3d6ba8e2	0.057534106
52	0xbca25d57	-0.019819899
53	0x3d929596	0.071574375
54	0x3c12a63f	0.008950769
55	0x3c9348e2	0.01797909
56	0x3ce586cd	0.02801838
57	0x3c954234	0.018220045
58	0x3c42a9c3	0.011881295
59	0xbcd9cb93	-0.02658633
60	0xbd21ed18	-0.03953275
61	0x3db98062	0.0905769
62	0x3d96b3ad	0.07358489
63	0x3c8298a9	0.015941935

transformer.layers.0.norm1.weight f4 [64]
0	0x3f6cdcd0	0.92524433
1	0x3f88116a	1.0630314
2	0x3f6b3f6b	0.91893643
3	0x3f86728c	1.0503707
4	0x3f891408	1.0709238
5	0x3f878537	1.0587529
6	0x3f8bf23a	1.0933297
7	0x3f8869f4	1.0657334
8	0x3f821111	1.0161458
9	0x3f8be9fe	1.0930784
10	0x3f801f06	1.0009468
11	0x3f8ad357	1.0845746
12	0x3f858748	1.043191
13	0x3f72101f	0.9455585
14	0x3f7401e3	0.9531538
15	0x3f84077d	1.0314785
16	0x3f668453	0.9004566
17	0x3f75ca63	0.9601194
18	0x3f89a40e	1.075319
19	0x3f38381f	0.71960634
20	0x3f853f5e	1.0409963
21	0x3f82b967	1.021283
22	0x3f874f5f	1.0571097
23	0x3f8283a1	1.019642
24	0x3f96cd46	1.1781394
25	0x3f60aea9	0.8776651
26	0x3f6f2316	0.9341291
27	0x3f85af51	1.0444127
28	0x3f819507	1.0123605
29	0x3f6cc35d	0.924856
30	0x3f853cbe	1.0409162
31	0x3f7fa72a	0.9986445
32	0x3f653a80	0.8954239
33	0x3f7918e9	0.97303635
34	0x3f6842ae	0.90726745
35	0x3f7140bb	0.94239396
36	0x3f777e7a	0.9667736
37	0x3f6f0c7e	0.93378437
38	0x3f8c83fb	1.0977777
39	0x3f935eb8	1.1513281
40	0x3f8ed2c2	1.1158068
41	0x3f6ddc1d	0.9291399
42	0x3f730b02	0.9493867
43	0x3f787ebb	0.97068375
44	0x3f88a271	1.0674573
45	0x3f6a93bf	0.9163169
46	0x3f8811c6	1.0630424
47	0x3f792fc7	0.9733853
48	0x3f79f5ea	0.9764086
49	0x3f836516	1.0265224
50	0x3f86cad0	1.0530643
51	0x3f887378	1.0660238
52	0x3f7dc66b	0.99130887
53	0x3f8de98d	1.1086899
54	0x3f6c2f35	0.9225953
55	0x3f82f91c	1.0232272
56	0x3f8f1dc0	1.1180954
57	0x3f72924e	0.94754493
58	0x3f8506b2	1.0392668
59	0x3f74f98f	0.95693296
60	0x3f819f78	1.0126791
61	0x3f89aff6	1.0756824
62	0x3f80a3e0	1.0050011
63	0x3f76a8d3	0.96351355
