results/StandardScaler/TransformerModel_w200.pth (torch, 422086 bytes, 40 tensors)

input_projection.weight f4 [64, 6]
000000 64 c5 96 bc b3 d0 85 3e 45 90 97 3e 58 ed 1b be
       -0.01840467 0.26135787 0.29602256 -0.15227258
000010 77 d5 38 be 45 f0 18 be e1 18 93 be 0f 46 25 bd
       -0.1805018 -0.14935406 -0.2872992 -0.040350016
000020 63 0b b1 bd 53 7f 1b 3e f8 70 9a 3d d6 5f b7 bd
       -0.0864475 0.15185289 0.07541078 -0.08953826
000030 d5 29 c4 3e 61 b8 6a 3e 73 b0 61 3e ad 6d 72 3e
       0.38313165 0.22921897 0.22039966 0.2367465
000040 eb e5 8c be 89 fc 18 be 74 a7 91 bd ea 20 1d 3e
       -0.27519163 -0.14940085 -0.07112017 0.15344587
000050 de d7 6e be fa 54 bb bc 15 60 46 3e df dc 83 3c
       -0.23324534 -0.022867668 0.1937259 0.01609653
000060 a8 54 3f be 10 ad 99 3e 5f ce b9 be 28 c5 00 bd
       -0.18684638 0.3001485 -0.3629026 -0.031438023
000070 42 a8 fd 3c 96 b3 88 3e 2a 6f a6 3e 11 5c 64 be
       0.03096402 0.26699513 0.32506686 -0.22300746
000080 1e d1 1e 3d 6c 54 cb be 11 00 45 be 55 4c b5 be
       0.03877365 -0.39712846 -0.19238307 -0.354098
000090 95 d8 cd 3d 76 e2 73 3e 24 91 a1 be d3 f5 65 bb
       0.10051075 0.23816857 -0.31556046 -0.003508915
0000a0 78 d4 4b be 2d 10 bd bd 29 75 a2 be 27 14 92 be
       -0.19905269 -0.09231601 -0.3173001 -0.28531
0000b0 03 88 54 bd c9 9f 77 3e 84 cf 4c bd 08 b6 89 3e
       -0.051887523 0.24182047 -0.05000259 0.2689669
0000c0 13 84 1f be 30 84 ce 3e ba 63 9d be 75 02 fd 3d
       -0.15577726 0.40335226 -0.30740148 0.12353984
0000d0 5f 8f 24 be ee 5e 94 bd 9b d5 a4 3e 4e 43 cc 3e
       -0.16070317 -0.07244669 0.32194218 0.398951
0000e0 ff e9 1d 3e 99 ca b2 be 62 29 d8 3d 5f 90 c1 be
       0.15421294 -0.34920195 0.10554768 -0.3780546
0000f0 5a 8d 9d 3c a9 cf a6 be 40 e9 33 3a e9 ce 1a 3e
       0.01923244 -0.32580307 0.0006863065 0.15117992
000100 11 01 6c 3e 0f 2e e4 3c 83 a4 0f 3e 6e 5a 3d be
       0.23047282 0.027853994 0.140276 -0.18491527
000110 d4 a4 76 3e 06 52 5d be 4b 1c b7 be 45 87 09 bd
       0.24086314 -0.2161332 -0.35763773 -0.03357627
000120 24 a7 3f 3d 01 2b 48 be 19 0e 61 bc 65 e8 6b 3e
       0.046790257 -0.19547655 -0.013736271 0.2303787
000130 ec 47 9c 3e 6d 34 76 bb cf 03 a2 be a2 20 db bd
       0.30523622 -0.003756787 -0.3164353 -0.106995836
000140 a7 00 f0 bd 1d 8d c6 3e cd 27 80 be ff 7c 87 3e
       -0.117188744 0.38779536 -0.25030366 0.26462552
000150 1d 66 38 3e 0b 2b 36 3e 3d 8d 0b bd f6 22 77 bc
       0.18007703 0.17789857 -0.034070242 -0.015084019
000160 4a 9b 63 3e a2 a4 54 bc b8 8c 92 3e b8 52 88 3e
       0.22227207 -0.012978705 0.28622985 0.2662561
000170 e5 91 c0 3c 6f 62 1a 3e 71 cf 47 be 49 ef 7c 3e
       0.023507068 0.15076612 -0.19512726 0.24700655
000180 a7 a4 f3 3c 4c 76 8d be 8b d1 65 3e ed ad 7d 3a
       0.029741598 -0.27629316 0.22443216 0.0009677101
000190 20 3e 2d 3d 11 4d 2b 3e 36 f9 8b be 5e 14 da 3d
       0.042295575 0.16728617 -0.2733857 0.10648416
0001a0 d7 82 bc 3e 6a e8 95 3d 0c f4 8f be e1 a9 0e 3d
       0.36818573 0.0731972 -0.2811588 0.034829978
0001b0 22 72 d3 3e c9 df 84 3d 7b 56 f0 bd e6 c9 c1 3b
       0.41298014 0.06487996 -0.11735245 0.0059139607
0001c0 91 83 bd 3e 5e 6d 80 bc df 23 3a 3e e6 9c 8f 3e
       0.3701444 -0.01567715 0.18177746 0.28049392
0001d0 48 3d a2 3e 58 6e 3d be 0a ae 4e 3d c8 f4 2b 3e
       0.3168738 -0.18499124 0.050458945 0.16792595
0001e0 79 8a 93 be b4 39 80 be 21 8c 04 3e 12 12 d9 bb
       -0.28816584 -0.25044024 0.1294408 -0.0066244686
0001f0 80 07 64 3e bb 2b c8 be ea 9f d2 3d f0 29 95 be
       0.22268486 -0.39095864 0.102844074 -0.29133558
000200 5a 01 c0 3e f3 5f ea bc 18 80 ad 3e 93 ed 85 3e
       0.3750103 -0.028610205 0.3388679 0.26157817
000210 4c 69 44 be 77 8d b2 3d 30 7a 9b 3d ad ff ad be
       -0.19180793 0.087183885 0.07591665 -0.33984128
000220 6f 5a 9f be 2b 94 a3 bd 43 df cb 3c 54 37 86 be
       -0.31123683 -0.07987245 0.024886733 -0.26214087
000230 53 bf 96 bd cd 11 66 3e 9a 0b ea bd 69 86 93 3e
       -0.07360711 0.22467728 -0.11427994 0.28813484
000240 fc 9a 54 3e e2 4d 9b 3d f1 dd e1 bd 8e dd 6f be
       0.20762247 0.07583214 -0.1102866 -0.2342436
000250 0f 51 16 be 18 8c 4d 3e 81 8e 4b be 64 15 10 3e
       -0.14679359 0.20072973 -0.1987858 0.1407066
000260 3d 91 b9 be 58 db d5 be 4d a4 93 3e b7 64 52 be
       -0.3624362 -0.41768909 0.2883629 -0.20546232
000270 88 c4 93 3e 09 22 e0 bd 53 73 57 bd 1b c3 0c 3d
       0.2886088 -0.10943992 -0.052600216 0.034365755
000280 ca bc 15 3e d2 22 8c 3e 4e 21 6c be 73 47 bc be
       0.14622799 0.27370316 -0.2305958 -0.3677326
000290 96 ed f8 3d fd 3f 16 be f0 49 84 be c6 2a 3a 3e
       0.12154691 -0.14672847 -0.2583766 0.1818038
0002a0 95 56 ba 3d fa b8 bc 3e 1e fe a2 3e 98 0b b8 bd
       0.090985455 0.36859876 0.318345 -0.08986586
0002b0 90 7e b8 be 2d 16 20 3d d0 17 90 3e 3e 34 3f 3c
       -0.3603406 0.03908365 0.28143167 0.01167017
0002c0 50 9b 51 be 45 4e d4 be 79 e3 da bd 4f 9c cf 3e
       -0.20469403 -0.41465965 -0.10687918 0.40548941
0002d0 5f b5 0b 3e 81 90 ff bc b0 05 94 be e6 bc 37 3e
       0.13643406 -0.031196835 -0.2891059 0.17943153
0002e0 e6 60 80 3e 42 60 c4 be f2 36 57 bd 18 58 81 be
       0.25073928 -0.3835469 -0.052542634 -0.25262523
0002f0 56 24 49 3e 6e f4 0e 3e f5 aa 4d 3e 4e b7 9f be
       0.19642767 0.1396043 0.20084746 -0.31194538
000300 74 9a 2d be a6 51 21 be 96 cf 8f bc 48 58 d1 be
       -0.1695345 -0.15753803 -0.01755504 -0.40887666
000310 04 69 ce 3e d7 e1 a7 be 27 42 de 3d 4c 8a b0 bc
       0.40314496 -0.3278949 0.10852461 -0.02155032
000320 c5 fb 60 3e f9 e5 75 3e df 9f 72 be 7e bb a1 be
       0.21971042 0.24013509 -0.23693798 -0.31588358
000330 f8 06 87 bd 34 b2 92 be f9 fb 9f be c2 d6 9f 3e
       -0.06593126 -0.28651583 -0.31246927 0.31218535
000340 6f f2 0a 3d 41 25 0b 3e 82 80 a9 be 77 f4 a6 3d
       0.03392261 0.1358843 -0.33105856 0.08152097
000350 53 6a 66 3d 00 34 2b 3e db c8 9e 3e 06 ce a0 3e
       0.056253742 0.16719055 0.31012616 0.31407183
000360 75 30 89 be f6 6b c8 3e 59 84 1d be d3 cc a9 be
       -0.26794782 0.39144868 -0.15382518 -0.3316408
000370 f6 cb b3 3e 58 b3 8f 3e 20 4e 37 3d f1 73 ae 3e
       0.35116547 0.28066516 0.04475224 0.3407283
000380 2b 75 a0 bd 16 b9 b5 3e 13 58 59 be 2d f9 10 3e
       -0.07834848 0.35492772 -0.21225004 0.14157553
000390 00 75 a0 be 56 97 40 bd 12 75 9f be 8e b9 a6 3e
       -0.31339264 -0.047019325 -0.31144005 0.32563442
0003a0 93 26 70 3e 54 5f dd be d5 b1 76 3e 34 ff d1 be
       0.23452215 -0.43236792 0.24091275 -0.41015017
0003b0 b3 11 57 3e 12 69 c5 3e 83 81 bc be ac 6a 5c 3e
       0.21002845 0.38556725 -0.3681756 0.21525067
0003c0 98 e9 f0 3c 9d ce eb 3d 9c 24 ba be ea 50 4f 3e
       0.029408261 0.11514018 -0.36356056 0.2024571
0003d0 86 a8 87 3e 78 ca ce 3e db c8 8f 3e 29 69 ba 3e
       0.2649576 0.40388846 0.28082928 0.36408356
0003e0 97 33 2c 3e 86 d8 18 3e 64 99 79 be 76 30 29 3e
       0.16816555 0.14926347 -0.2437492 0.16522393
0003f0 fb dd a3 be 31 31 aa 3e 0d cc 8f bd f1 c1 0f ba
       -0.32005295 0.33240655 -0.070213415 -0.00054839166

input_projection.bias f4 [64]
000000 e9 31 9c be 88 fc 9a 3e 24 47 16 3e bf 61 a2 be
       -0.30506828 0.3027079 0.14675575 -0.317152
000010 93 29 2a 3d a5 b5 7b bd c6 39 cd 3d c6 77 84 be
       0.041543555 -0.061452527 0.10020785 -0.2587263
000020 1b 43 c7 3e 28 91 19 3d b7 a7 35 be 7f d2 65 bd
       0.38918385 0.037491947 -0.1773976 -0.056108948
000030 a8 90 71 3e 67 f8 7b be 2c 85 b9 bc 94 da 8c 3d
       0.23590338 -0.24606477 -0.02264651 0.06877628
000040 fb 68 96 be 93 56 df 3c 88 80 88 3d d8 65 3a be
       -0.2937697 0.027262961 0.066651404 -0.18202913
000050 2f 57 96 3e 01 3f 0d 3e e6 f9 83 3e 29 0b 01 be
       0.2936339 0.13793565 0.25776595 -0.12601914
000060 f9 0a 73 3e 48 c6 6b 3d fb 29 ae 3e 45 8e bd be
       0.23734654 0.057562143 0.34016404 -0.37022606
000070 75 79 89 be e4 9c 58 3e 27 1a 8f 3c 56 80 f1 3d
       -0.26850477 0.21153599 0.017468525 0.11792056
000080 78 d0 5c 3e f8 15 c1 3d db ec 52 3e 1a 78 40 bd
       0.215639 0.09428018 0.20598166 -0.046989538
000090 78 e2 90 be e9 09 46 bd 18 39 b4 be 4b 1c 5e be
       -0.28297782 -0.048349295 -0.3519981 -0.2169048
0000a0 ec 22 08 be 6c 96 87 be 81 4c a4 be 3b 9e 2c 3e
       -0.13294572 -0.2648195 -0.32089618 0.16857235
0000b0 50 8a 69 bd ee 4f cb bb 20 cb b5 be 92 9b cc bb
       -0.05701667 -0.0062045967 -0.35506535 -0.0062441314
0000c0 18 d5 71 3e f0 3c 6e bd 61 32 70 3e e7 54 d9 3d
       0.23616445 -0.058163583 0.23456718 0.10611897
0000d0 21 44 4e be 05 d6 b8 bd 80 03 c5 3d 9a cd 18 3c
       -0.20143177 -0.09025196 0.09619808 0.009326363
0000e0 43 e8 6a 3e 2d f4 de 3c 06 9d 1c be 7f b3 9a bc
       0.22940163 0.027216041 -0.15294275 -0.018884419
0000f0 af 1e 2d 3c 8b 7e 65 be 90 ac 89 3e b9 68 4a be
       0.010566398 -0.22411554 0.26889467 -0.19766511

transformer.layers.0.self_attn.in_proj_weight f4 [192, 64]
000000 4b 29 21 be 7c ab bf 3d f3 d4 21 3e 0d 08 3b bc
       -0.15738408 0.0935888 0.1580389 -0.011415494
000010 09 64 7d bd 5d e1 37 3d 41 08 26 3e 8a fa 0a be
       -0.06186298 0.044892658 0.16214086 -0.13572136
000020 16 ad 1b bd 28 3a f5 3c af 78 16 3e 7e f8 a2 bd
       -0.038006864 0.029934958 0.14694475 -0.079575524
000030 71 af dc 3d a8 ca f8 3d 92 ad b9 bd 41 a8 40 3e
       0.1077565 0.121480286 -0.09066309 0.18814184
000040 c1 52 7a bd aa 5b e6 bd dc 2d 98 3d 82 e8 09 be
       -0.061114077 -0.11247952 0.07430622 -0.13467601
000050 46 5c 6b bd 38 58 8d bc f7 b2 f1 bd 42 4a 2f bd
       -0.057461046 -0.01725398 -0.11801713 -0.042795427
000060 d4 ab f4 bd 5a ec c0 bc 41 ec e0 3d f9 5e b8 3d
       -0.11946836 -0.023550201 0.10982562 0.090024896
000070 03 12 00 3e f1 dd 00 3e 1c 7d 02 3e 13 2a 24 3d
       0.12506871 0.12584664 0.12743038 0.040079188
000080 93 d1 3c bd 1d ab 66 3e 36 75 e6 3d ac 37 c9 3a
       -0.046098303 0.22526212 0.11252825 0.0015351675
000090 1a 66 d4 3c ed e9 da 3c e0 de ae 3d 04 48 cb bd
       0.025927592 0.026722873 0.08538604 -0.09925845
0000a0 be 03 f5 bc 79 8e fe bb b5 c2 3a bd 95 4c 2a 3e
       -0.029909011 -0.007768449 -0.045595843 0.16630776
0000b0 25 84 3e 3d d8 3e 22 bd af e6 30 3d 3e a9 08 bd
       0.04651274 -0.039610714 0.043188747 -0.033364527
0000c0 16 6f 97 3d 4c db 28 be 37 d4 b0 bd 1f 76 83 3d
       0.07394235 -0.16489905 -0.08634227 0.06419014
0000d0 32 b8 0b 3d b4 1b 5a bd fc 63 fb 3d 61 50 00 bd
       0.03411121 -0.053249076 0.1227493 -0.031326655
0000e0 06 7b 18 be 20 85 2e 3e 41 27 c1 bd 3c 52 ec 3c
       -0.1489068 0.1704297 -0.09431315 0.028847806
0000f0 36 73 02 be 46 51 e5 bd b4 a7 c9 bc c2 22 34 be
       -0.12739262 -0.11197142 -0.0246161 -0.17591384
000100 66 b9 eb 3d ca fe f7 3d fe 8c 2d bc 23 b1 1b bd
       0.11509971 0.12109144 -0.010592697 -0.038010728
000110 41 62 6a bc bf e6 6c bd e5 8d 22 3e 55 5b 04 be
       -0.014305652 -0.057837244 0.15874441 -0.12925465
000120 04 5e 1a 3d b2 b4 da 3d f4 30 b5 3d c3 28 11 be
       0.037687317 0.10678996 0.08847228 -0.14175706
000130 3d c0 5c 3d 10 38 38 3d 03 2e 15 be 5a 4f 90 3d
       0.05389427 0.04497534 -0.14568333 0.07046385
000140 58 30 24 be b8 17 ae bb 7b 0c 3c bd 46 d5 93 bd
       -0.16034067 -0.005312886 -0.04591034 -0.07218413
000150 55 fa 0e bd 75 2c 8d 3d 09 22 92 bb 3f 82 ab 3d
       -0.034906704 0.06893245 -0.0044596237 0.08374452
000160 3b e6 86 3d f6 0a ae 3d 21 4c b9 bd d4 8f 3f bd
       0.06586882 0.084981844 -0.090477236 -0.046768025
000170 fa bf c8 3d 0e cf d8 bd 53 e6 27 bd 30 da f5 bd
       0.098022416 -0.105863675 -0.04099114 -0.120045066
000180 e3 13 2b 3d c5 14 8f 3d 51 fb fb 3d f7 c8 a8 bd
       0.041767012 0.06986383 0.12303794 -0.08241456
000190 31 a3 ab bc 2d bd 57 3d ff 1f a2 3c 44 95 fe bd
       -0.02095184 0.052670646 0.019790648 -0.12430814
0001a0 c4 55 87 3c dd 24 ae bd ac 01 10 be 84 9d d7 3c
       0.016520388 -0.08503125 -0.14063138 0.026320226
0001b0 44 0d a6 3d f6 6b a7 3d 22 80 36 be 73 cb 43 bc
       0.08107999 0.08174889 -0.17822316 -0.011950362
0001c0 ca cb 07 be 7f c3 14 3e 07 e8 13 bd 55 d0 19 bc
       -0.13261333 0.14527701 -0.03610995 -0.009388049
0001d0 8b 26 e6 bd 9c 74 14 3d e3 35 4a 3c 69 b0 72 3d
       -0.1123782 0.03624402 0.012341949 0.05925027
0001e0 a3 7b 01 3e df 9b c8 bd 9a ad cf 3d 8c 7b bc bd
       0.1264482 -0.09795355 0.10140534 -0.09203252
0001f0 38 74 92 bd 2c af c0 3c 98 81 7e 3d af c3 c8 3d
       -0.07151073 0.023521028 0.06213531 0.09802949
000200 39 2d 6d 3d a2 fa d9 3d 3f 7b e4 bd 32 89 3f bd
       0.057904456 0.106435075 -0.1115632 -0.0467617
000210 29 d2 44 3e 3c 4b 56 3d b9 2d 8a 3d c8 8f 94 bd
       0.19220795 0.052317843 0.06747002 -0.072539866
000220 6e a0 62 bd 64 74 f9 3d 16 12 27 bd 2c 38 c2 bb
       -0.05532878 0.12180403 -0.040788732 -0.0059271064
000230 08 9f 48 be 49 22 69 3d f0 28 1f 3e f2 2b 8c 3c
       -0.19591916 0.056917462 0.1554296 0.017110799
000240 6f 88 c4 bb 2a b9 f6 3d 41 68 36 bd 11 aa 7f bc
       -0.0059977095 0.12047036 -0.044533018 -0.015604512
000250 19 39 66 3d 38 8a 5d bc 59 05 58 3d 88 54 f9 bd
       0.056206796 -0.013521723 0.052739475 -0.12174326
000260 dd 0c 75 3d c4 cb 0e 3e 19 d5 0e be 59 67 d4 3d
       0.05982672 0.13944918 -0.13948478 0.103712745
000270 ef e9 d3 bd 1a 87 12 bd ec 02 99 3d 3d 3c e6 3c
       -0.10347354 -0.035773374 0.074712604 0.028104896
000280 c1 2d 11 be e3 ae 12 be 15 e1 1c be 8b 03 e6 bd
       -0.1417761 -0.14324526 -0.15320237 -0.112311445
000290 f8 e6 1b 3e e9 67 22 3e 03 59 09 be e5 a8 bd bc
       0.15224826 0.15859951 -0.13412862 -0.023151824
0002a0 46 2f 03 be 8e 62 38 bd 83 60 2c 3e 01 63 3b bd
       -0.12811002 -0.045015864 0.16833691 -0.045748714
0002b0 1c 73 33 3e 58 ea 3c 3d d0 86 23 be 4e 4e 9a 3d
       0.1752438 0.046121925 -0.15969396 0.07534467
0002c0 79 7f 2e 3d bc c3 c0 3d f1 6d 2a bd ce 8f 43 3d
       0.042602036 0.09412333 -0.041608755 0.047744565
0002d0 43 cb a8 3d 13 9c dc 3c 89 0c 4c 3d ea 4a 37 bd
       0.08241894 0.02692989 0.049816642 -0.044749178
0002e0 c9 da ea bc f3 cd 09 3e de 01 19 be ea 07 f1 bd
       -0.028668778 0.1345747 -0.14942119 -0.117690876
0002f0 8f ce 0c be a0 17 09 be 30 ac 45 3d 05 78 28 3d
       -0.13750671 -0.13387918 0.048259914 0.041130085
000300 d1 6c f9 3d 30 aa fc 3d 6a 94 cb bd 86 ac 5d 3d
       0.12178958 0.12337148 -0.09940417 0.05411961
000310 da 34 3f bb b1 4d f9 3d b3 cf 25 be 28 d7 5f bb
       -0.002917579 0.121730216 -0.16192512 -0.0034155343
000320 a4 08 75 bc 02 50 4f 3d 56 24 5a 3d 81 95 a2 3d
       -0.014955673 0.05061341 0.05325731 0.07938672
000330 0e 99 46 3d d6 fa b9 bd 53 1e d4 3d eb fd f4 bc
       0.048485808 -0.09081046 0.103573464 -0.029906234
000340 33 01 e0 3b b6 5c 13 3e 28 82 aa 3d bb 0e ca 3b
       0.0068360805 0.14390835 0.083256066 0.006166307
000350 64 f8 05 3e df 18 28 bd 15 77 46 bd 89 68 a3 bb
       0.13083035 -0.041039344 -0.04845341 -0.004986827
000360 3b 32 16 bd 56 fd 0b 3e 3b 17 f0 bd e2 d6 64 3d
       -0.036668997 0.13670859 -0.11723181 0.05586899
000370 ec e3 08 3b 49 66 a3 bd a6 f6 22 be 61 cb 55 3c
       0.0020887805 -0.07978494 -0.15914401 0.013048978
000380 f0 12 9b 3d 4e 78 50 bd a4 b5 21 3d 30 3a 7c bb
       0.075719714 -0.05089598 0.039479867 -0.003848683
000390 d7 1f b7 3d 6c 4f 87 bd 23 84 91 bc b6 e6 8a 3d
       0.0894162 -0.066069454 -0.017763203 0.06782286
0003a0 f5 8a d6 bc 65 3b fb 3d 13 19 cd bc 41 5d cb bd
       -0.026189307 0.12267188 -0.02503637 -0.09929896
0003b0 3a f6 f7 3c 46 59 1e 3d b5 66 26 be fd e3 6e bd
       0.030268777 0.038659357 -0.16250117 -0.058322895
0003c0 f8 bd 3a be b5 aa 8b bd b5 43 f0 3b c9 be 68 bd
       -0.1823653 -0.06819669 0.00733229 -0.056822572
0003d0 ef 54 32 bd 1b f1 09 3d c1 b5 18 bd 4a 0e 45 3d
       -0.04353803 0.0336772 -0.03728271 0.04810933
0003e0 80 93 96 3d b9 b4 05 be 41 24 26 3e 75 4b b3 3d
       0.07352352 -0.13057221 0.16224767 0.08754627
0003f0 28 00 3a 3e 9a 30 40 be 80 a7 e7 3c a6 b9 5e 3e
       0.18164122 -0.1876854 0.028278112 0.21750507

transformer.layers.0.self_attn.in_proj_bias f4 [192]
000000 41 fc 77 3c ab 31 70 3c 17 8f e9 bc 28 35 90 bc
       0.015135826 0.014660279 -0.028510613 -0.017603472
000010 b3 73 56 bc bc 22 07 3d 79 c5 99 3c 04 91 18 3d
       -0.013089108 0.03299211 0.01877092 0.037247673
000020 34 af 6f 3c a7 01 82 3c e6 25 48 3c a0 d1 bf bc
       0.014629174 0.015869929 0.012216067 -0.023415387
000030 8f 8c a8 bb c2 84 c1 bc 70 30 e8 bb f2 28 e2 3b
       -0.005143709 -0.023622874 -0.0070858523 0.0069018537
000040 62 82 e2 3c 9f c1 5c ba 15 83 21 3d 3f 07 0f 3d
       0.027650062 -0.0008421186 0.03943165 0.03491902
000050 c4 7d f6 bc 38 4d cf bd 70 d8 1c 3d 38 3c 74 3d
       -0.030089267 -0.1012215 0.03829235 0.05962774
000060 de 30 2a bd f7 5a 49 bd 8e 8c c7 bd d7 df f2 3c
       -0.04155051 -0.049159016 -0.097436056 0.02964775
000070 f4 e0 0c bd 07 1d c3 bc ce 3c 16 3c 71 0e 9c bd
       -0.03439422 -0.023817552 0.00916977 -0.07619942
000080 23 f3 41 3c 04 fc d4 3b 0c c0 53 bc 9e 50 10 3c
       0.0118377535 0.006499769 -0.0129242055 0.008808283
000090 12 fb ae 3c e1 43 ae bc 83 1a 03 bc 5b 6d 26 bd
       0.021359954 -0.021272602 -0.008001926 -0.040631633
0000a0 2d 58 4a 3d 6f a4 94 bc 53 14 94 bc 0c a9 47 bc
       0.049400497 -0.018144814 -0.018076098 -0.0121863
0000b0 7a 23 2c 3d 5c c5 0e 3d 66 87 f0 bc ac 93 e5 3c
       0.04202602 0.034856185 -0.029361438 0.028024517
0000c0 d2 85 6a bd ff 71 6b bd a7 56 28 3d 5e 1b 1a bc
       -0.057256527 -0.057481762 0.041098263 -0.009405939
0000d0 fc 46 87 3d 68 97 53 3d 36 09 08 3d b9 fc 8b 3c
       0.06605336 0.051658064 0.03321191 0.017088281
0000e0 d3 05 5a bd ea 7a 11 bd 54 56 02 3d dc 2e 4c bc
       -0.05322821 -0.03551761 0.03182061 -0.012462344
0000f0 6a 46 02 3d 6f b6 b1 3b 03 d6 21 3d 07 9c 13 3d
       0.031805433 0.005423359 0.039510738 0.03603747
000100 01 42 0b 3a c9 32 5c 38 25 c9 25 ba 6d c4 d8 b8
       0.00053122645 5.2499385e-05 -0.00063242234 -0.0001033627
000110 c6 c6 a4 39 d1 b2 d1 39 a1 bb 61 38 37 12 3c 3a
       0.00031428615 0.00039996815 5.3818923e-05 0.0007174345
000120 c6 79 9d b9 9f 91 27 39 e8 8a 56 39 55 c7 3d b8
       -0.00030036102 0.00015980609 0.00020460377 -4.5246754e-05
000130 bf b7 80 b9 42 83 9c b9 75 9e 16 b9 39 cd b5 39
       -0.00024550964 -0.00029852433 -0.00014364145 0.00034675913
000140 f4 da 2b 39 0c 5e 0d ba 67 81 8e b9 e7 c5 7d 39
       0.00016389397 -0.0005392737 -0.00027180763 0.00024201685
000150 d4 51 a6 39 b2 0f 80 3a ab a9 45 b9 6b 55 0e bb
       0.00031722954 0.0009770303 -0.0001885059 -0.0021718394
000160 52 cb cd 39 10 64 87 3a c1 e4 a1 3a ab 3f 40 b9
       0.00039252132 0.0010329504 0.0012351499 -0.00018334265
000170 da dd 9a 38 da 8e 9a 3a 62 13 73 3a 24 db 70 39
       7.384615e-05 0.0011791841 0.00092726026 0.0002296982
000180 e4 0e 50 ba 5f 66 bf 38 fd e8 91 39 e1 27 37 ba
       -0.0007936789 9.126658e-05 0.00027830145 -0.00069868384
000190 43 a8 2a ba 1f cb 20 b9 11 03 60 3a 0d 61 95 3a
       -0.00065100583 -0.00015334458 0.0008545379 0.0011396721
0001a0 92 48 de ba 07 9c 0e 3a 7e b3 79 3a 56 15 a9 39
       -0.0016958883 0.000544012 0.00095253426 0.00032250088
0001b0 c9 88 43 39 d4 d9 62 ba 09 4b 24 3a 05 a7 3a ba
       0.00018647606 -0.0008653675 0.00062672846 -0.0007120225
0001c0 d9 24 f1 38 ce 78 61 38 98 ed 10 b8 e2 b9 fd 38
       0.00011498639 5.375669e-05 -3.455355e-05 0.000120986035
0001d0 88 ab 9f b9 13 2c 87 b9 e9 ea 0a 39 01 b7 a5 b9
       -0.00030454644 -0.00025782044 0.00013248216 -0.000316076
0001e0 e2 19 b9 39 2c da 74 b9 52 5b 2d ba ca 3b ea 38
       0.00035305234 -0.00023350929 -0.0006613034 0.00011169126
0001f0 21 5c a8 b8 86 c3 eb b8 36 d6 7d b9 a6 8a 58 b9
       -8.0280246e-05 -0.00011242092 -0.0002420776 -0.00020651016
000200 08 29 62 bc bc e5 2c bc d0 0b ad 3b 4f 89 4d bb
       -0.013803728 -0.01055282 0.005280949 -0.003136236
000210 33 d0 24 b9 80 6f 64 3c de 7d 27 3c 7b 0c 01 ba
       -0.00015717819 0.013942599 0.01022288 -0.0004922819
000220 cc f5 2b bb cf 00 94 3c 3e 2b 51 bc ec bd 3c bc
       -0.0026239036 0.018066792 -0.012766657 -0.01151989
000230 4b 1c a1 bc e6 9b 2c 3c c4 8f 21 3b 36 e1 d6 3b
       -0.019666811 0.010535216 0.0024652341 0.006557609
000240 98 ae 71 3b 03 47 9d 3b 31 a3 61 bc 57 73 4e 3c
       0.0036877748 0.004799725 -0.013771818 0.012600741
000250 c4 bb 38 bc d0 de 9f bc f7 cd ad 3a 46 1a b9 3c
       -0.011275236 -0.019515425 0.0013260235 0.022595536
000260 26 7f 63 3a 14 5b 75 3a bd dc ac 3c cd 30 22 ba
       0.00086783094 0.000935958 0.02110135 -0.00061870815
000270 3a 87 94 bb 88 4b 28 bc 13 28 a4 bb 13 5e 65 3c
       -0.004532722 -0.010271914 -0.00500966 0.01399948
000280 39 f5 c8 3c be 08 3d bc 22 32 44 bc cb 4e 6f bc
       0.024530994 -0.011537729 -0.011974843 -0.014606188
000290 90 04 8e 3b 0a cb 28 3b 85 8a 9d 3c 42 6e 08 bd
       0.00433404 0.0025755786 0.01923109 -0.033308275
0002a0 68 da 91 3b 30 42 96 bb b2 99 fd 3c a3 b6 4d bc
       0.004451085 -0.004585527 0.030957077 -0.012555751
0002b0 9b 51 2f 3c ee 62 ae bb 7f 2f 48 3c 74 b0 52 bc
       0.010700609 -0.005321852 0.012218355 -0.0128594525
0002c0 d9 25 5d 3c b9 90 d0 3b dc c2 c9 bc 25 5f 8c 3c
       0.013497793 0.0063649085 -0.024629049 0.017135212
0002d0 9d f1 a7 bb 69 c2 31 3c 4e 4b 04 3c 2d 77 95 3c
       -0.005125238 0.010849574 0.008074595 0.018245304
0002e0 01 9f c3 3b d4 1b d7 3c 90 d6 75 bc 08 fd 26 3c
       0.0059698825 0.026258387 -0.015004769 0.010192163
0002f0 3d e3 1e 3c 8f 32 25 3c 7c 53 9f bb b3 d8 2b bc
       0.0096977325 0.010082855 -0.004862247 -0.010488677

transformer.layers.0.self_attn.out_proj.weight f4 [64, 64]
000000 0c 7b 9c bc f7 dc f3 3d 75 04 d4 3d c1 b1 db bd
       -0.019101642 0.1190738 0.103524126 -0.10727263
000010 27 1b 9f 3d 45 07 fc bb 8a 03 89 3c 49 48 cb 3a
       0.07768851 -0.0076912963 0.01672532 0.0015509214
000020 b7 0d fa 3d 86 92 b9 bd 8f 44 2d bd 12 d3 c1 bd
       0.12209647 -0.0906115 -0.04230171 -0.094640866
000030 a5 9c 32 3d 60 3d 0c be 20 5c 01 3e 74 ed 0a be
       0.04360642 -0.13695288 0.12632799 -0.13567144
000040 08 79 87 3d 78 46 01 bd 4d 8e 94 bd 00 6d 8a 3d
       0.06614882 -0.031561345 -0.07253704 0.06759071
000050 4f cf 18 bd 3e 87 fa bd f7 4b 1a 3c 12 70 8a 3c
       -0.03730708 -0.12232827 0.0094175255 0.016899142
000060 e5 73 4a bd df 88 da bd 93 fa e9 bd 85 f6 03 3e
       -0.049426932 -0.10670637 -0.11424746 0.12887008
000070 a9 84 60 bc 81 48 a5 bd ba 00 25 bd 73 b0 16 3d
       -0.013703504 -0.0807047 -0.040283896 0.03678937
000080 db 35 b3 bb 1d 58 8b 3d 90 c3 08 3d 4d c2 d3 3d
       -0.0054690666 0.06803916 0.033389628 0.10339794
000090 b4 12 56 bd 97 ad ff bc 0e fe 29 bb c8 7b 41 bd
       -0.05226393 -0.031210704 -0.0025938782 -0.047237188
0000a0 1a ec c8 bd ba 62 ef 3d c5 7e 6c bc 2c 5d a3 ba
       -0.09810658 0.116887525 -0.014434521 -0.001246368
0000b0 41 71 63 bd 72 d1 06 3e fd 17 e7 bd b2 d6 d7 3d
       -0.05552793 0.13165835 -0.11283872 0.10538997
0000c0 56 28 13 3d 09 1d a9 bd cc 4f cf 3d 8b be 06 3e
       0.03592714 -0.08257491 0.10122642 0.13158624
0000d0 b9 0f 66 bd 32 d6 80 bd 86 48 9c 3c 15 e4 8f bd
       -0.056167338 -0.062908545 0.01907755 -0.07025925
0000e0 c6 dd 52 3c 24 8f 10 bc 5c a1 27 bb 0f 06 b3 bd
       0.012870258 -0.00882319 -0.0025578355 -0.0874139
0000f0 f7 13 84 bd 00 35 bc 3d b4 b6 b9 3d d6 15 43 3d
       -0.064491205 0.091897964 0.09068051 0.047628246
000100 95 8b f7 bd 73 dc ee 3d 30 6b 54 bd e2 9d d0 3c
       -0.1208717 0.11663141 -0.051860034 0.02546591
000110 6d b4 ae 3c e8 e8 5c bc ad 20 cd bc 42 86 2d bd
       0.021326268 -0.013483264 -0.025039995 -0.042364366
000120 39 55 94 bd 46 46 ea bd 28 6d a4 bb 44 b7 ca 3c
       -0.072428174 -0.11439185 -0.0050178953 0.024745591
000130 98 f6 00 bc 6f c9 3b bd 79 b6 81 3d b2 34 ed 3c
       -0.0078712925 -0.0458464 0.06333632 0.028955791
000140 dd f9 e2 bb cb d4 3c bc 7f 70 89 bd bd de de 3d
       -0.0069267587 -0.011525343 -0.0671091 0.10882328
000150 0f e1 d2 3b 38 38 a9 3a df b3 82 bd b5 3f d6 bd
       0.0064355205 0.0012910431 -0.06381964 -0.1046137
000160 5c c2 0f bd 7b da 67 bd d4 20 9f 3d 4a 2a 1a be
       -0.035097465 -0.056604844 0.07769933 -0.15055194
000170 2c 69 bd bd 3a 77 bf bd 9c d1 7f bc 1a 3e ea bc
       -0.092485756 -0.093489125 -0.01561394 -0.028594065
000180 b1 66 da 3d 8b f5 86 3c ee 7c 6e bd cc 1c 5d 3c
       0.10664118 0.016474506 -0.05822461 0.013495635
000190 f8 99 4d 3d 48 6d bf bd d4 31 c4 bd 2a 8d ac bc
       0.050195664 -0.093470156 -0.095798165 -0.021063406
0001a0 48 7f 5a 3d ee d3 a3 3d 41 71 32 3d da 12 a3 bd
       0.05334404 0.07999407 0.04356504 -0.0796258
0001b0 7f 06 e7 bd 57 c4 6f bd c1 f7 b8 3d 09 73 f8 3d
       -0.11280536 -0.058536854 0.0903163 0.12131316
0001c0 0e f8 66 bd 51 e1 a3 3d aa ec b5 bd 4b c3 c2 bd
       -0.056388907 0.0800196 -0.08883031 -0.095099054
0001d0 4d 7a dc 3d 01 9e 88 3d a3 a6 18 bd c7 5a 58 bc
       0.107655145 0.06670762 -0.037268292 -0.013205237
0001e0 48 98 1f 3d 83 79 0a bd a7 0b c6 bd 15 3d 89 3d
       0.038963586 -0.03380729 -0.09670191 0.067011036
0001f0 98 9a 0c 3d 72 ad 96 3d e3 15 a2 3d 82 eb 00 bd
       0.03432712 0.07357301 0.07914331 -0.031474598
000200 81 aa 61 3d 0b e4 c7 bd 97 76 dd bd bf f4 7c bd
       0.055094246 -0.097602926 -0.10813635 -0.061756846
000210 0c 9e af 3d 0e b9 bf 3d 0c 2c 56 3d 66 57 c7 3d
       0.08575067 0.09361468 0.0522881 0.09733467
000220 3b d0 1b bd 67 08 92 3d 1f 16 fe bd 4e 5f e0 3c
       -0.03804038 0.07130509 -0.12406563 0.027389195
000230 37 c3 85 bd d6 c6 9c 3d a8 8c 86 bd d9 16 ed 3b
       -0.06531375 0.076551124 -0.06569797 0.0072353897
000240 fd 4e db 3d ef 96 fb 3d 32 1f 8b bd 46 24 29 3c
       0.10708425 0.12284648 -0.067930594 0.01032359
000250 fb 41 af 3d 10 8b 76 bb c0 43 d2 bc ff e0 cd 3d
       0.08557507 -0.0037619509 -0.025667071 0.1005268
000260 05 5b d8 3d 4b 97 57 3b cb 65 a5 3d 6c 94 9d bc
       0.105642356 0.0032896574 0.08076056 -0.019235812
000270 12 14 a3 3b 6a 5d 45 bb d4 1a 83 3d 6f 3a ac 3d
       0.004976758 -0.0030115494 0.064016014 0.08409583
000280 d2 b7 b0 bd c4 bf 58 3b 98 a8 f9 bd 1f 44 08 bd
       -0.08628811 0.0033073286 -0.1219036 -0.03326809
000290 2f f8 15 be 6c 34 83 3c 8c 36 fd 3c 07 74 26 be
       -0.14645456 0.016016208 0.030909799 -0.16255198
0002a0 b6 fc 04 3e a7 c0 23 bd 1f 97 05 bc 93 57 46 bc
       0.12987027 -0.03997865 -0.008153706 -0.01210584
0002b0 56 37 db bd 43 85 94 3c 00 b6 0e bd 4f f5 38 3c
       -0.10703914 0.01812995 -0.034841537 0.011288955
0002c0 30 d8 2b 3d 80 5a 92 bd 4f da 82 3c 97 b9 e6 3c
       0.04195422 -0.07146168 0.015973238 0.028164668
0002d0 e6 7a 30 bd 0a c0 09 bd 51 50 48 bd 7a ac ad bc
       -0.043085955 -0.03363041 -0.04890472 -0.021200407
0002e0 b4 a4 09 3d 39 f0 93 3d 82 ee 1a bc ed 5f 80 3d
       0.03360434 0.07223553 -0.009456279 0.062682964
0002f0 7e fa f5 bb 34 2b a0 bd e9 92 c8 3d a7 16 f7 bd
       -0.0075066676 -0.0782074 0.09793646 -0.120648675
000300 3a b2 10 bd 9a e1 11 3d e1 ee ba 3d 42 98 2a bd
       -0.03532622 0.03561554 0.09127594 -0.04164911
000310 32 cd e3 bd ab 26 15 3e 4f 44 89 bd 48 56 84 bd
       -0.11123122 0.14565532 -0.06702482 -0.06461769
000320 a8 63 b2 bd db f0 ea 3d ef 2d fe 3c ec 24 00 3d
       -0.08710414 0.11471721 0.031027762 0.03128521
000330 53 99 63 3d e7 dc b1 3d 6d d0 f8 3d f7 00 98 bd
       0.055566143 0.08684712 0.12149129 -0.07422059
000340 2b f9 17 3d 0b fb bd 3d 33 fd d9 3d a9 b7 b7 3d
       0.03710286 0.09276398 0.10643997 0.08970577
000350 fc ff 55 bd 42 af e5 3d e5 db db 3c e4 c6 2a bd
       -0.05224608 0.112150684 0.026838252 -0.041693583
000360 b1 45 0f bc b7 82 93 bb 6a bd 48 bd 62 20 ab 3d
       -0.008744643 -0.0045016664 -0.049008764 0.08355786
000370 a5 ec 02 3e 32 3d 59 bd 16 6f a3 bd 3f eb f1 bc
       0.12785585 -0.053036876 -0.07980172 -0.02953112
000380 62 11 b0 3d db 25 01 3d a1 67 15 3e d1 48 d3 bb
       0.085970655 0.031530242 0.14590313 -0.0064478894
000390 44 bc db 3d aa 37 f3 3b b7 87 a1 3d 4f 68 04 3d
       0.10729268 0.007422407 0.07887214 0.03232604
0003a0 c9 a9 2e bd ec 6b 08 3c f4 65 02 3d 5f 86 cc 3d
       -0.04264239 0.008326512 0.03183551 0.09986567
0003b0 b1 01 af 3d f0 cf a1 3d 28 d1 8a bd 00 75 34 bd
       0.085452445 0.07900989 -0.06778175 -0.044056892
0003c0 84 6f 48 3d 09 32 ce 3d 17 7d 9f bc 74 0c 0e bc
       0.048934475 0.10068137 -0.019468827 -0.008669961
0003d0 1d 03 e8 bc ee 81 d5 3d 80 5a eb bd 17 c4 bf bd
       -0.028321797 0.10425173 -0.11491871 -0.09363573
0003e0 19 b3 27 bd 02 50 8e bd 18 f2 11 bd 04 cc 18 3e
       -0.040942285 -0.06948854 -0.03563127 0.14921576
0003f0 d3 fc bb bd 2c 7d d8 3d d1 32 1b 3d 74 53 eb bc
       -0.09179082 0.1057075 0.03789026 -0.028726317

transformer.layers.0.self_attn.out_proj.bias f4 [64]
000000 59 7a ac bb 9d 98 0c 3b ec 8f 9e 3c 68 c8 9e bb
       -0.0052636084 0.002145327 0.019355737 -0.0048456676
000010 83 9c 28 bc 7b 54 e4 3c 14 ac 82 3c 06 c4 e8 bc
       -0.010291222 0.027872315 0.015951194 -0.028413784
000020 11 29 a2 3c 35 39 be 3c d3 d1 c3 bc 45 f8 d8 3c
       0.019794973 0.023220638 -0.023903763 0.026485572
000030 6a b1 be ba 24 cf 5b bc a0 e2 aa 3a 69 d7 cf 3b
       -0.0014548723 -0.013416085 0.001303751 0.0063428176
000040 66 07 a9 bb 0e 58 49 3c bb 27 a5 3c ce 64 1d 3d
       -0.0051583527 0.01228906 0.020160547 0.038426213
000050 f6 7a 8e bb bc 9c 3c bc 90 a0 22 bb b3 72 74 bc
       -0.004348154 -0.011511978 -0.002481494 -0.014919925
000060 95 b9 1c 3b 77 d3 e1 bb 1a 33 38 b9 75 0d 95 bb
       0.0023914326 -0.0068916637 -0.00017566644 -0.0045487233
000070 3a f0 01 bc d4 84 2e ba fd 16 38 bc e5 6a 9a bc
       -0.00793081 -0.0006657366 -0.01123595 -0.0188498
000080 1d 22 b9 bb 01 0c 76 bb a6 bf 06 bc 99 15 0c 3c
       -0.0056498186 -0.0037543776 -0.0082244035 0.008550071
000090 39 70 2c bc 68 d6 71 3b eb 19 00 bc 2c 7f a2 bc
       -0.010524803 0.0036901478 -0.007818679 -0.01983603
0000a0 cc 35 a0 bb 2a c4 09 3d 99 59 77 3a a4 ef 9b 3b
       -0.0048892256 0.033634342 0.00094356533 0.004758792
0000b0 70 bf b3 bb a8 33 d8 3c e5 3e 38 bc c4 f5 e0 3c
       -0.0054854676 0.02639182 -0.011245464 0.02746094
0000c0 65 17 e1 bb 2f 6e b1 3b 63 0f 41 bc 89 1f f6 bb
       -0.006869244 0.0054147462 -0.011783454 -0.0075110835
0000d0 6e 57 ee ba 4e 44 90 3b 3d 41 be bc bd 6c d9 3c
       -0.0018184015 0.004402674 -0.023224467 0.026541108
0000e0 5e 40 1e bb 1e 5c 76 bc 81 9e fe bb 4b 3e 41 3c
       -0.0024147253 -0.015036611 -0.00777036 0.011794637
0000f0 ef 4d ab 3c 5f 50 4e ba e0 d7 dd bc ce 5c 15 3b
       0.020911185 -0.00078702526 -0.027080476 0.0022790912

transformer.layers.0.linear1.weight f4 [128, 64]
000000 81 22 af 3d 4c c6 29 3d 41 53 4e be 71 ae ef 3c
       0.08551503 0.041448876 -0.20148946 0.029257985
000010 4c 7b 17 3e 7f f6 89 bc 06 34 1b bb 39 2d f7 3d
       0.14793128 -0.016841171 -0.0023682131 0.120691724
000020 de 82 91 bc 45 1b b2 bd 3d 67 cd 3c 67 90 99 3d
       -0.017762598 -0.086966075 0.025073642 0.07498246
000030 50 6f f3 bd 01 c4 02 bb a7 d1 1c 3d 58 40 a4 bd
       -0.118864655 -0.0019953253 0.038285878 -0.08020085
000040 e4 eb f2 3c 47 91 6a 3d 88 6d b6 bd 28 57 e3 bc
       0.029653497 0.057267454 -0.0890761 -0.02775152
000050 17 15 9c 3d e8 48 9f bd 3b 77 68 3d 67 34 d9 bd
       0.0762121 -0.07777578 0.056754332 -0.10605698
000060 b2 6d 43 3d 64 89 1d bd 08 ec cf bd 7a d5 45 3e
       0.047712035 -0.038461104 -0.10152441 0.19319716
000070 d3 d1 2e 3d 61 f8 a0 3d cd 9d 6b bd d3 8a 1c bc
       0.042680573 0.078598745 -0.057523537 -0.009554583
000080 57 d5 ec 3d df d5 33 bd 5f f1 25 be ff b3 bb 3d
       0.11564129 -0.043905135 -0.16205357 0.09165191
000090 7e 92 12 3e 54 7b 54 3d df 8c cf bb d8 0a 88 bd
       0.14313695 0.051875427 -0.006333932 -0.06642693
0000a0 62 7c 28 be 8f 4a b3 bd 62 3a 1b bd 2a ce 38 bd
       -0.16453698 -0.08754455 -0.037897475 -0.04511849
0000b0 d8 6f 49 bc 81 d2 31 3e 62 08 12 bd f9 42 8e bd
       -0.012294732 0.17365457 -0.035652526 -0.06946368
0000c0 6f 37 c7 bc 8d 89 73 3c f7 54 26 bc 8f 95 21 be
       -0.024318425 0.014864338 -0.010152093 -0.15779708
0000d0 37 ba 46 3d 07 b4 e0 3c 5e 21 1a 3e a6 79 ee bc
       0.048517432 0.027429594 0.15051791 -0.02911074
0000e0 dc 2c 01 3e 10 0c 2b be ed 07 0c 3d 76 d0 e6 bd
       0.12614769 -0.1670382 0.034187246 -0.112702295
0000f0 77 b7 a9 bc a5 c8 ff 3d 3a 81 2a 3d 86 86 4a 3d
       -0.020717366 0.12489442 0.041627146 0.049444698
000100 8d ae 8a bd 24 a6 76 bd 7b 7e 9c 3d a5 f4 fb bd
       -0.06771574 -0.060217038 0.07641312 -0.123025216
000110 22 28 86 3d 22 46 3a 3d 7c f9 05 be 47 26 38 3d
       0.065506235 0.04547704 -0.13083452 0.04495838
000120 12 d3 da bd 06 f8 ef bd 21 7b d3 3d ad 73 ee 3d
       -0.1068479 -0.117172286 0.10326219 0.11643157
000130 a5 10 c9 bd 6b 4f b5 3d f1 30 cc 3d e4 43 d4 bc
       -0.09817628 0.088530384 0.09970272 -0.025911279
000140 53 86 76 3d 92 b7 b9 3d 5d c1 9f bc 4f e0 f9 3b
       0.060186695 0.090682164 -0.019501382 0.0076256166
000150 51 8a a1 bd 46 e9 64 3d df 7c 38 3d 1e 0f 0d bd
       -0.0788771 0.05588653 0.04504096 -0.034438245
000160 8b 88 e0 bd 55 93 38 bd 8b 2b 37 bd 37 4c f6 bc
       -0.109635435 -0.04506238 -0.04471926 -0.030065639
000170 dd e9 87 3d 77 85 33 be f6 cc be bd 5b 8a e7 3d
       0.06636403 -0.17531382 -0.09316437 0.11305686
000180 2e 3f 09 be dd fc 1d bc 23 23 99 3d b0 c5 05 3e
       -0.13403007 -0.009642807 0.07477405 0.13063693
000190 5f d9 e1 3c 71 93 86 3d 46 34 91 bd be 62 76 bc
       0.02756947 0.06571091 -0.070900485 -0.01503819
0001a0 8f 1e 00 3d e8 27 f9 bc ec dc ab 3d 4e c0 20 3e
       0.031279143 -0.030414537 0.08391747 0.15698358
0001b0 7a 37 f5 3c bc 30 4b 3d 8b 19 2a 3e 6c 57 93 3d
       0.02993368 0.049607024 0.16611306 0.07194409
0001c0 6f 51 ae 3d f1 0f ec bd 3b 16 1f 3c 71 24 cd bd
       0.08511626 -0.11526478 0.00970989 -0.10016716
0001d0 7d d1 bd bd bd 9d e5 3d 01 c8 08 3e 17 5f 01 bd
       -0.09268472 0.11211727 0.13357545 -0.031584825
0001e0 ee ae 12 bd fc 22 f6 bd e8 fc bb 3c 41 66 00 3d
       -0.035811357 -0.120183915 0.022947744 0.031347517
0001f0 1d 60 76 3d f6 3f 0c 3e 3c 3b 67 bd 38 41 96 bd
       0.060150255 0.13696274 -0.056452975 -0.07336658
000200 95 70 5b bd 9a 5f 93 3d c5 de 8d bc d4 20 f7 3a
       -0.053574163 0.07195969 -0.017318139 0.0018854388
000210 4f ef 85 bd ea 1b 43 3d ea f7 b7 bd db df 7b bd
       -0.06539785 0.047634043 -0.08982833 -0.061492782
000220 55 ff cf 3c 83 80 89 bc 12 cf 76 3c d3 26 f6 bc
       0.025390306 -0.016784912 0.015064018 -0.03004781
000230 1d 04 2c bd ec 9a 5e bd 16 e0 98 bb c6 56 01 bd
       -0.04199611 -0.054346964 -0.004665385 -0.031576894
000240 23 83 44 bd 87 9e 8d 3d f0 dc d4 bc f0 1e cf bd
       -0.047976624 0.06915002 -0.025984257 -0.10113323
000250 aa cd c3 3d 3e ba b6 bd 55 0f b6 bd 51 af 94 bd
       0.09560712 -0.08922242 -0.08889643 -0.072600015
000260 db d4 8f bc 70 fc 16 3d 41 34 e7 bd fb 75 1d bd
       -0.017557552 0.036861837 -0.112892635 -0.038442593
000270 cb 0a 0a 3e 78 7f 10 3e 8c 19 af bd 78 a5 d6 bd
       0.1348068 0.14111125 -0.085497946 -0.104807794
000280 87 dd 63 bd 5f 8e 3c 3d 9d 2b 67 bc e9 45 94 3c
       -0.055631187 0.046034213 -0.014109519 0.018099742
000290 90 f8 f4 3c f9 55 a5 bd d1 a9 82 bd 60 7a f7 3d
       0.02990368 -0.080730386 -0.06380046 0.12083888
0002a0 b5 e7 96 bd 08 5a 4c bd 3c 3c c9 3d 75 f4 cd 3c
       -0.07368413 -0.049890548 0.09825942 0.02514098
0002b0 4b 5b ac bd a1 cc 01 be 67 d1 b4 bd b7 34 94 3d
       -0.0841585 -0.12675716 -0.08829003 0.07236617
0002c0 85 ca f0 bd 29 5b b1 bc 16 fa 7a 3c ad 1e a9 bd
       -0.117573775 -0.021649914 0.015318414 -0.08257804
0002d0 20 79 74 3d 8c 7a f3 3c 56 a0 9e 3d d0 7d 6d bd
       0.059685826 0.02972152 0.077454254 -0.057981312
0002e0 8a de e4 bd c7 01 ed bc 0a f6 74 3d 97 e1 ac bc
       -0.111752585 -0.028931512 0.059804954 -0.021103663
0002f0 b6 f5 45 3d a2 5a 19 3d b1 17 f1 bd 5d 4d 92 bd
       0.04833003 0.03743995 -0.11772097 -0.07143662
000300 fd 79 ee bd af 14 e8 bd 94 c5 01 3d 15 45 ae bd
       -0.11644361 -0.1133207 0.031682566 -0.0850927
000310 a3 cf 2b 3c 6b 00 00 be 12 47 c2 3c 19 f6 57 3d
       0.010486516 -0.1250016 0.02371553 0.05272493
000320 92 aa 92 bd 11 d9 8e bd 5b 3e 0d 3e 02 95 99 bd
       -0.0716144 -0.06974996 0.13793318 -0.07499124
000330 07 d6 b2 3d 7e 82 fd 3d 5b 84 2f bc e0 90 d6 bd
       0.08732229 0.12378405 -0.010712708 -0.104768515
000340 84 d3 df 3d 57 62 d4 3d 82 52 2b bd d8 06 e0 bd
       0.10929015 0.10370319 -0.041826732 -0.10938805
000350 88 56 c7 3a da 15 c2 bc b8 a9 36 3d 00 05 3a bd
       0.0015208283 -0.02369206 0.04459545 -0.045414925
000360 dc 16 81 bc ee 67 24 3d fe 31 a3 bd 69 84 de bc
       -0.01575797 0.040138178 -0.0796852 -0.027162747
000370 a7 56 b5 bd 1d f5 39 be a8 6d a0 3d 1c ef 72 3d
       -0.08854418 -0.1815991 0.07833415 0.059310064
000380 0f a8 ad bd f2 0d bf 3d 2e 6e 8b 3d 67 d3 5b bd
       -0.0847932 0.09328832 0.068081245 -0.053668406
000390 b1 25 65 ba be 13 0d be ca c1 f4 3d ea f5 81 bc
       -0.0008741273 -0.13777062 0.11951025 -0.015864331
0003a0 42 17 b8 bd 4e ec af bd 14 91 5f 3d 6c 2d 88 3d
       -0.08988811 -0.085899934 0.054581717 0.066492885
0003b0 4f 6c 9a 3d d7 9e c7 3d 02 26 04 3e 76 ef 80 3d
       0.075401895 0.09747093 0.12905124 0.062956735
0003c0 62 fd 1f 3d af 64 89 3c e1 c9 5b 3d a0 f0 8e 3d
       0.039060004 0.016771642 0.053659324 0.06979489
0003d0 fb dc be 3d ac 71 e0 3d 5f e5 85 3d 02 bb 21 3e
       0.093194924 0.10959181 0.0653789 0.15793994
0003e0 f1 2e 8f 3a 27 1a d0 bd 73 d0 45 b9 db 34 95 3c
       0.0010924024 -0.10161238 -0.00018865037 0.01821368
0003f0 68 b8 1e 3e c3 66 23 bd 3e fb d5 3d ac c3 84 bd
       0.15500033 -0.039892923 0.10448311 -0.06482634

transformer.layers.0.linear1.bias f4 [128]
000000 43 dd df 3d fc dc 90 3d 51 0f 73 3c d5 d2 42 3b
       0.10930874 0.070733994 0.014835195 0.0029727716
000010 0b d1 a4 3d 8e 0a ae bd 18 3c 70 bd 0d a3 ba 3d
       0.08047684 -0.08498107 -0.05865106 0.09113131
000020 ea 93 f1 bd 7d 51 78 bd ab dd 0b bd 5e f3 fd bc
       -0.117957905 -0.06062459 -0.034146946 -0.030999836
000030 96 47 a2 3c 79 0d ea bd 55 88 b6 3d 56 9a bf b8
       0.019809525 -0.11428351 0.08912722 -9.136337e-05
000040 b3 87 f1 3d 00 45 63 bd b0 53 b3 3d 7f 73 07 bc
       0.11793461 -0.055485725 0.087561965 -0.0082672825
000050 7d 28 32 3d 2b da 95 3c a0 9b 1a be 17 4b 11 3d
       0.043495644 0.018292507 -0.15098429 0.035472002
000060 0f c7 47 3d 66 77 23 3d 74 ec 75 bd 18 b7 8b 3c
       0.04877382 0.03990879 -0.060039952 0.01705508
000070 04 e2 1e bd e2 38 d8 3c 8e 97 9e 3d 79 21 62 bd
       -0.038789764 0.026394311 0.077437505 -0.055207703
000080 3f f4 d9 bd 18 d1 0c 3d 1a b6 ed 3c 68 d4 da bd
       -0.10642289 0.034379095 0.029017497 -0.106850445
000090 09 67 cd 3d a9 93 ff bd 45 11 d2 3d 51 9d d5 bd
       0.10029418 -0.12479336 0.102572 -0.10430396
0000a0 3e a0 81 bd 5a 11 8f bd cf 57 0d 3d 10 19 53 bd
       -0.06329392 -0.069857314 0.03450757 -0.051537573
0000b0 25 e9 23 3c 55 33 19 bc 96 df a4 bd 98 2c 11 3c
       0.010004316 -0.009350617 -0.08050458 0.00886073
0000c0 ed 78 8b 3c f5 5a 10 be 8a 35 0e 3d 2d 71 d1 bd
       0.017025435 -0.14097197 0.034719028 -0.10226665
0000d0 ae 9c d6 bc 54 c0 e9 3c f3 8a f0 bd 41 a2 43 bd
       -0.026197758 0.028534092 -0.117452525 -0.04776216
0000e0 8c b9 ab bd 3e fc a7 3d 7e 66 8a 3c e3 a7 02 bd
       -0.08385 0.08202408 0.016894575 -0.03189839
0000f0 98 27 fc 3c e5 84 68 bd f4 b1 5b bc 1f c1 9d bd
       0.030780599 -0.056767363 -0.013409127 -0.077028506
000100 10 c1 b6 bd 6d 2b a3 bd bb 49 11 bd 2d a8 15 ba
       -0.089235425 -0.07967267 -0.035470705 -0.0005708959
000110 d8 14 00 be 78 5e c9 3c 79 03 0b bc c0 da 35 be
       -0.12507951 0.024581179 -0.008484715 -0.17759228
000120 21 39 46 ba a2 b0 38 3c 9c 1d a2 3d 22 5f ac 3b
       -0.00075616135 0.011272581 0.07915804 0.005260364
000130 15 19 23 3b d6 65 c1 3c d9 7b d7 3d 6d 6a b7 bd
       0.0024886776 0.02360813 0.10521669 -0.08955846
000140 3d 50 a3 bd 91 d9 b6 bc c8 b0 d7 3c 68 20 09 3d
       -0.079742886 -0.02232054 0.026329413 0.03347817
000150 0a 54 f2 bd ac fc 1c bc 33 5a ad bd 75 83 0f be
       -0.118324354 -0.009581726 -0.0846447 -0.1401499
000160 df 89 86 bd 51 de 00 be 9f 62 7d bb 36 af a6 3c
       -0.065692656 -0.12584807 -0.003866352 0.020347219
000170 55 1d 2e bd 80 e4 9c bc c2 a3 ef 3d d2 97 9a 3d
       -0.042508442 -0.019151926 0.11701156 0.07548489
000180 c9 51 b2 3d 91 2c bc bd 22 4a bb 3c 49 53 ca bd
       0.087070055 -0.09188188 0.022862498 -0.09879167
000190 2a 5e 12 3d ec c1 49 bd 00 cf b4 bd b4 d8 0a bd
       0.035734333 -0.049257204 -0.088285446 -0.03389807
0001a0 3a 8d 48 3d 14 0c fb 3d 24 d7 09 be a8 a2 cb bc
       0.04896281 0.12258163 -0.13460976 -0.024857834
0001b0 f3 5c 0f 3d 80 e4 28 3d 6b 16 d3 bc 8b 0b cc bd
       0.035000753 0.04123354 -0.025767526 -0.09963139
0001c0 88 c4 79 3d 41 e6 6b 3c 76 99 dd 3d 4e d9 51 3d
       0.060978442 0.0143981585 0.10820286 0.05123263
0001d0 dc f6 be 3d ff 7c dd 3c 79 e2 e4 3d db 73 42 bd
       0.093244284 0.027037142 0.11176009 -0.04747377
0001e0 f1 8f 0d be ac 7b b3 3d 4d 45 1c bd 07 9b 68 3d
       -0.1382444 0.08763823 -0.038152028 0.05678847
0001f0 8b 80 ef bd 7e e9 30 3d 33 c8 ed 3c 10 b7 a1 3d
       -0.116944395 0.043191426 0.029026126 0.078962445

transformer.layers.0.linear2.weight f4 [64, 128]
000000 98 cc 15 3d ea 97 b0 bc 5b 20 12 bd d8 cb 41 bd
       0.03657207 -0.021556813 -0.035675388 -0.04731354
000010 81 b2 8c 3d f2 e6 43 3b 81 f0 ab 3a 58 ee 74 bd
       0.068699844 0.0029892293 0.001311794 -0.059797615
000020 80 de a0 3d de 1b 97 3d 39 86 8d 3c d9 77 dd bd
       0.078549385 0.07378362 0.017275916 -0.10813875
000030 f1 4a 6a 3d 6c 2b 42 3c 7c 7f 52 3d d8 c0 4f bc
       0.057200376 0.011851173 0.05139111 -0.012680255
000040 5f 32 cb 3b f3 c2 50 bd 44 25 02 bc 8a 6a b3 bd
       0.006201073 -0.050967168 -0.007943455 -0.08760555
000050 e4 7d 83 3c 46 24 ce 3d 21 cc 62 3d 75 eb ea 3a
       0.01605124 0.10065512 0.055370454 0.0017922955
000060 f6 a6 9d 3b 56 f1 9c bd 77 5b a3 3d 6d 75 16 3d
       0.004811163 -0.07663219 0.0797643 0.03673308
000070 34 84 88 bc 2a 8a 00 bd 59 d2 48 3d dc 05 aa bb
       -0.016664602 -0.031381764 0.04902873 -0.005188687
000080 d2 29 05 3d 39 93 58 3d dc da 83 bd c5 74 a7 3d
       0.032510586 0.052874777 -0.064382285 0.08176569
000090 f1 24 b7 3d a1 3e 8a 3c 62 1f 6d 3d bc 61 63 3c
       0.08942593 0.016875567 0.057891257 0.013878282
0000a0 65 5e d4 3d 38 13 64 3d 7b 4f 9b bc 2f d0 ba 3d
       0.10369567 0.05568239 -0.018958798 0.09121739
0000b0 73 e9 21 3d c1 c9 51 3d 18 6f 22 3d 4f bd c7 3c
       0.039529275 0.0512178 0.03965673 0.024382262
0000c0 5d ba 68 3d c2 b7 fd 3d e3 ce c3 bd 40 32 20 3d
       0.056818355 0.12388565 -0.09560945 0.039110422
0000d0 22 94 00 bc 9d c6 eb 3d 5c 43 fa 3d 79 fb 75 3d
       -0.007847818 0.11512492 0.12219879 0.060054276
0000e0 d4 e7 e6 bc 49 14 ab 3d ba eb 19 ba 05 de c6 3d
       -0.028186716 0.083534785 -0.0005871613 0.097103156
0000f0 3f a4 15 ba 6a e5 29 bc b1 5f 17 bd 01 bc d0 3d
       -0.00057083735 -0.010369638 -0.036956493 0.10192109
000100 42 2a 80 b9 f1 96 6d 3b 73 50 6f 3d bc 1c 3a bc
       -0.00024445547 0.0036253298 0.05842633 -0.01135939
000110 fb 91 fb 3d 4b f2 88 3d 24 2e c4 bc 73 de 84 3d
       0.12283703 0.06686839 -0.023947783 0.06487741
000120 64 cd 28 bc 97 67 b1 3c 52 83 49 3d 5d 97 9b bd
       -0.010302875 0.02165584 0.049197502 -0.0759723
000130 a8 90 bb 3d ee 14 ef bc f2 48 78 bc 38 5f b6 3d
       0.0915845 -0.029184785 -0.01515411 0.0890488
000140 97 2d 29 bb 90 d0 6a bd 8d 14 d7 3d ac 1a 74 3d
       -0.0025814527 -0.057327807 0.105019666 0.05959575
000150 81 8c 85 bd 04 76 a9 3d 78 e2 68 3d 0b 12 81 bc
       -0.065209396 0.08274463 0.056856602 -0.015755674
000160 12 23 fd 3d 7f 91 12 bd 95 b5 aa bd 59 7b 07 3e
       0.12360205 -0.035783287 -0.08335415 0.13230647
000170 b9 aa d9 3d 12 86 eb 3c 60 f9 1a 3d c2 44 0f bd
       0.10628266 0.028750453 0.03783548 -0.034977682
000180 5a 1d e7 3c 42 7c 33 3c e9 ba a3 bd 9b 97 54 bd
       0.028212238 0.010954918 -0.07994635 -0.051902395
000190 46 92 39 3d 60 bc c7 3d f8 e6 75 bb f0 7b 9c bd
       0.045305513 0.097527266 -0.0037521701 -0.07640827
0001a0 39 de dc 3d ae 32 94 bd 79 56 84 3d bd 67 b1 bd
       0.10784573 -0.07236229 0.06461806 -0.08662365
0001b0 0b 9d 25 bd 48 14 80 3c ab 9e a3 3d 73 25 a7 3d
       -0.04043297 0.01563467 0.07989248 0.0816144
0001c0 2b e6 38 bc 0c 9a 0a 3c 5a bb 0e 3d 48 38 7d bc
       -0.011285345 0.008459579 0.03484664 -0.015455313
0001d0 00 87 5c bd e2 cd a6 3d 67 4d 6f bc f6 45 91 bd
       -0.053839684 0.08144738 -0.0146058565 -0.07093422
0001e0 69 60 24 3d 8c 78 17 bd 0e b9 d0 bb 32 5d b3 bd
       0.040131006 -0.036980197 -0.0063697165 -0.0875801
0001f0 a8 3a 46 bc 5d 33 0f 3d 76 e3 99 3d 6d 66 3a bc
       -0.012098946 0.034961093 0.07514088 -0.011376959
000200 a8 ad 44 3d e0 b6 9a bd c0 1b bd bc 85 42 4a 3d
       0.048017174 -0.07554412 -0.023084521 0.049379844
000210 d5 4b df 3c df bc 19 bd b7 0d 38 bb e1 84 39 bd
       0.02725784 -0.037533637 -0.0028084347 -0.04529274
000220 2e 77 b8 bd f8 8e 59 3d 01 c5 8c 3d f9 f2 c6 bc
       -0.09007107 0.05311486 0.06873513 -0.02428578
000230 ae 0c 54 bd 25 ab 4e bc 87 b7 74 bc 4e 49 2e bd
       -0.051769905 -0.012614046 -0.014936334 -0.042550378
000240 cc ce 98 bd e0 fb 11 bd 13 ae 6e 3d 47 79 79 3d
       -0.074613184 -0.035640597 0.05827148 0.060906675
000250 a0 8a 05 ba 0b 16 a5 3d c6 1e 89 3d 9b 99 1b 3d
       -0.0005094204 0.08060845 0.06695323 0.037988286
000260 71 d0 4d bd d5 4b b8 3d e2 33 66 ba 01 40 a6 bd
       -0.050247613 0.08998839 -0.0008781535 -0.081176765
000270 a6 0f aa bd 66 ee 41 3b 97 6c d6 3c 16 a3 3f 3b
       -0.08303766 0.002959156 0.026174827 0.0029241494
000280 12 6e 07 3d 57 55 bb 3b 22 75 91 bd 13 00 79 3d
       0.033063956 0.0057169604 -0.071024194 0.060791086
000290 45 7e 79 3d 26 41 ac bc 3f 4c 74 bd 30 b6 95 3d
       0.060911436 -0.021027159 -0.059643026 0.0731014
0002a0 4d 1e ee 3c 7b 27 1e bc 05 7a c4 bc 17 6c b3 3d
       0.029067183 -0.009652968 -0.023983965 0.08760851
0002b0 4a f6 82 3b e1 0c 1d bd 73 83 8d bc 7b 21 bb bc
       0.003996645 -0.03834236 -0.017274594 -0.022843113
0002c0 76 14 4a 3d eb 63 40 bd eb 27 40 3c c8 2c 2a 3d
       0.04933592 -0.04697029 0.011728267 0.041546613
0002d0 e1 99 db bd f0 aa d7 3c 9f 93 b8 3a 2c 2b 01 bd
       -0.107227094 0.026326627 0.001408208 -0.031535313
0002e0 52 95 8a 3d c0 71 24 bd 9e da b1 3d 75 bb e4 bc
       0.06766762 -0.040147543 0.08684276 -0.027921418
0002f0 b7 c3 2f bd 70 63 43 3d 62 36 99 bd 48 33 6c bd
       -0.042911258 0.047702253 -0.07481076 -0.057666093
000300 ce 46 28 3d d4 72 16 bd 45 5c 6a 3d ff 0b dc 3c
       0.04108315 -0.036730602 0.0572169 0.026861189
000310 25 e3 e3 bd 94 09 ba bd dc bf bc 3d ce fd 8c bd
       -0.11127309 -0.09083858 0.09216282 -0.06884347
000320 06 f8 5d bc 48 76 a2 3d 57 33 33 3d a3 d0 50 3d
       -0.013547903 0.079327166 0.043750133 0.05098022
000330 84 64 37 bc c5 b8 17 bc a6 25 c7 bd 38 cd a1 ba
       -0.011193398 -0.009260361 -0.09723978 -0.0012344485
000340 85 6b 12 38 95 b2 1b bb 5f 30 79 3d 1e c1 b4 3c
       3.4909248e-05 -0.0023757566 0.060837146 0.022064742
000350 42 ac 37 3c ed ba f2 b8 a4 83 27 bd 57 36 44 3d
       0.011210503 -0.00011574277 -0.040897027 0.047903385
000360 48 26 e1 bd 21 25 26 3a 96 6c 98 3d 41 c5 c0 bd
       -0.1099363 0.000633793 0.07442586 -0.09412623
000370 6a 35 7f bd 77 9b c9 bd 23 5a 0a be 05 f6 39 bd
       -0.0623068 -0.09844106 -0.13510947 -0.045400638
000380 15 d9 ed 3c 0f 47 78 bd f1 d9 a1 3d 87 be ac bd
       0.029034177 -0.06061464 0.07902897 -0.08434778
000390 42 d0 c0 bb ae 1b a2 3b e3 ea 9d 3d 4c 38 07 bd
       -0.0058842013 0.0049471473 0.07710817 -0.033012673
0003a0 f7 b0 cc bc 53 6b 95 3d 59 38 1f bd 07 3d 84 3c
       -0.024986727 0.07295861 -0.038872097 0.016142381
0003b0 a8 7d a6 3c a4 b7 a6 3b 3b d2 96 bd 25 22 93 bd
       0.02032359 0.0050878096 -0.07364317 -0.07184247
0003c0 19 39 5f 3d b6 ed ac bd a7 c4 99 3d dc 61 95 bd
       0.054497812 -0.08443777 0.075082116 -0.07294056
0003d0 1e a0 3e bd bf 60 93 bc 92 69 9e bd 8b a2 69 bd
       -0.04653942 -0.017990468 -0.0773498 -0.05703978
0003e0 1a 97 3e 3d c2 5d 7b 3d 46 87 8f bd a5 63 3f bd
       0.04653082 0.06136871 -0.07008223 -0.046725888
0003f0 65 75 5b bd 45 bd 9a bd 1e a7 c3 3d fe 04 ee bc
       -0.053578753 -0.075556315 0.095533594 -0.029055115

transformer.layers.0.linear2.bias f4 [64]
000000 14 8d b3 3c 45 4d ac 3d ba da aa bd f5 33 b3 3d
       0.021917857 0.084131755 -0.083425 0.087501444
000010 56 1a 24 3d 9e 0e 62 bd 0f e5 d9 3c 7e cd a3 bb
       0.04006418 -0.05518972 0.026598481 -0.004998862
000020 8c a3 8c 3d 50 07 7b 3c 81 fb 56 bc 5c 72 94 3d
       0.068671316 0.015321568 -0.013121487 0.07248375
000030 04 70 32 bd 40 2e 2a bd 9d 94 b3 bc 11 3e b6 3d
       -0.043563858 -0.041548014 -0.02192145 0.08898557
000040 66 7a 6d 3d a6 2e 2c bc 43 06 a3 3c a6 34 0d bd
       0.057978056 -0.010509169 0.019900447 -0.034474038
000050 9a 84 9e 3c f3 71 78 3d 5f 80 d3 3c 94 18 23 bd
       0.019350339 0.060655545 0.025818048 -0.03981836
000060 ad cf df 3b 43 4c 9e bd 94 35 50 bd 9a 84 71 3c
       0.006830177 -0.077293895 -0.050832346 0.014741087
000070 cd 67 a0 3c ba e1 db bc 3a 22 8a 3c 99 f0 11 bd
       0.019580746 -0.026841033 0.016862024 -0.035629842
000080 64 1b 80 bd 1e 2a 2a 3c be a0 c4 bc 16 c3 1d bd
       -0.06255224 0.010386018 -0.02400243 -0.038516127
000090 49 91 d4 3b 63 09 83 bc 42 6d 34 3d b8 21 d5 3c
       0.006487046 -0.015995687 0.04404951 0.026017055
0000a0 b2 24 91 3d ca 2a 83 bd ee 02 1d bc 67 0b a5 bd
       0.07087077 -0.06404646 -0.009583218 -0.080588154
0000b0 13 a4 f6 3c d4 5c dd bc ef 22 9a 3d 09 18 07 38
       0.030107534 -0.027021803 0.07526194 3.2208893e-05
0000c0 89 9f a2 3c 68 83 bf 3d 25 98 80 bd e2 63 ac bd
       0.019851463 0.09351236 -0.06279019 -0.08417489
0000d0 b0 bf 20 bd 08 22 aa 3d ca cd 96 3d 8a ed 2c bd
       -0.039245307 0.08307272 0.0736347 -0.042218722
0000e0 43 00 9d bb 72 96 80 3c a2 d4 88 bd 8d 16 90 bd
       -0.004791291 0.015696738 -0.066811815 -0.07035551
0000f0 4e 8c cf 3b d7 69 4f bd 78 b9 cc 3c 82 0a 72 bd
       0.0063338643 -0.050638046 0.024990782 -0.059092052
